pythiatransformer/toy/toy_model.pt (torch, 963624 bytes, 69 tensors)

sos_token f4 [1, 1, 64]
0.80687284 -1.1065369 0.55507535 -1.2712293 1.1053121 -0.088923916 -1.5619946 -0.28810415
-0.23914856 -1.0899998 0.22505029 0.19792338 0.93553 1.2472306 -0.81499887 -0.18159316
-0.40909082 0.05161937 -1.1140398 0.30814412 0.6482545 1.0342814 -0.02616174 0.57923883
-0.1568747 2.2703664 0.025575345 1.5548131 -0.43476748 1.1177304 0.9100757 -1.9167715
-0.43483922 0.11634083 1.0708342 1.8525163 0.29360178 -1.0010798 -0.8966456 0.2342073
-1.045514 -1.697165 0.000757688 -0.7371098 -0.9136946 0.55213237 1.5195484 1.3459216
-1.1700691 0.96944547 -0.8025008 0.89713436 0.0028430023 0.47772545 -0.24343301 -1.4022001
-0.41992673 -1.3111094 0.22809716 -0.05156622 1.6930841 0.001567886 0.9976479 1.5082452
00000000: 388f 4e3f 00a3 8dbf 6b19 0e3f a4b7 a2bf
00000010: de7a 8d3f be1d b6bd 70ef c7bf 6382 93be
00000020: 5ce3 74be 1d85 8bbf 9573 663e 6dac 4a3e
00000030: e57e 6f3f 41a5 9f3f c4a3 50bf 8ff3 39be
00000040: 5a74 d1be d56e 533d db98 8ebf 11c5 9d3e
00000050: 02f4 253f 5563 843f 2551 d6bc ff48 143f
00000060: c3a3 20be af4d 1140 6383 d13c 1e04 c73f
00000070: d899 debe ca11 8f3f b9fa 683f c558 f5bf
00000080: 3fa3 debe 1a44 ee3d 1811 893f 411f ed3f
00000090: f952 963e 6223 80bf 918a 65bf 0ad4 6f3e
000000a0: 67d3 85bf b43c d9bf 959f 463a 3ab3 3cbf
000000b0: e4e7 69bf 8c58 0d3f 9080 c23f 2947 ac3f
000000c0: d3c4 95bf 942d 783f b170 4dbf 99aa 653f
000000d0: aa51 3a3b 6e98 f43e 8146 79be 4b7b b3bf
000000e0: a300 d7be 6fd2 a7bf 4d92 693e 1a37 53bd
000000f0: fbb6 d83f 8681 cd3a da65 7f3f 2e0e c13f

in_proj.weight f4 [64, 1]
-0.23556094 -0.2881771 -0.05137517 0.20073017 0.26880947 -0.6681853 0.12672386 0.7163628
-0.1451053 0.045583542 -0.23211795 0.86395186 -0.978399 0.14824586 0.2988741 0.019918837
0.5465361 0.7582161 -0.751263 -0.33320987 -0.39080045 -0.4298784 -0.9514728 0.56689817
-0.80559886 -0.065979 -0.8005178 0.26987818 0.7891096 -0.2884651 -0.39092067 -0.102826476
-0.33207706 -0.1360681 0.24678794 -0.5166521 -0.316309 -0.7669756 0.6117632 0.079132676
0.11545902 -0.023052722 0.92175376 0.92909795 0.74929315 -0.46040577 0.98235756 0.7131346
-0.8258149 -0.68891615 -0.9100086 -0.30488902 -0.83862674 -0.5681488 -0.53459215 0.9265444
-0.34792858 -0.08631854 0.6545623 0.11561269 0.050793536 -0.3040737 0.6625477 -0.78579575
00000000: e336 71be f38b 93be c56e 52bd 368c 4d3e
00000010: 65a1 893e 310e 2bbf e6c3 013e 8d63 373f
00000020: 7c96 14be cfb5 3a3d 54b0 6dbe f32b 5d3f
00000030: 5b78 7abf c3cd 173e 0706 993e d42c a33c
00000040: cae9 0b3f 731a 423f c652 40bf 7c9a aabe
00000050: ff16 c8be 0619 dcbe b993 73bf 3d20 113f
00000060: ba3b 4ebf ff1f 87bd bcee 4cbf 792d 8a3e
00000070: 1603 4a3f b3b1 93be c126 c8be b096 d2bd
00000080: 0106 aabe 7055 0bbe fab5 7c3e 5043 04bf
00000090: 41f3 a1be 8358 44bf 839c 1c3f 5010 a23d
000000a0: c775 ec3d 10d9 bcbc 0ef8 6b3f 5dd9 6d3f
000000b0: add1 3f3f 4eba ebbe c97b 7b3f fd8f 363f
000000c0: 9b68 53bf cf5c 30bf 53f6 68bf 6a1a 9cbe
000000d0: 3eb0 56bf 3372 11bf 08db 08bf 0432 6d3f
000000e0: b223 b2be c6c7 b0bd 6591 273f 59c6 ec3d
000000f0: e20c 503d 8caf 9bbe ba9c 293f e929 49bf

in_proj.bias f4 [64]
0.38765272 0.19025823 0.67646194 -0.6045143 0.61737376 0.60869265 -0.97481275 0.9179278
-0.0462212 0.6412978 -0.48360223 0.02845201 -0.78967035 -0.7433335 0.06832932 0.4511813
0.9042702 -1.0940409 0.67778593 0.35150734 1.0228782 -0.01331515 -0.03948283 -1.141342
0.60146123 -0.12027248 -0.24558057 -0.32109708 -0.73853326 -0.30035403 0.33664316 0.80456287
-0.68124276 -0.84718186 0.10053056 0.8783675 -0.0065554637 -0.10033437 -0.6405545 -0.18444996
-0.6240037 0.6174858 -0.007194037 -0.056139935 -0.48041067 0.6218971 -0.92376256 0.85306543
-0.39213702 -0.51782537 0.07608965 1.1549373 -0.34678867 0.73442644 -0.10937776 -0.8344755
-0.025665618 0.4083055 0.61184484 -0.2770601 -0.6570682 -0.2990647 0.5297572 0.06360792
00000000: 6b7a c63e 0ed3 423e 9c2c 2d3f 73c1 1abf
00000010: 350c 1e3f 48d3 1b3f 548d 79bf 51fd 6a3f
00000020: 7152 3dbd 182c 243f b69a f7be 3114 e93c
00000030: d627 4abf 1b4b 3ebf 3ef0 8b3d 3c01 e73e
00000040: 407e 673f 8809 8cbf 6183 2d3f c5f8 b33e
00000050: aced 823f c927 5abc bfb8 21bd 7f17 92bf
00000060: 5df9 193f 6b51 f6bd 7979 7bbe d666 a4be
00000070: 8410 3dbf 01c8 99be 7e5c ac3e d5f7 4d3f
00000080: ed65 2ebf e9e0 58bf f7e2 cd3d b1dc 603f
00000090: 37cf d6bb 1b7c cdbd 61fb 23bf 73e0 3cbe
000000a0: b5be 1fbf 8d13 1e3f f5bb ebbb fdf2 65bd
000000b0: 63f8 f5be a634 1f3f b47b 6cbf 7f62 5a3f
000000c0: 2fc6 c8be 3490 04bf e4d4 9b3d fcd4 933f
000000d0: 498e b1be 5f03 3c3f 7201 e0bd 30a0 55bf
000000e0: b440 d2bc 6b0d d13e dda1 1c3f d2da 8dbe
000000f0: 9f35 28bf 021f 99be 2b9e 073f df44 823d

transformer.encoder.layers.0.self_attn.in_proj_weight f4 [192, 64]
0.015215624 0.070260845 0.020456238 -0.08138865 0.037556257 0.11851701 -0.10669451 0.009080786
0.072896086 0.13634855 -0.10305877 -0.15511051 0.13423283 0.1008119 0.052302033 -0.00197225
-0.07381437 0.045847856 -0.10687829 -0.113953866 -0.11390147 -0.14372335 0.088301115 0.10901947
0.048283875 0.07246316 -0.13279374 -0.053833604 0.03858457 0.12018233 -0.03914531 0.08361406
0.06841972 -0.1308726 0.1319325 -0.06496457 0.09558702 -0.12704818 -0.0075342725 0.037402213
0.04171968 0.09117268 0.0032315527 0.103105664 -0.08088487 0.015791088 -0.054028943 -0.0060603535
-0.0378543 0.09180591 -0.031110609 0.025372643 0.15274718 0.0553641 0.102251865 0.08501379
0.082512565 0.04748226 0.106594466 -0.01204688 -0.027218947 0.06033932 0.09383365 0.014345052
0.019784981 0.048121713 0.078351855 0.13275015 -0.13888511 0.09793492 0.1360913 0.0363555
0.055782326 -0.10329995 0.054861974 -0.086301304 0.01751828 -0.11990518 0.12356487 -0.13717958
0.019265115 0.090486765 0.0915374 -0.15391023 -0.036034863 -0.03906992 -0.14100888 -0.03591284
-0.025108945 0.11160608 -0.0946371 0.0805687 -0.050624847 -0.093314745 0.111366875 -0.019975582
-0.04871693 -0.13773559 0.0646948 0.12495941 -0.007998773 -0.0064717173 0.0033627627 -0.058608864
0.12705016 0.05131124 0.016330937 -0.05437673 -0.02574765 -0.06781962 -0.1234062 -0.09151605
0.0061063585 -0.15381433 0.038909514 -0.019286262 0.05120867 -0.05384861 0.14039795 -0.13872306
-0.13071857 0.14301686 -0.075459056 -0.09826416 0.0028295647 -0.13111044 0.03489425 -0.036833253
0.120814994 -0.030864274 0.03262833 -0.0963655 -0.05966537 0.06556541 -0.06381879 0.1598361
-0.0061835195 0.054752875 0.12113513 0.042051237 0.13033663 0.042946093 0.04649256 -0.12664217
0.1074775 -0.13982901 -0.10715416 0.11592355 -0.120973 -0.08559371 0.13470654 0.10319802
-0.027410088 -0.021360997 -0.095543295 -0.06381529 0.01864832 -0.09819521 0.12314988 -0.035751894
-0.111916445 0.13232465 -0.03398654 0.058100354 0.03190093 -0.066198595 -0.021375163 0.12517287
-0.14928794 0.067414515 -0.09762577 0.12180091 -0.043978907 0.002081797 0.071602345 -0.12591408
-0.016954413 0.017212613 -0.1437755 -0.04000948 0.06687652 -0.13944453 -0.049878325 -0.040170662
-0.010098326 0.15080105 0.016993571 -0.041555192 0.1201463 -0.14081058 -0.13524906 -0.15231735
-0.050408218 -0.06131771 -0.14300826 0.055379607 0.044889778 -0.027255805 -0.07657201 -0.14410579
-0.14212392 -0.026166115 0.12763472 0.037657432 0.0006178837 0.011453316 0.08064105 0.07225668
0.08490795 0.07816696 -0.08086847 -0.14976247 0.045163635 0.14071006 -0.13556662 0.016263725
-0.08517694 0.05996982 0.08056867 -0.1489446 0.04821989 -0.09764664 -0.0735569 -0.13448805
0.08415067 0.1372509 0.124224894 -0.06739336 0.0065040174 -0.07346714 0.12663606 0.15151353
0.028767375 -0.07340255 -0.07979831 -0.06958595 0.13710777 -0.035777986 -0.0513938 0.058410544
0.06315117 -0.051116593 0.07422976 0.028929405 -0.007350242 -0.051618814 0.08043264 -0.036237266
0.093113326 0.11272949 0.015761746 0.04616971 -0.05399495 0.14211781 -0.08926885 -0.07455477
00000000: f44a 793c ebe4 8f3d d793 a73c 18af a6bd
00000010: 97d4 193d 0cb9 f23d a782 dabd 94c7 143c
00000020: 8b4a 953d f49e 0b3e 7a10 d3bd 4ad5 1ebe
00000030: 5574 093e 7876 ce3d a83a 563d dd40 01bb
00000040: fd2b 97bd f6ca 3b3d 01e3 dabd a560 e9bd
00000050: 2d45 e9bd 372c 13be 37d7 b43d 9a45 df3d
00000060: 50c5 453d 9167 943d 15fb 07be a080 5cbd
00000070: db0a 1e3d 2722 f63d d556 20bd d93d ab3d
00000080: a31f 8c3d 7803 06be 5019 073e 250c 85bd
00000090: 21c3 c33d eb18 02be 0fe2 f6bb 1033 193d
000000a0: 41e2 2a3d beb8 ba3d 75c8 533b 1029 d33d
000000b0: f7a6 a5bd 505c 813c 744d 5dbd ee95 c6bb
000000c0: 1c0d 1bbd bd04 bc3d addb febc 4ada cf3c
000000d0: c269 1c3e 77c5 623d 6d69 d13d b61b ae3d
000000e0: 59fc a83d c27c 423d 334e da3d 4760 45bc
000000f0: 45fa debc 5d26 773d db2b c03d 8207 6b3c
00000100: 1d14 a23c 461b 453d f076 a03d a8ef 073e
00000110: e637 0ebe 1a92 c83d 855b 0b3e 81e9 143d
00000120: 027c 643d ed8e d3bd f3b6 603d bdbe b0bd
00000130: 7f82 8f3c d990 f5bd 940f fd3d ce78 0cbe
00000140: e0d1 9d3c 2051 b93d f677 bb3d a59a 1dbe
00000150: 4b99 13bd c807 20bd a264 10be 5819 13bd
00000160: 46b1 cdbc ba91 e43d 19d1 c1bd 3401 a53d
00000170: 005c 4fbd cd1b bfbd 5114 e43d d5a3 a3bc
00000180: 678b 47bd 8f0a 0dbe b57e 843d b8ea ff3d
00000190: 490d 03bc b310 d4bb cc61 5c3b d90f 70bd
000001a0: 7019 023e bc2b 523d 75c8 853c 22ba 5ebd
000001b0: bcec d2bc 03e5 8abd 64bc fcbd c46c bbbd
000001c0: d917 c83b 8181 1dbe 955f 1f3d 39fe 9dbc
000001d0: 2fc0 513d 5c90 5cbd 7bc4 0f3e 6b0d 0ebe
000001e0: 17db 05be 0373 123e 478a 9abd b83e c9bd
000001f0: 3870 393b d141 06be 46ed 0e3d 77de 16bd
00000200: da6d f73d 13d7 fcbc 49a5 053d 465b c5bd
00000210: ad63 74bd 2847 863d 6db3 82bd 13ac 233e
00000220: 1f9f cabb 8d44 603d b215 f83d eb3d 2c3d
00000230: f776 053e 3ee8 2f3d fc6e 3e3d 7cae 01be
00000240: 2a1d dc3d 562f 0fbe a473 dbbd 5469 ed3d
00000250: b1c0 f7bd c14b afbd 83f0 093e 7c59 d33d
00000260: 1f8b e0bc 42fd aebc 34ac c3bd 97b1 82bd
00000270: 5dc4 983c 921a c9bd 0136 fc3d 9470 12bd
00000280: 7334 e5bd 1d80 073e 7835 0bbd a3fa 6d3d
00000290: 8daa 023d 2193 87bd f71a afbc 512d 003e
000002a0: f0de 18be 9f10 8a3d 05f0 c7bd c172 f93d
000002b0: 3a23 34bd c26e 083b 40a4 923d 9fef 00be
000002c0: fbe3 8abc 7701 8d3c e239 13be fbe0 23bd
000002d0: 8ff6 883d 8cca 0ebe 374d 4cbd fe89 24bd
000002e0: 7373 25bc 976b 1a3e 1a36 8b3c c735 2abd
000002f0: 430f f63d a630 10be bb7e 0abe 14f9 1bbe
00000300: d978 4ebd 4728 7bbd c270 12be bad5 623d
00000310: 58de 373d 9147 dfbc c9d1 9cbd 7890 13be
00000320: ef88 11be 525a d6bc adb2 023e ae3e 1a3d
00000330: 79f9 213a b0a6 3b3c 2327 a53d 4ffb 933d
00000340: 38e4 ad3d 0016 a03d 5e9e a5bd 555b 19be
00000350: 81fd 383d 4c16 103e fad1 0abe 813b 853c
00000360: 3f71 aebd eaa2 753d 3001 a53d ef84 18be
00000370: 3882 453d f6fa c7bd 00a5 96bd 3cb7 09be
00000380: 3057 ac3d 808b 0c3e 9f69 fe3d 8805 8abd
00000390: a71f d53b f175 96bd e2ac 013e 5d26 1b3e
000003a0: 8fa9 eb3c 1354 96bd 4c6d a3bd 1483 8ebd
000003b0: fb65 0c3e f08b 12bd 4e82 52bd e53f 6f3d
000003c0: 6755 813d a25f 51bd c605 983d 5cfd ec3c
000003d0: 4dda f0bb 406e 53bd deb9 a43d 876d 14bd
000003e0: 33b2 be3d b8de e63d c71e 813c 731c 3d3d
000003f0: cf29 5dbd 5587 113e 96d2 b6bd 2cb0 98bd

transformer.encoder.layers.0.self_attn.in_proj_bias f4 [192]
-0.0012629707 0.0031847453 0.003654866 -0.0002588761 -0.00084788556 -0.0004550993 0.0019784903 -0.0012358016
-0.0071913283 0.0028094852 -0.0004016692 -0.0017352249 -0.0017644065 0.0008522201 -0.004070185 -0.004554262
-0.0002629249 0.001928864 -0.0008117372 0.0021494138 0.0006400905 -0.0018960008 0.00071258016 -0.0011504147
1.42159315e-05 -0.0021577037 0.0011670598 0.00010684025 0.0015163419 0.0007844771 0.001997759 -0.00084451964
-0.0017581246 0.0007660697 -0.0016568555 0.0011293519 -0.00016091214 0.00055077503 -0.0002480449 -0.00021204397
0.00040963077 0.00010099514 -0.0010981378 0.0017938906 0.0009831467 0.002474459 0.00059944054 0.0011933412
-0.0011259937 -0.0024514585 -0.0008593278 0.00093050004 0.0019375051 -0.00078264566 0.000413138 0.0023636254
0.000512055 -0.0006658767 -0.0010744861 -0.0005812006 -0.00057713874 -0.0005168337 0.0038612883 3.3744178e-05
0.00045695907 -0.0035844122 -0.0028773893 -0.00030393526 0.0013552468 -6.467835e-05 -0.0037285564 0.0014065797
0.007902925 -0.0012754857 0.00048231336 0.0016583364 -0.002572929 -0.0015781645 0.0040580807 0.00272725
-0.0015304046 0.0009777532 0.00011176428 0.003017724 -0.0010085474 -0.0012937668 -0.0016078305 0.00045475026
0.0013882065 -0.00023733755 -0.0009799824 -0.0008940509 -0.00010572389 0.0014198658 0.0029388268 0.00017441048
0.0025545026 -0.0011682926 0.0022183915 -0.0019020786 0.00044631492 -0.00066039735 0.00077434623 -0.00020569972
-0.0008272541 0.0002499658 0.0011657312 -0.0011365248 -0.0017395102 -0.002516528 -0.00044621847 -0.0008264105
0.0010693142 0.00020060666 -0.002268104 -0.0007754672 0.0011490752 -0.00047552888 -0.0017256546 0.00035923725
0.0006821031 -0.000103486884 0.0013187262 -0.0008154136 0.001606736 0.00017235537 -0.00026414904 -0.0018714762
-0.12990357 0.016249705 0.09258377 -0.061667174 0.025069732 -0.040513698 -0.013590534 0.013753677
0.017595641 -0.1074564 -0.0033003958 -0.108003415 0.083917566 0.008197852 -0.09962029 -0.13535644
-0.032546114 0.11541364 -0.014452031 -0.032954358 -0.018064324 0.01677437 0.109874 0.022404693
-0.1080569 0.014314558 0.13646428 -0.10173785 -0.05872763 -0.15463357 -0.055977978 -0.07144232
-0.03784688 0.12499673 0.006986601 -0.012823112 -0.013285418 0.11423289 0.1445626 -0.010171331
0.10818215 -0.03479016 -0.06529893 -0.077353254 0.024305517 0.07074405 0.14601466 0.10511397
0.060395967 0.11690328 0.013150547 0.049355816 0.011389272 -0.09285113 0.018736558 0.008429051
0.13811544 -0.10110298 -0.028628994 -0.103274465 0.0520146 -0.057414245 -0.081733316 0.060223136
00000000: 448a a5ba 29b7 503b 7a86 6f3b c3b9 87b9
00000010: a344 5eba 659a eeb9 8fa9 013b 9ffa a1ba
00000020: 3ca5 ebbb 571f 383b 2197 d2b9 7c70 e3ba
00000030: a843 e7ba 8667 5f3a 305f 85bb eb3b 95bb
00000040: 2fd9 89b9 f0d1 fc3a c3ca 54ba 2edd 0c3b
00000050: bfcb 273a 3b83 f8ba 72cc 3a3a 83c9 96ba
00000060: f680 6e37 4368 0dbb 07f8 983a 6c0f e038
00000070: febf c63a 5ea5 4d3a d6ec 023b c162 5dba
00000080: df70 e6ba 11d2 483a d82a d9ba c306 943a
00000090: 86ba 28b9 e361 103a 060c 82b9 1f58 5eb9
000000a0: b6c3 d639 5acd d338 64ef 8fba fb20 eb3a
000000b0: eedc 803a 882a 223b c623 1d3a e369 9c3a
000000c0: 1496 93ba a6a8 20bb 8344 61ba cdec 733a
000000d0: e2f3 fd3a 762a 4dba 729a d839 0ee7 1a3b
000000e0: 6e3b 063a 3b8e 2eba c5d5 8cba b65b 18ba
000000f0: 204b 17ba 1f7c 07ba ab0d 7d3b 8988 0d38
00000100: 0294 ef39 75e8 6abb 9592 3cbb 8059 9fb9
00000110: 89a2 b13a eda3 87b8 cc5a 74bb fc5c b83a
00000120: 457b 013c 332e a7ba 01df fc39 895c d93a
00000130: 969e 28bb 6ada ceba a6f9 843b aabb 323b
00000140: db97 c8ba f427 803a fe62 ea38 02c5 453b
00000150: 3c31 84ba 9c93 a9ba d7bd d2ba 8c6b ee39
00000160: 7bf4 b53a d0dd 78b9 c172 80ba be5e 6aba
00000170: 15b8 ddb8 ca1a ba3a 5599 403b f5e1 3639
00000180: 7169 273b 6521 99ba 6f62 113b 2b4f f9ba
00000190: 60ff e939 841e 2dba 7ffd 4a3a 19b1 57b9
000001a0: 15dc 58ba d70d 8339 73cb 983a 72f7 94ba
000001b0: 4700 e4ba 55ec 24bb 6ef2 e9b9 78a3 58ba
000001c0: 3b28 8c3a f159 5239 79a4 14bb b948 4bba
000001d0: 919c 963a 6850 f9b9 5c2f e2ba 0258 bc39
000001e0: 2acf 323a 1907 d9b8 1cd9 ac3a 7bc1 55ba
000001f0: 1d99 d23a 4bba 3439 7c7d 8ab9 524c f5ba
00000200: 7105 05be 1a1e 853c 8f9c bd3d b896 7cbd
00000210: 0a5f cd3c b1f1 25bd d5aa 5ebc 1a57 613c
00000220: bc24 903c 1a12 dcbd 744b 58bb e530 ddbd
00000230: f9dc ab3d 4950 063c b905 ccbd e19a 0abe
00000240: 134f 05bd fd5d ec3d 36c8 6cbc 26fb 06bd
00000250: a2fb 93bc 676a 893c 9f05 e13d 0c8a b73c
00000260: f04c ddbd 9c87 6a3c 4bbd 0b3e ef5b d0bd
00000270: 628c 70bd 4358 1ebe 2a49 65bd 5a50 92bd
00000280: 5405 1bbd 49fe ff3d dbef e43b 0818 52bc
00000290: 15ab 59bc eff2 e93d 3808 143e a8a5 26bc
000002a0: 9a8e dd3d 2080 0ebd 72bb 85bd 626b 9ebd
000002b0: 5d1c c73c 42e2 903d de84 153e fe45 d73d
000002c0: c361 773d fd6a ef3d 6475 573c 5329 4a3d
000002d0: 129a 3a3c bc28 bebd 697d 993c 011a 0a3c
000002e0: 226e 0d3e 140f cfbd 5a87 eabc 9081 d3bd
000002f0: 430d 553d 332b 6bbd cc63 a7bd 89ac 763d

transformer.encoder.layers.0.self_attn.out_proj.weight f4 [64, 64]
-0.15225664 0.023491263 0.16710381 -0.16421211 -0.12392183 -0.11225255 -0.15948913 -0.057032954
-0.13658848 -0.22628896 0.06986535 -0.1507071 0.19930324 0.17166305 -0.089350745 -0.051151406
-0.0940671 0.18110897 0.0966059 0.1228663 -0.084375545 -0.18100326 0.23177661 -0.10551034
-0.17733672 -0.028931292 -0.060667537 -0.15958594 -0.16622609 0.08484882 0.16006222 -0.023637827
0.18556413 0.02501103 0.052039973 -0.103344105 -0.12328189 0.22308646 0.12924239 -0.06350779
-0.0075856335 0.036792357 -0.105345674 -0.16652922 -0.016372865 0.13840069 0.21696587 -0.080814525
-0.04206746 0.16698024 0.04030468 0.019180717 -0.17280656 -0.028362948 0.14162171 0.09242408
0.26387253 0.056827955 -0.103503644 -0.19102326 0.15262505 0.036996342 -0.18384197 -0.11334527
0.052343406 0.048267562 -0.17752123 -0.16169691 0.1289243 -0.09875388 0.1723324 -0.10295244
-0.09458936 -0.1410095 -0.15270106 -0.21048468 0.008500203 -0.17063731 -0.07385144 -0.23536953
0.123825885 0.20729879 -0.1447063 0.17041807 -0.07405501 0.14543651 0.19417521 0.1962738
-0.100913875 -0.08831215 0.0054767192 -0.10059693 0.12927826 -0.11219959 0.10871041 -0.1315012
0.11307118 0.10070137 -0.1234444 -0.16082567 -0.15409705 -0.018329177 0.11754268 -0.08922442
0.1993362 -0.056151997 -0.02615681 -0.030409558 -0.16530584 -0.15148991 0.03376114 0.20474572
-0.20717163 -0.13051091 0.020590734 0.12461987 0.08118152 -0.05426459 0.0830271 -0.17049523
0.17155765 0.012970074 0.13910256 0.14869818 -0.07537033 -0.09896131 0.1417244 0.19988996
-0.15097255 -0.041922092 0.19060172 0.045240805 -0.13207096 -0.1469864 0.012758122 -0.13145286
0.1354711 -0.08021005 0.16316274 0.0815418 0.16007294 0.09372775 -0.09602568 -0.057809666
-0.08673422 0.039678887 0.0075002275 0.0011849013 0.09983774 0.07130684 0.032178745 -0.20061994
0.046056654 0.047545545 0.07646009 -0.00968954 -0.097391516 0.032102436 -0.10354039 -0.15137915
-0.20633851 0.0964347 -0.059107598 -0.019507086 -0.0009306285 0.13104704 0.1234011 -0.13311785
-0.05363212 0.062152192 -0.14781946 -0.07145365 -0.104179114 0.0045990483 -0.070019655 0.05390949
0.031711094 0.0029919464 -0.016768487 -0.07664899 0.07128812 -0.10635263 -0.09149136 0.15128018
0.2986282 0.15414307 0.130602 0.0004017718 0.08195331 0.15797597 -0.1678248 -0.07498217
0.25377446 -0.040394466 0.13274057 0.07415014 0.08010426 0.1387783 -0.040737204 0.14683278
0.10294645 -0.07360016 -0.07017416 0.175763 0.07223028 0.107223146 -0.10649244 -0.1914867
-0.10514945 -0.14161783 -0.14184348 -0.08478086 -0.08170876 -0.062581465 0.08852836 -0.14223641
0.054054182 -0.19406569 0.10245787 -0.020753782 0.1473932 -0.03920417 0.024966858 -0.06240957
0.052446645 0.110231526 0.11835746 -0.1715199 -0.010874379 0.10468374 -0.097315535 -0.104250096
0.048849456 -0.032828584 -0.0007419706 -0.13256589 0.088043086 -0.22324127 0.057383228 -0.08770474
0.038046144 -0.0983143 -0.09308744 0.11033268 0.022738835 0.046339095 0.11420044 0.00020792331
0.119800165 -0.16251133 -0.07915373 0.1760295 -0.029989317 -0.15778182 -0.07391667 -0.1562945
00000000: 2ae9 1bbe c070 c03c 431d 2b3e 3827 28be
00000010: baca fdbd aae4 e5bd 1e51 23be 639b 69bd
00000020: dadd 0bbe 4bb8 67be 9115 8f3d f652 1abe
00000030: 2616 4c3e 70c8 2f3e 86fd b6bd 2384 51bd
00000040: 40a6 c0bd a174 393e 50d9 c53d 54a1 fb3d
00000050: 16cd acbd eb58 39be d956 6d3e ce15 d8bd
00000060: c297 35be 5101 edbc 867e 78bd 7f6a 23be
00000070: 2c37 2abe 38c5 ad3d 5ae7 233e 1ea4 c1bc
00000080: 8604 3e3e eee3 cc3c de27 553d 13a6 d3bd
00000090: 377b fcbd c770 643e 1e58 043e 5f10 82bd
000000a0: e890 f8bb 95b3 163d 79bf d7bd a386 2abe
000000b0: 6320 86bc e9b8 0d3e 4d2c 5e3e 1682 a5bd
000000c0: ee4e 2cbd defc 2a3e 8516 253d e120 9d3c
000000d0: 34f4 30be 6a59 e8bc 4805 113e d648 bd3d
000000e0: 4d1a 873e 6ec4 683d b8f9 d3bd 9a9b 43be
000000f0: be49 1c3e 7a89 173d 1241 3cbe 9121 e8bd
00000100: 0a66 563d 35b4 453d 20c8 35be e093 25be
00000110: bb04 043e 793f cabd e877 303e bbd8 d2bd
00000120: 11b8 c1bd cb64 10be ab5d 1cbe 4c89 57be
00000130: 6f44 0b3c 8cbb 2ebe 6c3f 97bd b604 71be
00000140: 6d98 fd3d 2246 543e e32d 14be 1382 2e3e
00000150: 27aa 97bd 4fed 143e ded5 463e 00fc 483e
00000160: efab cebd 00dd b4bd 0d76 b33b c305 cebd
00000170: 8561 043e e6c8 e5bd 90a3 de3d 40a8 06be
00000180: dd91 e73d 853c ce3d 6bd0 fcbd 7caf 24be
00000190: 9ecb 1dbe 1227 96bc 37ba f03d 4bbb b6bd
000001a0: ca1e 4c3e a3ff 65bd ce46 d6bc 771d f9bc
000001b0: ef45 29be 2c20 1bbe 1f49 0a3d dda8 513e
000001c0: cd24 54be a7a4 05be e6ad a83c b438 ff3d
000001d0: 7f42 a63d 8c44 5ebd 1d0a aa3d 4d96 2ebe
000001e0: cfac 2f3e 6f80 543c e770 0e3e 5644 183e
000001f0: c25b 9abd 3aac cabd 3320 113e f4af 4c3e
00000200: 8c98 1abe 80b6 2bbd 192d 433e 6c4e 393d
00000210: 9c3d 07be 9a83 16be 7107 513c 949b 06be
00000220: f0b8 0a3e 2b45 a4bd 2214 273e 63ff a63d
00000230: 29ea 233e 56f4 bf3d 1da9 c4bd d4c9 6cbd
00000240: b6a1 b1bd 5486 223d 78c4 f53b b14e 9b3a
00000250: bb77 cc3d 5209 923d dccd 033d 506f 4dbe
00000260: e7a5 3c3d 1ebf 423d 1c97 9c3d e0c0 1ebc
00000270: 3475 c7bd d87d 033d fc0c d4bd 2303 1bbe
00000280: 674a 53be 8e7f c53d cf1a 72bd 53cd 9fbc
00000290: 6cf5 73ba 3231 063e b7b9 fc3d 0c50 08be
000002a0: 5bad 5bbd 4c93 7e3d fc5d 17be 4b56 92bd
000002b0: dc5b d5bd 9db3 963b 7766 8fbd 33d0 5c3d
000002c0: 7ee3 013d 8814 443b 115e 89bc 25fa 9cbd
000002d0: 81ff 913d 68cf d9bd d25f bbbd 31e9 1a3e
000002e0: cce5 983e aed7 1d3e 88bc 053e e6a4 d239
000002f0: 23d7 a73d 74c4 213e 44da 2bbe 4090 99bd
00000300: baee 813e ab74 25bd 25ed 073e 07dc 973d
00000310: b40d a43d e61b 0e3e 0edc 26bd 555b 163e
00000320: 97d5 d23d aebb 96bd 78b7 8fbd 37fb 333e
00000330: 78ed 933d cf97 db3d b518 dabd 1715 44be
00000340: 9858 d7bd 4404 11be 6b3f 11be 96a1 adbd
00000350: ec56 a7bd b62a 80bd 5b4e b53d 6ca6 11be
00000360: eb67 5d3d 28b9 46be 6fd5 d13d d603 aabc
00000370: 3eee 163e 8d94 20bd 4c87 cc3c 2da1 7fbd
00000380: 4bd2 563d 11c1 e13d 6565 f23d eaa2 2fbe
00000390: 742a 32bc 6e64 d63d 5e4d c7bd 1381 d5bd
000003a0: 5e16 483d 4477 06bd ce80 42ba 5abf 07be
000003b0: ef4f b43d 5c99 64be ad0a 6b3d 8b9e b3bd
000003c0: 46d6 1b3d 0259 c9bd a1a4 bebd 1af6 e13d
000003d0: cb46 ba3c 10ce 3d3d ece1 e93d fd05 5a39
000003e0: ca59 f53d 5f69 26be 5a1b a2bd 1441 343e
000003f0: 28ac f5bc 8f91 21be a061 97bd aa0b 20be

transformer.encoder.layers.0.self_attn.out_proj.bias f4 [64]
0.1822857 0.12327578 0.22018623 -0.078674436 0.14801899 0.16718204 -0.18299295 0.12741475
0.034725964 0.12884973 0.09578279 -0.060646325 -0.1419683 -0.10679802 0.090362854 0.07014928
0.16020562 -0.2267974 0.14922442 0.004098209 0.16675037 0.032010008 0.017105928 -0.16018124
0.14363311 -0.04526616 0.02825454 -0.15921813 -0.15957326 -0.15903682 0.18230996 0.00781277
-0.1292867 -0.004872044 0.15788355 0.09474505 -0.08595513 0.14446047 -0.16330552 -0.07214615
-0.2060695 0.1683561 0.102619976 -0.2098801 -0.20567884 0.16677673 -0.17319782 0.13674635
0.076793596 -0.083788276 0.13586253 0.16681512 -0.030764023 0.16774656 -0.17149137 -0.155795
-0.15948209 0.1491185 0.14545333 -0.18594733 -0.14740168 -0.1771157 0.13639814 -0.093862504
00000000: 1aa9 3a3e 0378 fc3d 8078 613e 1020 a1bd
00000010: 4a92 173e c531 2b3e 8162 3bbe 0379 023e
00000020: d03c 0e3d 2ff1 033e c429 c43d 4868 78bd
00000030: 2360 11be ecb8 dabd 2910 b93d 6daa 8f3d
00000040: f10c 243e 943d 68be 49ce 183e 454a 863b
00000050: 9cc0 2a3e ed1c 033d bb21 8c3c 8d06 24be
00000060: 8f14 133e 0269 39bd 1176 e73c 140a 23be
00000070: 2c67 23be 8cda 22be 76af 3a3e 2201 003c
00000080: bc63 04be aba5 9fbb 3aac 213e b109 c23d
00000090: 3e09 b0bd 72ed 133e 9039 27be 5cc1 93bd
000000a0: e203 53be 8b65 2c3e 6c2a d23d cfea 56be
000000b0: 799d 52be 85c7 2a3e c55a 31be 3c07 0c3e
000000c0: f645 9d3d 3099 abbd 8c1f 0b3e 95d1 2a3e
000000d0: d504 fcbc c1c5 2b3e 6f9b 2fbe b988 1fbe
000000e0: 464f 23be 85b2 183e b8f1 143e fa68 3ebe
000000f0: 77f0 16be d15d 35be f4ab 0b3e fc3a c0bd

transformer.encoder.layers.0.linear1.weight f4 [256, 64]
-0.0038927093 -0.008573159 0.111365005 -0.11030175 -0.053931523 0.6397214 -0.004770731 0.06839621
0.11489785 -0.036220126 0.11953151 -0.14715032 -0.0076116566 -0.021486208 -0.06567474 -0.25786975
-0.24301709 -0.3186182 0.011787825 0.061975654 0.12602232 0.09382908 0.42174816 -0.0179179
0.11580258 -0.14685662 0.35460877 -0.20290364 -0.47128567 -0.0890567 -0.09632749 -0.113762826
0.057432555 -0.020368334 0.03134061 0.010281973 -0.058298156 0.6362297 0.1359204 -0.18869808
0.061931934 -0.031650558 -0.098608576 -0.06799383 -0.0006110173 0.011407067 -0.28401965 0.02764958
0.39755946 0.0034550412 0.47360587 0.062071543 0.03812309 -0.012442685 0.045332078 -0.3670438
0.11554629 0.08014451 -0.033197217 -0.08787062 -0.007840202 0.11787874 -0.18187363 -0.002233117
0.03391862 0.077749036 0.020905754 0.025673894 -0.013900071 0.032123663 -0.08714305 -0.12464542
-0.10296271 -0.0462168 -0.09523706 0.026203075 0.1849742 0.0073367204 0.10128917 0.06561044
0.071308345 -0.14330012 -0.10297344 0.010846742 0.057423472 0.07476124 -0.01936506 0.09864084
0.1378251 0.050683502 -0.0477058 -0.06298722 0.014684356 0.01287133 -0.12172265 0.108599134
0.050828837 0.12278013 0.008968522 0.07519916 0.09535877 0.09804006 0.0069773123 -0.01153567
-0.1096477 0.046613935 -0.035688847 -0.04868988 0.108876854 0.008705714 0.055323094 0.02259005
-0.048563648 0.123148516 0.10309489 -0.086484775 -0.106248684 0.045883015 0.024203906 -0.027354
0.0034015405 -0.023061505 0.083791554 0.0051486557 -0.09943358 0.14920047 -0.050823152 -0.062394403
-0.0062705493 -0.10739554 0.06142042 0.066908486 0.024112985 0.017405258 -0.0043419073 0.09930687
0.0070871674 0.036574457 0.13738704 0.11968198 0.10103305 0.11053385 0.10070707 -0.023927545
-0.15658809 0.0026538817 -0.11184654 -0.06446978 -0.10133843 -0.07517043 0.08861275 0.16628242
0.07557506 -0.12881789 0.09246844 0.040491227 0.052520044 -0.11734586 -0.050070003 0.069862045
0.00083845085 -0.09272689 -0.1015422 0.0577601 -0.044676315 -0.0636566 -0.085430406 0.07117392
0.080909036 -0.03504148 -0.10119487 -0.037380215 -0.08984874 0.11922107 0.05144517 0.0901008
0.14988892 0.116078965 0.09096872 0.10715815 0.12262281 -0.055270463 0.15150496 0.07272733
0.07184738 -0.038817894 -0.06822352 -0.13055933 -0.08388924 0.08755368 0.061485976 -0.06313132
0.0611944 -0.09553703 0.030086318 -0.06789864 -0.18397912 -0.095839866 0.0823283 -0.13047849
-0.10408212 0.033897635 -0.00905525 -0.1165348 0.041032553 0.22046654 -0.067723855 -0.089690395
0.08546009 0.060738012 0.031214837 -0.051234175 -0.19960958 -0.0975849 0.045522533 0.20396619
-0.08105276 -0.0298512 0.061553035 0.11536568 0.1058001 -0.04608253 -0.0038318222 0.072529964
-0.04679208 0.116970934 0.08328079 0.003929632 0.17606363 0.028507093 0.18308224 0.03956396
-0.13550487 -0.13206376 0.048921447 -0.079556055 0.15462038 0.0067209527 -0.12279681 0.0033898333
-0.0058030556 -0.048777897 -0.071612544 -0.3358299 -0.05049189 -0.15977228 -0.15979582 0.07087321
0.014546248 0.01694083 -0.07860552 0.15615132 0.29947463 0.13001806 0.030981729 -0.01717279
00000000: d31c 7fbb 6f76 0cbc 5613 e43d e2e5 e1bd
00000010: 4de7 5cbd c8c4 233f cb53 9cbb 5013 8c3d
00000020: 904f eb3d 8e5b 14bd f0cc f43d 93ae 16be
00000030: 346b f9bb d803 b0bc 7a80 86bd 8107 84be
00000040: 79d9 78be ed21 a3be b921 413c 2fda 7d3d
00000050: ff0b 013e 7629 c03d 60ef d73e 8fc8 92bc
00000060: e729 ed3d 9561 16be 488f b53e f9c5 4fbe
00000070: 5b4c f1be 5c63 b6bd 5947 c5bd 7cfc e8bd
00000080: 663e 6b3d 7edb a6bc 035f 003d b875 283c
00000090: 0cca 6ebd f3df 223f b82e 0b3e 123a 41be
000000a0: 57ac 7d3d 04a4 01bd 4bf3 c9bd 5940 8bbd
000000b0: ad2c 20ba b5e4 3a3c 066b 91be 5f81 e23c
000000c0: ea8c cb3e f96d 623b 787c f23e bb3e 7e3d
000000d0: f526 1c3d 67dc 4bbc 21ae 393d 2aed bbbe
000000e0: 89a3 ec3d ce22 a43d cef9 07bd 83f5 b3bd
000000f0: 3174 00bc 696a f13d 153d 3abe 7c59 12bb
00000100: 40ee 0a3d e33a 9f3d 8b42 ab3c 0f52 d23c
00000110: 20bd 63bc 1a94 033d 0e78 b2bd 1946 ffbd
00000120: 1dde d2bd d44d 3dbd a60b c3bd d5a7 d63c
00000130: e069 3d3e df68 f03b b270 cf3d c45e 863d
00000140: 1c0a 923d 44bd 12be bde3 d2bd 89b6 313c
00000150: e034 6b3d 6c1c 993d 79a3 9ebc 3504 ca3d
00000160: 0622 0d3e 8199 4f3d 2867 43bd 72ff 80bd
00000170: a796 703c 45e2 523c ba49 f9bd 3969 de3d
00000180: e631 503d 2674 fb3d b5f0 123c 0402 9a3d
00000190: 754b c33d 3ac9 c83d f0a1 e43b 1b00 3dbc
000001a0: f98e e0bd 41ee 3e3d 782e 12bd 0a6f 47bd
000001b0: d4fa de3d 69a2 0e3c 789a 623d c50e b93c
000001c0: adea 46bd 4a35 fc3d 6a23 d33d ee1e b1bd
000001d0: e998 d9bd d4ef 3b3d 4547 c63c 7f15 e0bc
000001e0: 61ec 5e3b 7beb bcbc e89a ab3d 0eb6 a83b
000001f0: d5a3 cbbd 02c8 183e f02b 50bd 4691 7fbd
00000200: 2e79 cdbb 31f2 dbbd fa93 7b3d 5107 893d
00000210: 9888 c53c 7995 8e3c 8f46 8ebb 6661 cb3d
00000220: 783b e83b 19cf 153d 30af 0c3e d31b f53d
00000230: 6aea ce3d 925f e23d 823f ce3d b303 c4bc
00000240: a158 20be bfec 2d3b cc0f e5bd bb08 84bd
00000250: 868a cfbd f4f2 99bd 9a7a b53d f045 2a3e
00000260: 19c7 9a3d d6e8 03be 1860 bd3d 21da 253d
00000270: 421f 573d 0753 f0bd 3416 4dbd d513 8f3d
00000280: 7ccb 5b3a 99e7 bdbd 5bf5 cfbd db95 6c3d
00000290: 83fe 36bd 645e 82bd 23f6 aebd a2c3 913d
000002a0: a3b3 a53d a887 0fbd 423f cfbd ff1b 19bd
000002b0: 9e02 b8bd 2d2a f43d 2cb8 523d c586 b83d
000002c0: 7b7c 193e cfba ed3d cf4d ba3d bb75 db3d
000002d0: ab21 fb3d 4863 62bd 1e24 1b3e 11f2 943d
000002e0: b824 933d 83ff 1ebd c6b8 8bbd 58b1 05be
000002f0: 1fce abbd 584f b33d b8d8 7b3d fe4a 81bd
00000300: fba6 7a3d eba8 c3bd 9577 f63c 710e 8bbd
00000310: 0665 3cbe b147 c4bd bd9b a83d 279c 05be
00000320: 0229 d5bd 3fd8 0a3d 795c 14bc cca9 eebd
00000330: c011 283d fbc1 613e ceb2 8abd 99af b7bd
00000340: b305 af3d 6cc8 783d 42b6 ff3c edda 51bd
00000350: 7466 4cbe 98da c7bd d675 3a3d 83dc 503e
00000360: fdfe a5bd 818a f4bc 091f 7c3d d744 ec3d
00000370: b9ad d83d 09c1 3cbd 4f1f 7bbb 978a 943d
00000380: 0da9 3fbd 758e ef3d 1e8f aa3d 24c4 803b
00000390: 064a 343e b587 e93c e979 3b3e d20d 223d
000003a0: cac1 0abe b93b 07be db61 483d 49ee a2bd
000003b0: ce54 1e3e 703b dc3b e57c fbbd f727 5e3b
000003c0: 8f27 bebb 55cb 47bd 99a9 92bd e6f1 abbe
000003d0: 96d0 4ebd 589b 23be 84a1 23be f925 913d
000003e0: 6353 6e3c 7fc7 8a3c eefb a0bd 22e6 1f3e
000003f0: bd54 993e 7423 053e 65cd fd3c f3ad 8cbc

transformer.encoder.layers.0.linear1.bias f4 [256]
0.0040998496 -0.09494799 -0.071810246 -0.08560242 0.08637596 -0.1635012 0.06327936 -0.05242216
0.08845048 -0.12643944 0.05284268 -0.09388595 0.11866378 -0.0974614 0.07697583 -0.028552605
0.035138577 -0.053560212 -0.092795685 -0.062126126 0.12606657 -0.0966531 0.08329698 0.03997171
0.025909554 -0.13285017 0.021965688 -0.07732101 0.006956993 0.07978414 -0.038000356 -0.023041181
-0.097252995 -0.1026247 0.080629714 0.0077866693 -0.07349988 -0.1601629 -0.05048074 -0.048649605
-0.045330793 -0.104113095 -0.08997139 -0.015042325 0.009270093 0.041684277 0.07605319 0.026903292
-0.078802966 -0.09664612 -0.003008725 -0.017536988 0.017307453 -0.14144717 0.04707709 -0.124431625
0.107851185 -0.113648176 0.0057894634 0.06778453 0.0023863784 0.03428386 0.11197621 0.07053979
-0.027523138 -0.089556426 0.012871982 -0.016071558 -0.114568055 -0.028153714 -0.10888586 0.0718974
-0.06451501 0.04214528 0.06717997 0.09572255 -0.00075253006 -0.026617493 -0.06634508 -0.0690521
-0.059984915 0.01715618 -0.035871677 -0.10465629 -0.026481196 -0.03445611 0.026368177 -0.08851077
-0.108447835 -0.092409514 0.074401505 0.05261649 -0.026381593 -0.10463627 -0.06924932 0.0350996
-0.0092341555 -0.098107435 0.008556013 -0.007426768 -0.09685436 0.072121054 -0.082514994 -0.09974881
-0.04752346 0.046257846 0.034394115 -0.015476229 -0.14840122 -0.009460345 0.014375161 -0.013524305
0.020459013 0.031072289 0.0704684 -0.15802374 0.07848197 -0.0010099165 -0.13730252 -0.14131504
0.08201021 0.030795861 -0.017255533 0.0004954644 -0.015734905 -0.01638424 -0.10370397 0.038579162
0.094366014 -0.040313177 0.011770857 0.035327334 -0.05276864 0.052106325 0.04017727 0.004065652
-0.15881567 0.06927282 0.10282641 0.020580659 0.012320658 -0.014270224 0.00040400636 0.04878096
0.06723922 -0.09613173 0.052990027 -0.08634466 0.11003609 -0.092858456 0.047356166 0.04597329
0.00035330435 0.0006883355 0.07834314 0.1290188 0.09355443 -0.026362313 0.120957784 0.10254498
0.06178698 0.013275126 -0.13859855 -0.13416114 -0.14558567 -0.10216815 -0.16965479 0.037746113
0.081853986 -0.050954368 0.070413895 -0.022410538 0.045794927 0.0075824247 0.053052567 0.051788636
0.047123447 -0.0039004385 -0.16348621 -0.16208136 0.002475215 -0.13623556 0.0020595703 0.0070076506
-0.12287498 0.075958036 -0.07184492 -0.08890809 0.05300482 0.08675442 -0.022661429 -0.07474269
-0.04026779 -0.11707624 -0.14192402 -0.05964992 -0.06926611 -0.060503427 0.029753832 0.0903237
-0.00609463 0.07502887 -0.099761754 0.04561822 -0.11159887 -0.13496482 0.0062116743 -0.008114992
-0.0314488 0.050307743 -0.028763745 0.016839925 -0.027741928 -0.14557827 -0.17583054 -0.062588595
0.037625153 -0.13549666 -0.0010186272 -0.060548052 -0.07047641 0.08038972 -0.03334932 -0.1538876
-0.0039647 -0.08061029 0.06937919 -0.061597507 0.05579325 -0.028826334 -0.069844075 0.032137733
-0.087209985 -0.11668219 -0.14845215 -0.050600853 0.07951321 -0.07796485 0.084864154 -0.06844522
-0.05926952 -0.08234107 0.079849154 -0.12696438 0.028406622 -0.027956605 -0.07901534 0.08006148
0.029500138 -0.18071328 -0.035827342 -0.031494517 0.040715408 -0.15489928 0.030089563 0.017621903
00000000: 0858 863b 1774 c2bd 4011 93bd 5250 afbd
00000010: e1e5 b03d dc6c 27be 9c98 813d 9eb8 56bd
00000020: 8625 b53d 5779 01be 9171 583d 4747 c0bd
00000030: ff05 f33d d899 c7bd 81a5 9d3d 27e7 e9bc
00000040: 78ed 0f3d f461 5bbd aa0b bebd f777 7ebd
00000050: 9817 013e 0ff2 c5bd 9b97 aa3d 60b9 233d
00000060: 4640 d43c e009 08be 63f1 b33c 7a5a 9ebd
00000070: 7df7 e33b de65 a33d 43a6 1bbd dcc0 bcbc
00000080: 942c c7bd e62c d2bd 3121 a53d 5127 ff3b
00000090: 1b87 96bd be01 24be e4c4 4ebd cf44 47bd
000000a0: c8ac 39bd 3f39 d5bd ec42 b8bd 1574 76bc
000000b0: 97e1 173c 22bd 2a3d c6c1 9b3d 4b64 dc3c
000000c0: 7363 a1bd 67ee c5bd 072e 45bb bba9 8fbc
000000d0: 5cc8 8d3c 87d7 10be e8d3 403d 02d6 febd
000000e0: 15e1 dc3d 60c0 e8bd 8ab5 bd3b 9ed2 8a3d
000000f0: c964 1c3b 3c6d 0c3d c853 e53d 2a77 903d
00000100: 3478 e1bc 5c69 b7bd 01e5 523c 80a8 83bc
00000110: a8a2 eabd 9ea2 e6bc 8dff debd f23e 933d
00000120: 7220 84bd 87a0 2c3d a795 893d 2f0a c43d
00000130: 7045 45ba ee0c dabc eedf 87bd 306b 8dbd
00000140: beb2 75bd 1e8b 8c3c 2eee 12bd 0956 d6bd
00000150: 18ef d8bc da21 0dbd 1302 d83c 2245 b5bd
00000160: e619 debd 3341 bdbd d15f 983d 6384 573d
00000170: 361e d8bc 8a4b d6bd 96d2 8dbd 99c4 0f3d
00000180: db4a 17bc 8dec c8bd 852e 0c3c 3f5c f3bb
00000190: 945b c6bd 34b4 933d 9ffd a8bd 1b49 ccbd
000001a0: f6a7 42bd de78 3d3d d8e0 0c3d 0290 7dbc
000001b0: 7df6 17be 90ff 1abc cc85 6b3c 0c95 5dbc
000001c0: a999 a73c 508b fe3c bd51 903d fad0 21be
000001d0: 28bb a03d 2d5f 84ba 0899 0cbe e4b4 10be
000001e0: f8f4 a73d 9a47 fc3c 7a5b 8dbc 0ee2 013a
000001f0: 7de6 80bc 3e38 86bc bf62 d4bd 2f05 1e3d
00000200: f842 c13d 6e1f 25bd 8dda 403c 65b3 103d
00000210: ee23 58bd 716d 553d ec90 243d 2939 853b
00000220: 93a0 22be e9de 8d3d a796 d23d c598 a83c
00000230: 96dc 493c a8cd 69bc d1d0 d339 8bce 473d
00000240: b7b4 893d b6e0 c4bd 120c 593d 78d5 b0bd
00000250: 9a5a e13d 932c bebd 8af8 413d 7d4e 3c3d
00000260: b53b b939 6a71 343a 5e72 a03d 811d 043e
00000270: 7799 bf3d c7f5 d7bc b7b8 f73d 1a03 d23d
00000280: 5814 7d3d ea7f 593c c7ec 0dbe 8a61 09be
00000290: 6914 15be 893d d1bd fcb9 2dbe ab9b 1a3d
000002a0: 10a3 a73d 87b5 50bd 2935 903d 4e96 b7bc
000002b0: 7693 3b3d fd75 f83b a64d 593d 5220 543d
000002c0: 8404 413d 809e 7fbb ee68 27be a8f8 25be
000002d0: 3737 223b 5681 0bbe dbf9 063b 6fa0 e53b
000002e0: e1a5 fbbd e38f 9b3d 6e23 93bd 7215 b6bd
000002f0: 951b 593d 4dac b13d 76a4 b9bc b212 99bd
00000300: d7ef 24bd abc5 efbd 8854 11be 7953 74bd
00000310: 64db 8dbd 71d2 77bd 4fbe f33c a2fb b83d
00000320: 76b5 c7bb bca8 993d e44f ccbd 2cda 3a3d
00000330: f38d e4bd 3834 0abe 4d8b cb3b bef4 04bc
00000340: 75d0 00bd 7e0f 4e3d f2a1 ebbc e2f3 893c
00000350: 0a43 e3bc 7812 15be ec0c 34be 732e 80bd
00000360: d51c 1a3d a3bf 0abe 7583 85ba 3c01 78bd
00000370: f055 90bd 5ea3 a43d 4c99 08bd b694 1dbe
00000380: 50ea 81bb 0217 a5bd ad16 8e3d ab4d 7cbd
00000390: 7787 643d 3425 ecbc 690a 8fbd dba2 033d
000003a0: 269b b2bd 12f7 eebd d703 18be d742 4fbd
000003b0: d2d7 a23d 09ac 9fbd 42cd ad3d 022d 8cbd
000003c0: 99c4 72bd 6fa2 a8bd f487 a33d f302 02be
000003d0: 01b5 e83c 4005 e5bc cbd2 a1bd 46f7 a33d
000003e0: 46aa f13c e70c 39be b1bf 12bd 6500 01bd
000003f0: 33c5 263d eb9d 1ebe 637e f63c cf5b 903c

transformer.encoder.layers.0.linear2.weight f4 [64, 256]
-0.15263626 0.005905644 0.059798665 -0.086395726 0.06769745 -0.11709999 0.091456026 -0.114446424
-0.0588008 -0.09043894 -0.0019452119 0.014598667 -0.116613165 0.007953181 0.064523086 0.09126724
-0.07023599 -0.0050903535 0.07350253 0.065901086 0.07817785 -0.19011089 0.07837695 -0.066056065
0.0069405534 -0.10728798 0.012116555 0.13762543 -0.22188139 -0.09600097 -0.122691885 -0.06860851
-0.076843575 0.024257345 0.16280587 0.11850619 0.12194242 -0.010884491 0.0048272167 0.0010603606
-0.09866582 0.03494295 -0.06700924 -0.11614488 0.094794266 0.0037949854 0.065177046 -0.022591375
0.07403149 -0.048502095 -0.08013814 0.17189941 0.058486722 0.024899406 0.061873 -0.08161996
-0.16526063 0.001995133 0.092586204 0.101726465 -0.14173879 0.063100636 -0.14630936 -0.0075828745
0.012811895 0.04829593 0.06455669 -0.25286108 -0.04400146 0.023562783 -0.080578804 -0.036934525
-0.09879163 0.12070717 0.029900149 -0.05983041 0.061670505 -0.07329393 0.04963142 -0.12952414
0.11884824 -0.024729641 -0.13681972 -0.12185723 0.05900661 0.08184894 -0.11138994 0.07484874
-0.057179436 0.03593723 0.0624368 0.12199173 0.14814253 -0.06651946 -0.047166303 -0.13055821
0.07626852 -0.097606465 0.07370795 -0.04761661 -0.104354285 -0.031918366 -0.03022319 -0.0458506
0.07416623 -0.13012634 -0.1352849 -0.18207471 0.13116965 0.10531997 0.06133556 0.045578554
-0.17311442 -0.09566117 0.0005631436 -0.096182376 0.012936077 0.06870371 -0.06499362 -0.068126015
0.061104268 -0.041293263 0.076671086 0.10258157 -0.030213902 -0.041878704 -0.015182802 -0.13517804
0.04629817 -0.15962751 -0.076443255 -0.052216884 0.10739184 -0.265563 -0.062885 -0.105559155
0.054889984 0.037489314 -0.06787283 -0.03699202 -0.23296645 0.0686281 0.07423634 -0.060991377
-0.06657464 0.11739231 0.013235723 0.028866813 -0.06506457 -0.058255907 0.081942335 -0.1458419
-0.061567955 -0.23040587 -0.06066876 0.02995848 0.101541474 -0.11108478 -0.14533737 -0.1229285
0.031944156 0.056500718 -0.10742141 0.03331352 0.11976859 -0.010716998 0.03794394 0.02445931
-0.07406515 -0.073637985 0.09864022 -0.033309076 -0.18916017 -0.01688692 -0.04215093 -0.008191253
-0.08385929 0.062260013 0.11426617 0.07546342 0.033190977 -0.046207324 -0.13021621 0.13139036
0.036200896 -0.19696687 -0.054692037 -0.06781676 -0.13240413 0.09388453 0.060023658 0.09280293
0.015501629 0.0031313426 0.078660145 -0.3114765 0.12615162 -0.021939155 0.097744025 0.021978358
-0.04372891 0.021530047 -0.06751671 0.037785314 -0.081488855 -0.1347762 0.06208055 -0.022224624
0.025238523 -0.045087837 0.045053914 -0.015027279 -0.019689191 0.12703913 -0.08746911 -0.117023654
-0.18309997 0.0250238 0.048884556 0.00038566437 -0.035450827 0.024516415 0.02039085 -0.10500981
0.11511188 -0.05872425 -0.052970774 0.05511623 -0.08439014 -0.008410674 -0.09919444 -0.092475116
-0.13492563 -0.03549192 0.036857694 0.095976144 -0.122292414 -0.11716537 0.0693224 0.0639428
-0.056174558 0.083064705 -0.044062052 0.082744755 0.07197428 0.09654365 0.009905774 -0.11496482
-0.08314182 0.12689528 0.07564961 -0.014808852 -0.056202907 -0.035668846 -0.4546781 -0.037233908
00000000: ae4c 1cbe 2284 c13b 72ef 743d 3ef0 b0bd
00000010: f6a4 8a3d 1fd2 efbd 4c4d bb3d e362 eabd
00000020: 1cd9 70bd 0d38 b9bd 7bf6 feba 3f2f 6f3c
00000030: e2d2 eebd 0f4e 023c ae24 843d 52ea ba3d
00000040: e3d7 8fbd fbcc a6bb 7f88 963d 26f7 863d
00000050: b51b a03d 6eac 42be 1884 a03d 6748 87bd
00000060: 956d e33b cdb9 dbbd 8484 463c aeed 0c3e
00000070: e034 63be 289c c4bd e245 fbbd 9e82 8cbd
00000080: 2a60 9dbd 57b7 c63c 95b6 263e 60b3 f23d
00000090: f3bc f93d dd54 32bc a12d 9e3b ccfb 8a3a
000000a0: 4e11 cabd 5720 0f3d 243c 89bd 5edd edbd
000000b0: 7f23 c23d 4ab5 783b 8b7b 853d 8c11 b9bc
000000c0: d29d 973d 22aa 46bd 771f a4bd 6606 303e
000000d0: c68f 6f3d d7f9 cb3c 8b6e 7d3d 5e28 a7bd
000000e0: 153a 29be c7c0 023b d69d bd3d f755 d03d
000000f0: f923 11be e83a 813d 1fd2 15be c379 f8bb
00000100: fce8 513c f4d1 453d 4c36 843d 0277 81be
00000110: e03a 34bd bd06 c13c 8006 a5bd a848 17bd
00000120: 4453 cabd 5235 f73d 28f1 f43c bb10 75bd
00000130: 369a 7c3d 211b 96bd 514a 4b3d faa1 04be
00000140: b566 f33d d195 cabc 781a 0cbe 4990 f9bd
00000150: eab0 713d 6ba0 a73d 6920 e4bd 4c4a 993d
00000160: fc34 6abd eb32 133d bbbd 7f3d cdd6 f93d
00000170: adb2 173e 5b3b 88bd 7431 41bd 0db1 05be
00000180: ab32 9c3d e6e5 c7bd 32f4 963d a209 43bd
00000190: b3b7 d5bd d5bc 02bd a096 f7bc d7cd 3bbd
000001a0: 77e4 973d d73f 05be 2088 0abe cb71 3abe
000001b0: 5651 063e ffb1 d73d ff3a 7b3d 94b0 3a3d
000001c0: e844 31be 01ea c3bd ed9f 133a 44fb c4bd
000001d0: d7f1 533c 88b4 8c3d 601b 85bd a785 8bbd
000001e0: 7848 7a3d 2023 29bd bb05 9d3d 4916 d23d
000001f0: 2583 f7bc 0189 2bbd 4ac1 78bc 1d6c 0abe
00000200: 26a3 3d3d 6575 23be 488e 9cbd 5fe1 55bd
00000210: 41f0 db3d e0f7 87be dac9 80bd 662f d8bd
00000220: 52d4 603d 658e 193d e900 8bbd f284 17bd
00000230: c28e 6ebe e48c 8c3d 3909 983d 18d2 79bd
00000240: 4958 88bd 616b f03d a5da 583c 187a ec3c
00000250: 9340 85bd bf9d 6ebd 62d1 a73d 9457 15be
00000260: ae2e 7cbd 84ef 6bbe ce7f 78bd 7c6b f53c
00000270: faf4 cf3d 6b80 e3bd 52d3 14be f0c1 fbbd
00000280: e0d7 023d 4c6d 673d c2ff dbbd c273 083d
00000290: 3c49 f53d 5996 2fbc 1b6b 1b3d e45e c83c
000002a0: 78af 97bd 83cf 96bd e203 ca3d 196f 08bd
000002b0: 34b3 41be 7056 8abc 74a6 2cbd 9b34 06bc
000002c0: 6bbe abbd 5b04 7f3d 6204 ea3d 918c 9a3d
000002d0: 43f3 073d e443 3dbd 6657 05be 328b 063e
000002e0: 6447 143d afb1 49be c204 60bd 83e3 8abd
000002f0: f394 07be 8846 c03d 5edb 753d 760f be3d
00000300: 8bfa 7d3c 3637 4d3b 9218 a13d d979 9fbe
00000310: e42d 013e beb9 b3bc 052e c83d f50b b43c
00000320: 161d 33bd c85f b03c 3346 8abd c6c4 1a3d
00000330: a1e3 a6bd c602 0abe 2d48 7e3d 6a10 b6bc
00000340: 05c1 ce3c 06ae 38bd 748a 383d fa34 76bc
00000350: 3a4b a1bc 8c16 023e 0123 b3bd 19aa efbd
00000360: 8f7e 3bbe b6fe cc3c 2c3b 483d ff32 ca39
00000370: e334 11bd a6d6 c83c b60a a73c 620f d7bd
00000380: c7bf eb3d d788 70bd e2f7 58bd 8ec1 613d
00000390: bdd4 acbd eccc 09bc 7426 cbbd 9863 bdbd
000003a0: f229 0abe fa5f 11bd 18f8 163d 248f c43d
000003b0: 7274 fabd 66f4 efbd e7f8 8d3d 71f4 823d
000003c0: 4b17 66bd d41d aa3d 697a 34bd 1576 a93d
000003d0: 4067 933d adb8 c53d d44b 223c ad72 ebbd
000003e0: 4246 aabd d6f0 013e 2fee 9a3d d4a0 72bc
000003f0: 0535 66bd 7f19 12bd 91cb e8be 9582 18bd

transformer.encoder.layers.0.linear2.bias f4 [64]
0.060531728 0.025839714 -0.030726641 0.027668485 0.0049418686 -0.045938455 0.012421283 0.023618924
0.026718117 -0.0036819447 0.0018243357 -0.10439919 -0.07045279 0.0065574627 -0.020033209 0.027518911
0.031451084 -0.027191548 0.045761183 -0.09981698 -0.03549764 -0.022012424 0.0480643 0.025017453
-0.03816926 -0.025420973 -0.05800257 -0.07413197 0.03599354 -0.01864507 0.049091537 0.018545743
0.049137946 -0.027909871 -0.012850242 0.08751043 -0.08463194 0.055887483 -0.015660295 -0.04634898
0.011171553 -0.0068875854 -0.04804033 -0.031251054 -0.010568576 -0.0031050097 -0.018460117 -0.038329188
-0.09641075 0.08242204 0.066598766 0.039531734 -0.0028304853 -0.0015598829 0.03582329 0.0029312323
0.05533785 0.102895655 0.04949935 -0.010929418 0.001540758 0.00049457425 -0.0050564255 -0.02758776
00000000: 1ef0 773d cfad d33c 70b6 fbbc 05a9 e23c
00000010: 66ef a13b f629 3cbd a382 4b3c 797c c13c
00000020: f4df da3c c84c 71bb 8c1e ef3a 3ecf d5bd
00000030: 8d49 90bd fcdf d63b af1c a4bc 576f e13c
00000040: dad2 003d cfc0 debc 1470 3b3d d86c ccbd
00000050: f965 11bd 6653 b4bc 12df 443d 67f1 cc3c
00000060: 5f57 1cbd a53f d0bc 1a94 6dbd 81d2 97bd
00000070: f66d 133d 8cbd 98bc 3514 493d 3eed 973c
00000080: df44 493d 3ea3 e4bc d289 52bc ab38 b33d
00000090: 8353 adbd 46ea 643d 054a 80bc 6ed8 3dbd
000000a0: e408 373c 41b1 e1bb f0c5 44bd 1b01 00bd
000000b0: d227 2dbc 6b7d 4bbb ac39 97bc 11ff 1cbd
000000c0: 0073 c5bd e3cc a83d ef64 883d 07ec 213d
000000d0: aa7f 39bb fc74 ccba 71bb 123d eb19 403b
000000e0: f1a9 623d f5ba d23d d5bf 4a3d 4d11 33bc
000000f0: 42f3 c93a 51a6 013a 5fb0 a5bb baff e1bc

transformer.encoder.layers.0.norm1.weight f4 [64]
1.0317074 0.8797395 1.0609571 0.8468708 0.96408284 1.0334632 1.078243 0.96252835
0.8285068 0.96784776 0.94393635 0.80094355 1.0232852 1.053297 0.79194283 0.97826165
0.94480693 1.1139883 0.9949648 0.8932725 1.1070216 0.8393477 0.9822551 1.0939375
1.0164417 0.80244344 1.0210633 0.9835027 1.0802234 0.92834663 0.9648444 0.9211496
0.91256005 0.9119094 0.87128234 0.87872213 0.9935118 1.0000772 1.0011914 0.8544512
1.0209566 1.0313183 0.92624456 0.9601142 0.9762718 1.0064127 1.0801855 0.9271013
1.046847 0.8687939 0.9680816 1.112743 0.8282617 1.0355332 0.9888154 1.1063608
0.99007165 0.9249521 0.9843266 1.0440737 1.0411009 1.0203161 0.99549043 0.90717864
00000000: fd0e 843f 9c36 613f 71cd 873f 86cc 583f
00000010: 22ce 763f 8648 843f de03 8a3f 4268 763f
00000020: 0619 543f dfc4 773f d0a5 713f a30a 4d3f
00000030: 02fb 823f 70d2 863f c4bc 4a3f 5b6f 7a3f
00000040: dede 713f 2b97 8e3f 03b6 7e3f 82ad 643f
00000050: e2b2 8d3f 7edf 563f 1275 7b3f 2506 8c3f
00000060: c31a 823f ef6c 4d3f 34b2 823f d5c6 7b3f
00000070: c344 8a3f 20a8 6d3f 0b00 773f 76d0 6b3f
00000080: 899d 693f e572 693f 5c0c 5f3f eff3 603f
00000090: ca56 7e3f 8802 803f 0a27 803f 50bd 5a3f
000000a0: b5ae 823f 3d02 843f 5d1e 6d3f 0bca 753f
000000b0: f3ec 793f 22d2 803f 8543 8a3f 8356 6d3f
000000c0: 15ff 853f 4769 5e3f 32d4 773f 5d6e 8e3f
000000d0: f508 543f 5a8c 843f 0223 7d3f 3b9d 8d3f
000000e0: 5675 7d3f a9c9 6c3f d4fc 7b3f 35a4 853f
000000f0: cb42 853f b899 823f 76d8 7e3f dc3c 683f

transformer.encoder.layers.0.norm1.bias f4 [64]
0.010170022 0.01285052 0.02153934 -0.044838622 -0.05926814 0.05291187 -0.026175296 -0.06892199
0.0014145817 -0.043681487 0.06365939 -0.096907355 0.03080652 0.018514719 -0.021434056 -0.0031210994
-0.04428884 -0.015049078 0.029654805 0.046492163 0.011253718 0.007353654 0.07004635 -0.011777526
0.025282482 -0.02502427 0.04228203 -0.040076863 -0.039896294 0.01832258 0.023709035 -0.07128765
0.037701607 0.111274056 -0.04077893 0.024088116 -0.0030770644 0.06005137 -0.033893846 -0.052029215
-0.043296438 -0.023484992 -0.08655678 -0.067092024 -0.03841805 0.0632289 -0.03640068 -0.08451929
0.024469161 0.11582092 0.080772035 6.38062e-05 0.09702031 0.019242924 0.01959776 0.00023125543
0.04692705 0.015918234 -0.047891516 -0.010841205 0.022218265 0.020372042 -0.02064509 0.065148175
00000000: 2aa0 263c fd8a 523c 4573 b03c b4a8 37bd
00000010: 26c3 72bd 1eba 583d 936d d6bc f926 8dbd
00000020: 7c69 b93a 5ceb 32bd db5f 823d 5d77 c6bd
00000030: f45d fc3c 2eac 973c 7996 afbc 5c8b 4cbb
00000040: 3768 35bd 6890 76bc a2ee f23c 916e 3e3d
00000050: 8461 383c ecf6 f03b 7674 8f3d 86f6 40bc
00000060: 351d cf3c b3ff ccbc ec2f 2d3d a327 24bd
00000070: 4c6a 23bd 3c19 963c 7339 c23c 42ff 91bd
00000080: 006d 1a3d a7e3 e33d cf07 27bd 7154 c53c
00000090: 93a8 49bb 6df8 753d 46d4 0abd 961c 55bd
000000a0: 9b57 31bd 9963 c0bc ae44 b1bd 8b67 89bd
000000b0: 3f5c 1dbd 277e 813d e118 15bd 7318 adbd
000000c0: 8d73 c83c 8533 ed3d cf6b a53d b1cf 8538
000000d0: 96b2 c63d 56a3 9d3c 7b8b a03c 287d 7239
000000e0: 9436 403d f566 823c e529 44bd 4f9f 31bc
000000f0: 1403 b63c 45e3 a63c e41f a9bc 686c 853d

transformer.encoder.layers.0.norm2.weight f4 [64]
1.0915344 0.84665126 1.1022043 0.85286546 0.96158475 0.9392385 0.97945213 0.9289858
0.8679113 0.87631565 0.92980045 0.8946566 1.0738325 0.9745553 0.78522336 0.9590643
1.038652 1.0661268 0.98284584 0.9854426 1.0854275 0.75649375 0.95879155 1.0538288
1.0701971 0.86883676 1.0377089 0.9220429 1.0030117 0.9496424 0.95932144 0.9237924
0.85983574 0.9344459 0.959976 0.86472774 1.0691209 0.9339083 1.015956 0.8623328
1.0499445 1.0094881 0.92520356 1.0045778 0.9645952 0.988964 1.0341994 0.8199195
1.0949829 0.690489 0.95616555 1.0499852 0.8986749 1.0925319 1.0535922 1.0845037
0.9612778 0.91272676 0.9899938 1.077631 0.9512716 1.0138208 1.0252987 0.9285469
00000000: 66b7 8b3f 23be 583f 0815 8d3f 6455 5a3f
00000010: 6b2a 763f ef71 703f 60bd 7a3f 03d2 6d3f
00000020: 6f2f 5e3f 3956 603f 6707 6e3f 3708 653f
00000030: 5873 893f 757c 793f 6604 493f 3d85 753f
00000040: 8cf2 843f d876 883f c99b 7b3f f745 7c3f
00000050: 4aef 8a3f 93a9 413f 5d73 753f dde3 863f
00000060: 38fc 883f 166c 5e3f a5d3 843f 010b 6c3f
00000070: b062 803f c41b 733f 1796 753f a97d 6c3f
00000080: 321e 5c3f d937 6f3f fdc0 753f cc5e 5d3f
00000090: f4d8 883f 9d14 6f3f d90a 823f d8c1 5c3f
000000a0: 9564 863f e836 813f 24da 6c3f 0196 803f
000000b0: b6ef 763f bf2c 7d3f a560 843f 3fe6 513f
000000c0: 6628 8c3f e3c3 303f 44c7 743f ea65 863f
000000d0: 8f0f 663f 16d8 8b3f 1cdc 863f 04d1 8a3f
000000e0: 4d16 763f 76a8 693f 3c70 7d3f d0ef 893f
000000f0: 8986 733f e1c4 813f fd3c 833f 40b5 6d3f

transformer.encoder.layers.0.norm2.bias f4 [64]
0.014316782 0.032583408 0.029234348 -0.03999447 -0.052700732 0.08759635 -0.04168343 -0.07470688
-0.015105376 -0.022564271 0.031020889 -0.05606767 0.00321023 0.025045706 0.025064869 0.035968736
0.06312302 -0.026543219 0.033820353 -0.06837691 0.007920473 0.006150994 0.056826938 -0.019771552
0.009878437 -0.026742058 0.030321935 -0.04692963 -0.056189705 -0.0022182707 0.045984935 -0.02793863
0.0256618 0.04846198 -0.042543888 0.04048309 -0.10597416 0.1094524 -0.034653086 -0.021683393
-0.04252234 -0.015747208 -0.07376612 -0.039794717 -0.028764192 0.0753161 -0.06856583 -0.1000686
-0.031222615 0.044807367 0.08443967 0.010245835 0.056754135 0.015241523 -0.024207119 0.059691887
0.038178854 0.053228773 -0.048759285 -0.0065192194 0.02189242 0.012243763 0.005478609 0.014970079
00000000: f090 6a3c 2e76 053d df7c ef3c 3ed1 23bd
00000010: b9dc 57bd b765 b33d 3fbc 2abd ecff 98bd
00000020: 8a7c 77bc b5d8 b8bc 851f fe3c 37a7 65bd
00000030: b962 523b a72c cd3c d754 cd3c f453 133d
00000040: a446 813d 2a71 d9bc 3687 0a3d 3209 8cbd
00000050: dfc4 013c 478e c93b 5dc3 683d f3f7 a1bc
00000060: 2bd9 213c 2912 dbbc b565 f83c 4939 40bd
00000070: 2d27 66bd 6860 11bb b35a 3c3d 8edf e4bc
00000080: b238 d23c 1280 463d 8042 2ebd 99d1 253d
00000090: fb08 d9bd 9428 e03d 65f0 0dbd 5fa1 b1bc
000000a0: e82b 2ebd 4a00 81bc b112 97bd c9ff 22bd
000000b0: e2a2 ebbc 543f 9a3d 3e6c 8cbd c4f0 ccbd
000000c0: 92c6 ffbc ee87 373d b5ee ac3d 26de 273c
000000d0: 0677 683d 95b7 793c 024e c6bc 7b7f 743d
000000e0: 6e61 1c3d 6a06 5a3d d1b7 47bd 2d9f d5bb
000000f0: bb57 b33c 109a 483c e785 b33b 1045 753c
