pythiatransformer/toy/toy_model.pt (torch, 962664 bytes, 69 tensors)

sos_token f4 [1, 1, 64]
000000 d1 16 4c 3f 10 d6 8b bf aa 4e 0c 3f cd ea 9f bf
       0.79722315 -1.0924702 0.5480753 -1.249353
000010 3f 07 8c 3f c7 46 8e bd 3b f0 c5 bf a0 a8 8b be
       1.0939711 -0.069470935 -1.5463938 -0.27277088
000020 d9 51 7d be 24 b5 8b bf d6 11 5c 3e c7 02 4c 3e
       -0.24738254 -1.0914655 0.21491179 0.19922934
000030 d0 96 6e 3f ac 10 99 3f 97 6b 50 bf bd 5a 2c be
       0.9319887 1.1958213 -0.8141417 -0.16831489
000040 d3 55 d4 be 6c 14 4b 3d 0c bd 8d bf f8 00 92 3e
       -0.4147173 0.049580023 -1.1073318 0.28516364
000050 6a de 29 3f 50 f8 80 3f 35 e3 98 bc 2c c0 0c 3f
       0.66355 1.0075779 -0.018663028 0.5498073
000060 19 42 28 be 3e 9d 11 40 a8 ba 6b 3c c8 f3 c5 3f
       -0.16431464 2.2752223 0.014387764 1.5465021
000070 71 3f e3 be b4 41 8a 3f da 7d 69 3f 6f 49 f4 bf
       -0.4438434 1.0801301 0.9120766 -1.908491
000080 b9 45 e0 be c1 73 de 3d ae 2b 89 3f 14 4c e4 3f
       -0.43803194 0.10861922 1.0716455 1.7835717
000090 15 70 94 3e 2c a4 7e bf 33 ad 6c bf e1 ee 55 3e
       0.28991762 -0.99469256 -0.9245178 0.20891906
0000a0 ad d8 80 bf f8 c1 d7 bf 45 0d af bb 8c 15 38 bf
       -1.0066124 -1.685607 -0.005342158 -0.7190788
0000b0 84 53 67 bf 21 6c 14 3f b4 f4 c2 3f b5 35 b2 3f
       -0.9036181 0.5797749 1.5230927 1.392264
0000c0 73 2a 95 bf 0c 21 75 3f d3 0e 42 bf 62 8b 59 3f
       -1.165358 0.9575355 -0.7580387 0.84978306
0000d0 17 73 2f 3c 29 2e dd 3e db cb 82 be e5 a7 b3 bf
       0.010708592 0.4319928 -0.25546154 -1.4035612
0000e0 1c 7e d5 be bb 8c a5 bf 78 da 6d 3e 6b b0 56 bd
       -0.41697776 -1.2933573 0.2322787 -0.05241434
0000f0 5d 6f d8 3f c5 90 7d bc 94 01 83 3f 1f 57 c0 3f
       1.6908985 -0.01547641 1.0234857 1.5026587

in_proj.weight f4 [64, 1]
000000 4b 58 6e be 60 3b 9b be 31 c4 2b bd f3 66 45 3e
       -0.23275869 -0.30318737 -0.04193515 0.19277553
000010 0c 7c 8c 3e e9 bb 23 bf bc bb f3 3d 95 39 38 3f
       0.2743839 -0.63958603 0.11901042 0.71962863
000020 37 80 33 be ea 73 91 3d 25 b2 67 be ca ca 55 3f
       -0.17529379 0.07102187 -0.2262655 0.83512557
000030 42 60 78 bf e1 8f 15 3e 89 31 84 3e 2d a0 c0 3c
       -0.9702188 0.14605667 0.25819042 0.023513878
000040 af 6c 0c 3f 67 aa 3c 3f 0c 76 42 bf 2d 3d a7 be
       0.5485334 0.73697513 -0.75961375 -0.3266386
000050 31 85 c2 be 5d a1 bc be ff 6c 6a bf 9c cd 0e 3f
       -0.37992242 -0.3684186 -0.91572565 0.55782485
000060 de e1 4c bf ee 86 86 bd 97 5b 45 bf 73 79 8b 3e
       -0.80032146 -0.065687045 -0.7709288 0.27241096
000070 df d8 48 3f 90 9e 96 be 87 69 c5 be 32 0c d5 bd
       0.7845592 -0.2941785 -0.38557073 -0.10402717
000080 38 6e a8 be 64 c1 1e be e9 7f 85 3e 42 38 01 bf
       -0.3289659 -0.1550346 0.2607415 -0.5047647
000090 ad 5f 9d be 5d 64 3d bf 06 dc 18 3f e5 4b c3 3d
       -0.30737057 -0.7398127 0.5971073 0.0953596
0000a0 72 bb e8 3d e3 95 aa bc 19 c1 5e 3f cd ab 5c 3f
       0.11363877 -0.020823425 0.87013394 0.8619965
0000b0 40 e9 3b 3f 54 b5 f3 be 8a a8 76 3f 06 89 39 3f
       0.73402786 -0.4759928 0.9635092 0.72474706
0000c0 d1 df 4e bf 7a 2e 34 bf 73 a1 5f bf 66 1b 9b be
       -0.80810267 -0.7038342 -0.87355727 -0.3029434
0000d0 56 19 54 bf f2 e0 11 bf 49 ec 01 bf db 88 68 3f
       -0.8285116 -0.56983864 -0.5075117 0.90833825
0000e0 85 56 b3 be 36 98 b2 bd e5 9b 29 3f 0b 5c fa 3d
       -0.35026947 -0.08720438 0.662535 0.12224587
0000f0 43 ec 56 3d f3 0a a0 be bd 63 28 3f 4d e7 40 bf
       0.05247141 -0.31258354 0.6577719 -0.75352937

in_proj.bias f4 [64]
000000 5e b9 d8 3e db 47 51 3e 32 0b 33 3f 76 f4 31 bf
       0.42328924 0.20437567 0.6993896 -0.6951364
000010 94 8f 1f 3f 33 27 23 3f 61 15 81 bf ed e7 70 3f
       0.6232846 0.6373169 -1.0084649 0.9410389
000020 4f 63 1a bd d2 f4 29 3f 97 cd ff be e4 53 cc 3b
       -0.037692364 0.6638919 -0.4996154 0.0062355865
000030 12 6b 4e bf 01 97 4a bf df 00 6c 3d 16 75 e8 3e
       -0.80632126 -0.79136664 0.05761802 0.4540183
000040 ef 49 70 3f e8 30 91 bf 93 0e 34 3f b7 33 c7 3e
       0.93862814 -1.134305 0.7033474 0.38906643
000050 0c 1a 8b 3f 94 7d cf bb a1 07 f9 bc 3f a5 93 bf
       1.0867324 -0.0063321088 -0.030399146 -1.1534804
000060 2f 8e 22 3f 93 62 56 bd d2 1c 66 be e7 58 af be
       0.63498205 -0.0523401 -0.22471932 -0.34247515
000070 15 e1 3c bf b9 dc a3 be be 69 b9 3e 46 9e 50 3f
       -0.7378095 -0.32004336 0.36213487 0.81491506
000080 ce 67 33 bf de b1 6d bf 9e 21 d6 3d b4 e0 6b 3f
       -0.7008027 -0.9284953 0.10455631 0.92139745
000090 35 47 83 ba 25 f2 9a bd fa 7d 30 bf 8c 8f 4a be
       -0.0010015728 -0.07565717 -0.68942225 -0.19781321
0000a0 6e 92 2c bf 22 eb 26 3f 57 d9 d9 bc 1b 27 9f bd
       -0.67410934 0.65202534 -0.026592894 -0.07771131
0000b0 90 88 06 bf 19 1e 27 3f cb 08 76 bf e8 4d 59 3f
       -0.5255213 0.652803 -0.96107167 0.848845
0000c0 db b7 c3 be 51 2c 12 bf d2 4c c4 3d 89 19 93 3f
       -0.38226208 -0.5709887 0.09584965 1.1492168
0000d0 07 37 be be bc 85 4a 3f 4b f6 ad bd 4f be 5f bf
       -0.37151358 0.7911031 -0.08494242 -0.8739976
0000e0 3e 79 8c bc 58 4d dc 3e 59 39 1f 3f ed 3b 8c be
       -0.017147657 0.4302776 0.6219688 -0.2738947
0000f0 a6 9c 32 bf 7c c5 9c be ec e9 06 3f 1e 48 90 3d
       -0.69770277 -0.3061942 0.52700686 0.07045005

transformer.encoder.layers.0.self_attn.in_proj_weight f4 [192, 64]
000000 76 6b 5e 3c b2 f8 8a 3d 72 28 ac 3c dc c3 a4 bd
       0.013575425 0.06785716 0.02101538 -0.0804517
000010 2b ed 26 3d db 41 e9 3d 2f d3 da bd 1d 30 83 3c
       0.040753525 0.11389514 -0.10684811 0.016014153
000020 0b 74 90 3d 8c 46 0d 3e dd 94 d8 bd 9c 1f 18 be
       0.070533834 0.13796443 -0.105752684 -0.14855808
000030 0f c7 00 3e 50 13 cf 3d 5b 68 61 3d ff b0 81 ba
       0.12575935 0.101111054 0.05503116 -0.0009894668
000040 40 69 8b bd a8 81 4e 3d 14 db e5 bd ca 4f ef bd
       -0.06807184 0.05041662 -0.112234265 -0.116851404
000050 2a 3c ed bd b9 a9 16 be 46 81 a5 3d 9b c8 e5 3d
       -0.11583741 -0.14713182 0.080812976 0.11219903
000060 dd 6b 2e 3d 8c 21 92 3d 1e 0e 0f be 26 06 54 bd
       0.042583335 0.07135305 -0.13970229 -0.051763676
000070 5b d0 34 3d cd 85 ef 3d 48 b3 2c bd 45 6f ab 3d
       0.044144016 0.11695442 -0.042163163 0.08370832
000080 b5 30 84 3d 02 97 08 be 3f a8 09 3e 10 83 8b bd
       0.06454603 -0.13338855 0.13443087 -0.068121076
000090 eb 1f be 3d a3 78 08 be b2 5a 56 bb 1c 87 1c 3d
       0.092834316 -0.1332727 -0.0032707867 0.038214788
0000a0 a5 bd 2b 3d cb 1d bc 3d 2e 77 25 3c ba c6 e1 3d
       0.041928906 0.0918537 0.010099215 0.11024232
0000b0 51 68 9a bd 90 e8 4d 3c a8 d6 42 bd b1 25 62 3a
       -0.07539428 0.012567654 -0.047567993 0.0008626832
0000c0 62 84 38 bd bc c2 ae 3d 58 c2 1b bd ce 52 c6 3c
       -0.045048125 0.085332364 -0.038027138 0.024209406
0000d0 d4 10 15 3e 6b ae 52 3d f3 75 c7 3d 34 09 bb 3d
       0.145572 0.05143587 0.09739294 0.09132615
0000e0 51 96 a2 3d 4c 71 41 3d 14 53 e7 3d f9 1f 36 bc
       0.07938827 0.04722719 0.11295143 -0.011116021
0000f0 95 a1 e2 bc 4a 78 6a 3d 54 b2 cc 3d 4e 79 08 3c
       -0.027664939 0.057243623 0.09994951 0.008329703
000100 eb 3c bf 3c 40 ea 59 3d 76 7e 9d 3d 89 e1 05 3e
       0.023344478 0.053201914 0.07690136 0.13074316
000110 55 6b 15 be bf db db 3d 40 f9 0b 3e f9 c7 b8 3c
       -0.14591725 0.107352726 0.136693 0.022556292
000120 5d 83 77 3d 3a 18 db bd 86 76 79 3d fa 8d cb bd
       0.060428012 -0.1069798 0.06090405 -0.09939189
000130 c7 9d 0a 3d d6 9a f6 bd 30 99 f0 3d db d6 0e be
       0.033841874 -0.12041251 0.11747968 -0.13949148
000140 e6 a8 f2 3b 44 2f a6 3d 68 64 d1 3d 46 7b 17 be
       0.007405388 0.08114484 0.10224229 -0.14793119
000150 1e d1 02 bd 5a 88 01 bd 20 74 01 be 74 0f 2e bd
       -0.03193771 -0.031624176 -0.12641954 -0.042495206
000160 c4 70 60 bc 8f 68 e9 3d b3 07 a6 bd 6f e3 9b 3d
       -0.01369876 0.11396896 -0.08106937 0.07611739
000170 3a b5 7c bd 4c db b0 bd a0 34 f1 3d 0c 58 a7 bc
       -0.06169627 -0.086355776 0.117776155 -0.020427726
000180 a9 b5 25 bd cd 2e 07 be 97 1a 73 3d b0 c6 06 3e
       -0.040456448 -0.13201447 0.05935153 0.13161731
000190 75 e0 f8 ba f3 6d c7 3b 77 1d b0 bb 28 f6 76 bd
       -0.0018987792 0.006086105 -0.0053746062 -0.060293347
0001a0 a2 c2 01 3e 22 16 4b 3d 51 72 34 3b 79 24 8c bd
       0.12671903 0.049581654 0.0027533958 -0.06842894
0001b0 b3 ae 16 bd e0 25 7a bd 3d 52 0b be 9c b0 d7 bd
       -0.0367877 -0.061071277 -0.1360559 -0.105317324
0001c0 af c4 a5 3c 83 40 10 be 0e 23 57 3d 46 aa 8a bc
       0.020235388 -0.1408711 0.052523665 -0.016926896
0001d0 32 85 85 3d 9e 95 3b bd b2 ff 19 3e d7 bf 1a be
       0.065195456 -0.045796983 0.15038946 -0.15112244
0001e0 bf 1c fe bd 0c ea 12 3e 86 86 b4 bd 2d 35 cd bd
       -0.12407827 0.14347094 -0.08814721 -0.10019908
0001f0 c6 fb 84 3b 8c 99 fe bd 1b 13 b9 3c 0d d3 c9 bc
       0.004058334 -0.124316305 0.022592118 -0.02463677
000200 59 14 00 3e eb ad cc bc a5 be fe 3c 91 7b ca bd
       0.12507762 -0.024985274 0.031096766 -0.0988685
000210 24 f6 8a bd a6 69 9d 3d 38 7c 81 bd 22 44 13 3e
       -0.06785229 0.076861665 -0.06322521 0.1438146
000220 28 33 b7 ba 6f c0 4f 3d cc 40 03 3e ea fd d8 3c
       -0.0013977038 0.05072063 0.12817687 0.026488263
000230 14 fc 18 3e 37 3e 2d 3d f0 05 20 3d cc 30 04 be
       0.1493991 0.04229566 0.039068162 -0.1290924
000240 f2 ac bf 3d 8d e1 1a be cc 42 c1 bd b3 e3 fb 3d
       0.093591586 -0.15125103 -0.094365686 0.122992896
000250 30 47 ed bd 13 bd 9c bd 16 91 1b 3e 15 ce c2 3d
       -0.115858436 -0.076532505 0.15192065 0.09511963
000260 56 a8 60 bc 96 35 9a bc 88 39 a3 bd 19 65 8d bd
       -0.013712009 -0.01882438 -0.079699576 -0.069040485
000270 7d a9 b2 3b eb 8e b8 bd e4 ed 05 3e 34 96 14 bd
       0.0054523335 -0.090116344 0.1307903 -0.036276057
000280 43 c0 d1 bd df 27 0e 3e a7 63 24 bd ec b2 87 3d
       -0.10241749 0.13882397 -0.0401341 0.066259235
000290 69 34 21 3d 59 5e 52 bd 93 4d 02 bd 09 05 fd 3d
       0.039356623 -0.05135951 -0.03181226 0.12354476
0002a0 03 60 19 be fc 30 86 3d c5 db e8 bd 9d 32 d7 3d
       -0.14978032 0.06552312 -0.11370043 0.105077006
0002b0 40 49 6a bd 1f 2f 26 3c 9c 09 67 3d 2d 5f 11 be
       -0.057198763 0.0101430705 0.05640565 -0.14196463
0002c0 2f 11 d7 b9 96 76 04 3d 0e a9 02 be c5 a6 17 bd
       -0.00041020798 0.032339655 -0.12759802 -0.03702428
0002d0 41 51 aa 3d c2 f6 04 be 43 d7 1b bd e9 aa 61 bd
       0.08316279 -0.12984756 -0.038047086 -0.055094633
0002e0 5d b8 16 bb e4 eb 1a 3e f2 66 15 3b 99 92 32 bd
       -0.0022998073 0.15129048 0.0022796956 -0.043596838
0002f0 cc ee f8 3d 57 f6 07 be 42 39 19 be 4c 12 0d be
       0.12154922 -0.13277565 -0.14963248 -0.13776511
000300 a7 99 50 bd 51 c6 7e bd 9b 3a 12 be f4 13 64 3d
       -0.050927784 -0.062200848 -0.14280169 0.05568309
000310 00 ee 3a 3d cb a5 e6 bc b9 bd 9c bd 79 99 12 be
       0.04563713 -0.028155228 -0.07653374 -0.14316358
000320 00 21 13 be 26 0c d1 bc 37 07 02 3e 70 1f 1d 3d
       -0.14368057 -0.025518488 0.12698065 0.03836006
000330 bf 45 04 b6 56 3e 3f 3c 73 f2 a5 3d fd f0 94 3d
       -1.971013e-06 0.011672577 0.08102884 0.07272527
000340 c8 82 af 3d c9 82 a1 3d ab 8f a7 bd 36 46 1a be
       0.085698664 0.078862734 -0.08181699 -0.15065846
000350 fb e5 36 3d bc 9c 0f 3e b2 8d 0b be 55 5a 8b 3c
       0.04465292 0.14024633 -0.13628271 0.017010847
000360 b9 0d b0 bd 71 29 73 3d 50 f2 a2 3d 90 ca 17 be
       -0.085963674 0.059365693 0.07956374 -0.14823365
000370 13 84 49 3d 42 ba c9 bd c7 39 98 bd 83 d9 09 be
       0.04919822 -0.09849979 -0.07432895 -0.1346188
000380 2a 46 aa 3d dd cf 0b 3e 51 19 00 3e 4c 55 8b bd
       0.08314164 0.13653512 0.12509657 -0.068033785
000390 2f 9c c7 3b b4 11 98 bd 97 a3 02 3e 26 d4 1b 3e
       0.0060916166 -0.074252516 0.12757717 0.15217647
0003a0 58 90 ec 3c 17 de 95 bd db cc a1 bd d2 4a 8d bd
       0.028877422 -0.07317751 -0.07900401 -0.068990365
0003b0 09 3d 0d 3e 90 03 16 bd 8c 43 4f bd e2 e2 72 3d
       0.13792814 -0.03662449 -0.050601527 0.059298404
0003c0 99 29 7f 3d 8c 30 55 bd ae 89 96 3d b4 68 e9 3c
       0.06229553 -0.05204825 0.07350479 0.02849231
0003d0 7e ca 09 bc d9 74 57 bd 59 e5 a2 3d c2 52 11 bd
       -0.008410094 -0.05260167 0.07953901 -0.035479315
0003e0 e6 ec bc 3d 7f 69 e6 3d 32 f7 89 3c 0f 9e 3f 3d
       0.09224872 0.112505905 0.016841505 0.046781596
0003f0 93 62 5d bd 1e da 10 3e 67 d6 b4 bd 5b 0c 9a bd
       -0.054049086 0.14145705 -0.088299565 -0.07521888

transformer.encoder.layers.0.self_attn.in_proj_bias f4 [192]
000000 00 00 00 00 00 00 00 00 00 00 00 00 00 00 00 00
       0.0 0.0 0.0 0.0
000010 00 00 00 00 00 00 00 00 00 00 00 00 00 00 00 00
       0.0 0.0 0.0 0.0
000020 00 00 00 00 00 00 00 00 00 00 00 00 00 00 00 00
       0.0 0.0 0.0 0.0
000030 00 00 00 00 00 00 00 00 00 00 00 00 00 00 00 00
       0.0 0.0 0.0 0.0
000040 00 00 00 00 00 00 00 00 00 00 00 00 00 00 00 00
       0.0 0.0 0.0 0.0
000050 00 00 00 00 00 00 00 00 00 00 00 00 00 00 00 00
       0.0 0.0 0.0 0.0
000060 00 00 00 00 00 00 00 00 00 00 00 00 00 00 00 00
       0.0 0.0 0.0 0.0
000070 00 00 00 00 00 00 00 00 00 00 00 00 00 00 00 00
       0.0 0.0 0.0 0.0
000080 00 00 00 00 00 00 00 00 00 00 00 00 00 00 00 00
       0.0 0.0 0.0 0.0
000090 00 00 00 00 00 00 00 00 00 00 00 00 00 00 00 00
       0.0 0.0 0.0 0.0
0000a0 00 00 00 00 00 00 00 00 00 00 00 00 00 00 00 00
       0.0 0.0 0.0 0.0
0000b0 00 00 00 00 00 00 00 00 00 00 00 00 00 00 00 00
       0.0 0.0 0.0 0.0
0000c0 00 00 00 00 00 00 00 00 00 00 00 00 00 00 00 00
       0.0 0.0 0.0 0.0
0000d0 00 00 00 00 00 00 00 00 00 00 00 00 00 00 00 00
       0.0 0.0 0.0 0.0
0000e0 00 00 00 00 00 00 00 00 00 00 00 00 00 00 00 00
       0.0 0.0 0.0 0.0
0000f0 00 00 00 00 00 00 00 00 00 00 00 00 00 00 00 00
       0.0 0.0 0.0 0.0
000100 00 00 00 00 00 00 00 00 00 00 00 00 00 00 00 00
       0.0 0.0 0.0 0.0
000110 00 00 00 00 00 00 00 00 00 00 00 00 00 00 00 00
       0.0 0.0 0.0 0.0
000120 00 00 00 00 00 00 00 00 00 00 00 00 00 00 00 00
       0.0 0.0 0.0 0.0
000130 00 00 00 00 00 00 00 00 00 00 00 00 00 00 00 00
       0.0 0.0 0.0 0.0
000140 00 00 00 00 00 00 00 00 00 00 00 00 00 00 00 00
       0.0 0.0 0.0 0.0
000150 00 00 00 00 00 00 00 00 00 00 00 00 00 00 00 00
       0.0 0.0 0.0 0.0
000160 00 00 00 00 00 00 00 00 00 00 00 00 00 00 00 00
       0.0 0.0 0.0 0.0
000170 00 00 00 00 00 00 00 00 00 00 00 00 00 00 00 00
       0.0 0.0 0.0 0.0
000180 00 00 00 00 00 00 00 00 00 00 00 00 00 00 00 00
       0.0 0.0 0.0 0.0
000190 00 00 00 00 00 00 00 00 00 00 00 00 00 00 00 00
       0.0 0.0 0.0 0.0
0001a0 00 00 00 00 00 00 00 00 00 00 00 00 00 00 00 00
       0.0 0.0 0.0 0.0
0001b0 00 00 00 00 00 00 00 00 00 00 00 00 00 00 00 00
       0.0 0.0 0.0 0.0
0001c0 00 00 00 00 00 00 00 00 00 00 00 00 00 00 00 00
       0.0 0.0 0.0 0.0
0001d0 00 00 00 00 00 00 00 00 00 00 00 00 00 00 00 00
       0.0 0.0 0.0 0.0
0001e0 00 00 00 00 00 00 00 00 00 00 00 00 00 00 00 00
       0.0 0.0 0.0 0.0
0001f0 00 00 00 00 00 00 00 00 00 00 00 00 00 00 00 00
       0.0 0.0 0.0 0.0
000200 1c ad 1c be e4 3a b9 bc 32 12 bb 3d a3 4c d8 bd
       -0.15300411 -0.022611089 0.0913433 -0.10561492
000210 9f 94 ae 3c 6e f7 2a bd cb a0 0f bd b6 a1 ad bc
       0.021311102 -0.041739874 -0.035065453 -0.021195274
000220 29 b1 3a 3d e3 56 0a be 19 0f 2a bd 38 ab e7 bd
       0.04557911 -0.13509707 -0.041518304 -0.11311954
000230 35 bf a2 3d c3 a1 bd 3b ff 6a 39 bd ad 0f 18 be
       0.07946626 0.0057871058 -0.045268055 -0.1484973
000240 41 27 84 bc 71 c5 1a 3e 6c 0e 9e bd 9d 11 61 3d
       -0.016131999 0.1511438 -0.077175945 0.054948438
000250 fc 03 5d bd 27 39 f1 bb a9 8a 16 3e da d7 c3 3c
       -0.053958878 -0.0073615494 0.14701332 0.023906637
000260 46 b5 c5 bd e0 20 76 3d d7 d8 07 3e e1 2d cf bd
       -0.09653716 0.060089946 0.13266312 -0.101161726
000270 c5 3e 60 bd b1 12 2d be 54 07 a1 bd d8 6b 03 be
       -0.05474736 -0.16901661 -0.07862726 -0.12834108
000280 51 aa 8b bd 65 c6 26 3e 74 9a 6c 3c 44 56 62 bd
       -0.06819595 0.16286619 0.014441121 -0.05525805
000290 22 df be ba 2a 9d 08 3e 08 79 19 3e 22 dd 1b bc
       -0.0014562348 0.13341203 0.14987576 -0.009513171
0002a0 80 89 e7 3d ee 6f 02 bd da bf a6 bd 08 27 ef bd
       0.11305523 -0.031845026 -0.081420615 -0.116773665
0002b0 7e bf e8 3d 9b b1 b9 3d f9 ac 23 3e 20 64 af 3d
       0.11364649 0.09067079 0.15983953 0.08564019
0002c0 53 ce ec 3d 73 12 17 3e 6f 92 df 3c f5 5d 8d 3d
       0.11562791 0.14753132 0.027291505 0.069026865
0002d0 4c 6a 8b 3c 59 05 c6 bd 31 a7 21 3c 9a bb 8d 3c
       0.01701846 -0.09668989 0.009866522 0.01730137
0002e0 9f 89 19 3e 7f 4f 8e bd af 73 8c bd 5c ae 12 3d
       0.14993905 -0.069487564 -0.068580024 0.035810813
0002f0 c1 78 f4 3d 0d af ba bd 42 40 e8 bd de d7 dd 3d
       0.119370945 -0.091154195 -0.11340381 0.10832189

transformer.encoder.layers.0.self_attn.out_proj.weight f4 [64, 64]
000000 43 19 48 be bc a2 a2 3c 15 97 24 3e 81 31 5b be
       -0.19540887 0.019852988 0.16073258 -0.21405603
000010 ff 30 fe bd ca 74 ca bd 06 e3 27 be ff 1d 65 bd
       -0.12411689 -0.09885557 -0.16395196 -0.05593681
000020 4d 54 f7 bd ad 20 6f be 76 bc 8d 3d 50 43 20 be
       -0.12076626 -0.23352309 0.06920712 -0.15650678
000030 f1 42 53 3e a6 67 3a 3e 19 24 99 bd 85 a5 a7 bd
       0.20631005 0.18203601 -0.07477588 -0.08185867
000040 df 55 bb bd 00 31 86 3e f9 9e 9a 3d 78 58 24 3e
       -0.09147238 0.2620926 0.07549853 0.16049373
000050 aa 9d b7 bd f0 65 38 be bf 1f 82 3e 69 f0 83 bd
       -0.08965619 -0.18007636 0.25414845 -0.06442339
000060 7a 84 36 be 9a b5 dc bc f7 a3 d9 bd 8a c3 28 be
       -0.17823973 -0.026942063 -0.10626977 -0.16480842
000070 b9 f6 10 be f3 59 88 3d 7c b2 21 3e 7c 3f 85 bd
       -0.14156617 0.066577815 0.15790743 -0.06506249
000080 42 9c 2f 3e b0 e4 09 3e 60 a1 54 3d 7c 9d 02 be
       0.17149451 0.13466144 0.05191171 -0.12755388
000090 69 66 d2 bd c6 f5 7f 3e ac de d8 3d 94 40 6a bd
       -0.102734394 0.24996099 0.10589346 -0.057190493
0000a0 4a c9 3f bb f8 6f 28 3d 43 f0 f9 bd f4 3e 51 be
       -0.0029264265 0.041122407 -0.122040294 -0.20434171
0000b0 2c 49 02 bd 9d d9 24 3e 55 ff 4a 3e 3d 65 9c bd
       -0.031808063 0.16098638 0.19823964 -0.07636497
0000c0 9f a9 f1 bc f3 18 3b 3e 02 c1 e4 3c 12 72 25 39
       -0.029499827 0.18271236 0.027924065 0.0001577812
0000d0 fe 6c 41 be 88 37 75 3b 8e d6 07 3e e5 93 c4 3d
       -0.18889233 0.0037417132 0.1326544 0.09598521
0000e0 57 de 8e 3e 2f de 78 3d 08 b6 e0 bd 65 b1 f6 bd
       0.27904007 0.060758766 -0.1097222 -0.12045554
0000f0 11 c0 2a 3e 5b f1 4f 3c 88 06 32 be 66 d8 fb bd
       0.1667483 0.012691821 -0.17385304 -0.12297134
000100 6c 47 41 bc fa a1 65 3d e6 f1 35 be a8 c5 58 be
       -0.011796813 0.056062676 -0.17768058 -0.2116915
000110 05 76 f9 3d 30 e4 05 be c9 83 2f 3e 81 29 b5 bd
       0.121807136 -0.13075328 0.17140116 -0.08845807
000120 17 79 c6 bd dd 28 16 be 98 c6 db bd 38 d3 68 be
       -0.09691065 -0.14664026 -0.10731238 -0.22736824
000130 fa a9 1d 3c f8 ae 41 be dd 84 52 bd dc fb 90 be
       0.009623045 -0.18914402 -0.05139624 -0.28317153
000140 b0 bb fa 3d 76 83 9c 3e 41 50 1d be 86 da 4a 3e
       0.1224283 0.30569047 -0.15362646 0.19809923
000150 9c 56 7e bd 16 ed 1c 3e a0 2c 75 3e a3 bf 36 3e
       -0.062094316 0.15324816 0.23942804 0.17846541
000160 df 86 d6 bd 67 f5 a5 bd 29 e0 93 bc 48 0c d7 bd
       -0.10474943 -0.081034474 -0.018051224 -0.10500389
000170 2c 8d 7c 3d 4f 66 01 be af 3e d4 3d 32 bf 24 be
       0.06165807 -0.12636684 0.103635184 -0.1608856
000180 80 36 bf 3d 6c ff 68 3e 92 0c b0 bd cd f9 41 be
       0.09336567 0.22753686 -0.085961476 -0.18942948
000190 e1 9b 1a be ed e3 83 3b e4 51 ca 3d 40 73 c8 bd
       -0.15098526 0.0040249736 0.09878901 -0.09787607
0001a0 76 ff 40 3e 35 18 fa bc 50 8a 31 bd 17 a0 91 bd
       0.1884745 -0.030529121 -0.043344796 -0.07110613
0001b0 54 25 39 be 02 bf e5 bd 09 42 02 3d 6b eb 52 3e
       -0.18080646 -0.112180725 0.031801257 0.20597617
0001c0 7d 51 29 be d7 c2 fa bd f7 97 2a 3b fc ba 21 3e
       -0.16534992 -0.12244194 0.002603052 0.15793985
0001d0 f4 53 c1 3d 3f dc 2c bd d6 84 65 3d 34 f9 26 be
       0.09439841 -0.04220223 0.056034885 -0.16306001
0001e0 ce a4 4c 3e 77 c7 ad 3c 6f f6 28 3e 85 32 4d 3e
       0.19984743 0.021213276 0.16500257 0.20038803
0001f0 00 65 71 bd 97 50 fc bd 6f 24 0f 3e 3b 58 38 3e
       -0.05893421 -0.12320059 0.13978742 0.18002407
000200 ac c3 01 be 53 56 ef bc 7b 4c 50 3e 77 dc a7 3d
       -0.12672299 -0.029215967 0.20341675 0.08196347
000210 6b 7e 1c be de d5 08 be a0 00 15 3c 64 45 e2 bd
       -0.152826 -0.13362834 0.009094387 -0.110483915
000220 6d b3 42 3e dc e2 95 bc af d8 16 3e df fe e9 3d
       0.19013758 -0.018296652 0.14731096 0.11425566
000230 c0 4c 0b 3e fc 45 99 3d be 66 d1 bd 06 35 7b bd
       0.13603497 0.074840516 -0.10224675 -0.061329864
000240 05 f3 c1 bd 3f ec 91 bb 15 32 9d bb a5 6f b2 3c
       -0.094701804 -0.0044532116 -0.00479723 0.021781752
000250 5c 37 5f 3d 1f 17 79 3d b8 cc 7c 3c f1 25 3c be
       0.054496154 0.060813066 0.015429668 -0.18373848
000260 70 9e 35 3d 08 8d 1c 3d 94 f6 ad 3d 22 35 b7 bb
       0.04434055 0.038220435 0.08494297 -0.0055910507
000270 41 6a 34 bd 75 ec 17 3d 7f b3 e2 bd 19 3e 20 be
       -0.044046644 0.037090737 -0.110693924 -0.15648688
000280 aa ad 4f be 7d e7 b9 3d ce 34 db bd 39 e6 88 bd
       -0.20281091 0.09077356 -0.10703431 -0.066845365
000290 e5 79 1d bc b1 bf 72 3d 6f a2 00 3e 56 f9 29 be
       -0.009611581 0.059264842 0.12561963 -0.1659902
0002a0 9d e4 aa bd 53 1f 19 3d 8e d1 78 bd 9d 8c 3d ba
       -0.08344386 0.03738339 -0.060746722 -0.0007230731
0002b0 5e 41 df bd f7 9a 0e bc 5c b7 9e bd 7c 39 2a 3b
       -0.1090114 -0.008703939 -0.07749817 0.0025974205
0002c0 45 bf 33 3c c5 bf 97 bc 1f e2 2c bc fc a5 e2 bd
       0.010970895 -0.01852406 -0.010551958 -0.11066815
0002d0 9e e4 8e 3d 3c 12 d5 bd b7 61 c6 bd 2b 83 5d 3e
       0.06977199 -0.104038686 -0.096866064 0.21632068
0002e0 96 1a 84 3e 4b cd 17 3e 43 9f 1c 3e 86 7b 5f 3d
       0.25801533 0.14824407 0.15295129 0.05456116
0002f0 cc 8c a0 3d bb 81 4a 3e 16 dc 18 be 92 95 c6 bd
       0.07839355 0.19776051 -0.14927706 -0.09696497
000300 d1 55 70 3e 01 c1 97 bd d2 20 80 3e d5 e7 a6 bc
       0.23470236 -0.074098594 0.2502504 -0.020374218
000310 9e c5 eb 3c d3 22 e9 3d 2f 5a 7d bc 97 df cd 3d
       0.028780755 0.11383595 -0.015463396 0.10052412
000320 c5 cf 5c 3e 71 f3 20 be 98 f1 0d bb 90 73 08 3e
       0.21563633 -0.15717866 -0.0021658894 0.13325334
000330 18 83 bd 3d 59 25 1e 3e 79 90 3a bd 29 63 2b be
       0.0925352 0.15443935 -0.045547936 -0.16737045
000340 47 05 01 be 19 97 19 be 63 36 0e be 19 eb 0a be
       -0.1259967 -0.14999045 -0.13887934 -0.13566245
000350 14 cb a3 bd 5e 91 9e bd 3f 37 f7 3d e6 77 41 be
       -0.079977185 -0.0774257 0.12071084 -0.18893394
000360 82 ff 29 3d a1 05 50 be 1f fc 2b 3e 86 5f 25 3c
       0.041503437 -0.20314647 0.16795395 0.010093575
000370 65 ec 1a 3e 3a 8f f3 bc 3e 0c 8c bc cf 2c b3 bd
       0.1512924 -0.029731382 -0.017095681 -0.08748781
000380 52 33 c9 3d 08 9e 52 3e bc d6 2a 3e f4 18 40 be
       0.09824242 0.20568097 0.16683477 -0.18759519
000390 c3 d4 9e bd ba c4 46 3e 21 11 6c bd 1e 6f eb bd
       -0.07755425 0.19410983 -0.057633523 -0.11495803
0003a0 56 0c cd 3d 8f bf d8 bd ca 8e 96 3d 8c 5c 13 be
       0.100121185 -0.10583412 0.073514536 -0.14390773
0003b0 a9 39 c7 3d db 8b 2d be 5c df c5 3d 78 c0 8c bd
       0.09727795 -0.16947882 0.09661743 -0.06872648
0003c0 7a 7b 38 3d 1e 73 73 bd e8 98 ad bd 4e 78 ad 3d
       0.04503963 -0.059435956 -0.0847643 0.08470212
0003d0 e8 4f b7 3d 32 51 9f 3b 82 6e a0 3d 08 7f 72 3d
       0.08950788 0.004861974 0.07833578 0.059203178
0003e0 0b 8d 38 3e 35 8d 23 be 0e f6 7d bd fc 4a e0 3d
       0.18022554 -0.15971835 -0.062002234 0.10951802
0003f0 7b 5e 8e bd 1a 25 24 be 2c ee b9 bd ff 22 07 be
       -0.069516145 -0.16029778 -0.09078631 -0.13196944

transformer.encoder.layers.0.self_attn.out_proj.bias f4 [64]
000000 c9 11 39 3e 3d 07 e4 3d 01 1b 69 3e 51 c1 94 3d
       0.18073191 0.11134193 0.22764207 0.07263435
000010 c1 80 11 3e d9 ac 40 3e a1 90 3f be 8a dc f9 3d
       0.14209272 0.18815936 -0.18707515 0.122002676
000020 99 31 e5 3d 95 b3 02 3e e9 e2 55 3d 15 56 ad bb
       0.111911006 0.12763818 0.05221835 -0.005289803
000030 63 59 02 be ca 95 e0 3d dc 42 33 bc 23 1c e8 3d
       -0.12729411 0.1096607 -0.0109412335 0.11333492
000040 85 6e 2b 3d e7 af 6b be 86 f1 28 3e 22 68 89 bd
       0.041853447 -0.2301632 0.16498384 -0.06709315
000050 34 dd 4b 3e 4d d6 ec 3d 3e 57 cb bd 2a 0d 30 be
       0.19908601 0.11564312 -0.099287495 -0.17192522
000060 1b 7a 29 3e 71 c1 1a 3e ce f8 92 3d 1d e8 35 be
       0.16550486 0.15112855 0.07176362 -0.17764325
000070 c2 c3 3e be b2 a0 32 be 8a 1f 20 3e 72 92 4d be
       -0.18629363 -0.17444113 0.15637031 -0.20075396
000080 55 60 1b be 40 be 99 3c 60 59 36 3e e5 f8 0e bc
       -0.15173467 0.018767476 0.17807531 -0.008726333
000090 58 e1 ef ba 67 7e 2f 3e 70 22 33 be 77 ac e9 bd
       -0.0018301411 0.17138062 -0.17493606 -0.11409848
0000a0 51 d4 54 be be bc 39 3e 76 43 21 3e a8 6d 5a be
       -0.20784117 0.18138406 0.1574839 -0.21330893
0000b0 00 f5 66 be 25 23 51 3e 11 8b 49 be 23 33 94 3d
       -0.22554398 0.20423563 -0.19681956 0.07236316
0000c0 bf 18 0a bd 24 58 ee bd b4 65 23 3e 26 ef 23 3e
       -0.033715006 -0.11637905 0.15956765 0.16009197
0000d0 13 f3 9e bc 5d f8 49 3e 8f 9b 1f be fb 67 2f be
       -0.019403016 0.1972365 -0.15586685 -0.17129509
0000e0 c5 12 3c be 42 13 2f 3c a3 b9 1a 3e 7f b8 39 be
       -0.18366535 0.010685744 0.15109877 -0.18136786
0000f0 3f a3 1b be 36 d5 2e be 8c d9 d4 3d b2 30 13 be
       -0.15198992 -0.17073521 0.10393056 -0.14374045

transformer.encoder.layers.0.linear1.weight f4 [256, 64]
000000 ca 2f 8e bb 0a ea 95 bc 2d 8b 03 3e ac 1e 83 bd
       -0.004339193 -0.018300075 0.1284606 -0.064023346
000010 0a 44 24 bd 78 54 0f 3f ff f6 d9 bc 61 04 1e 3e
       -0.04010395 0.55988264 -0.026607035 0.15431358
000020 8a 96 35 3d 94 11 3a 3d 7e 0d 94 3d ac 8f 20 3d
       0.04433302 0.04542692 0.07229136 0.039199516
000030 90 1d 07 bd 17 9c 8a 3d 00 6d 23 3c 61 a4 09 be
       -0.032987177 0.06768053 0.009974718 -0.13441612
000040 d0 2b 05 3d ca 58 35 bf 0f 93 9a bb ce 3e 23 3d
       0.032512486 -0.70838606 -0.004717238 0.039854817
000050 88 bd 0d 3e e1 3a 03 3e ec 12 08 3e 72 7f 98 bd
       0.13841832 0.1281543 0.13288468 -0.07446183
000060 41 08 c1 3d e4 3c a8 bd 35 b4 fb 3d e4 ad 7f be
       0.094254024 -0.08214739 0.12290231 -0.24968678
000070 96 51 6e be f5 28 fe bd 12 d7 75 bd 27 2d 29 3c
       -0.2327331 -0.12410156 -0.06001956 0.010325707
000080 96 e4 03 3b c4 bb a9 bc 9a c5 00 3d e4 47 9e 3d
       0.0020125262 -0.020719416 0.031438448 0.07728556
000090 c6 ae 26 bd 9f 13 a9 3e 31 6b 87 3d f0 81 41 be
       -0.04069402 0.33022782 0.06612242 -0.18897223
0000a0 1c ac 04 3d 30 dc 0a bd 72 68 95 bd 1b 59 a6 bd
       0.0323907 -0.033901393 -0.07295312 -0.08122464
0000b0 ed 3d 21 bd 0c 25 6d 3e 94 6f 84 be d5 f7 1f 3e
       -0.039365698 0.23158664 -0.25866377 0.15621884
0000c0 0f d9 ad 3d 49 67 bf bd 62 c7 9d 3e 70 f4 95 3d
       0.08488666 -0.09345872 0.3081618 0.073220134
0000d0 8c f5 db bd 30 57 56 3d bb 49 12 3d f6 61 b6 be
       -0.10740194 0.052329242 0.035714846 -0.35621613
0000e0 8e 44 de 3d 0d 73 11 3d 0a f1 99 3c 64 ce 0c be
       0.108529195 0.03551011 0.018791694 -0.13750607
0000f0 10 28 39 bc 55 fc 62 3d c0 33 f8 bd d9 2c fb bb
       -0.011301056 0.055416424 -0.121192455 -0.0076652584
000100 c8 e2 06 bd 6e 76 a7 3d 31 50 4f 3d 3e e7 53 3c
       -0.03293112 0.081768855 0.050613586 0.01293355
000110 96 f1 da bb 06 ca 10 3d 40 00 fb bc 8e 59 08 be
       -0.0066816313 0.035348915 -0.030639768 -0.13315412
000120 f6 33 19 be f7 8c 6f bd 50 44 8a bd a0 ae 8e bd
       -0.14961228 -0.058484044 -0.06751311 -0.06966901
000130 a6 30 1e 3e 5a 31 06 3d 15 ae 08 3e de cd 0b 3d
       0.15448245 0.03276191 0.13347657 0.034131877
000140 f2 f3 67 3d bc b5 13 be c4 b9 c7 bd c1 43 b1 3b
       0.05662913 -0.14424795 -0.09752229 0.005409688
000150 4b 4f 34 3d a1 8c 18 3e ea a9 a0 bb c2 54 ec 3d
       0.044020932 0.14897396 -0.004903068 0.11539604
000160 f7 cb fe 3d 1f 94 8b 3d 16 24 b5 bc 30 f8 bd bd
       0.12441247 0.06815361 -0.022111934 -0.09275854
000170 14 7a 93 3c cb c6 86 3d 0e f9 08 be dd f8 d5 3d
       0.018002547 0.065808855 -0.13376257 0.104478575
000180 14 49 00 3e 43 ed 30 3e 6f ad e8 bc 4c e7 97 3d
       0.12527877 0.17278008 -0.028403012 0.07417163
000190 e7 76 a7 3d 73 55 06 3e d0 e6 69 3d 20 43 14 bd
       0.08176976 0.13118534 0.057104886 -0.036196828
0001a0 a2 cf df bd b3 94 48 bd 39 72 87 bd ac 7b 27 bd
       -0.10928275 -0.048969936 -0.06613583 -0.040889427
0001b0 c6 89 dc 3d d8 4c 3c 3c fe e5 85 3d c4 7f cd 3b
       0.10768466 0.01149293 0.06538008 0.0062713344
0001c0 30 a2 1e bd a8 ed d0 3d ee f3 08 3e 0a 06 e2 bd
       -0.038728893 0.10201579 0.13374302 -0.11036308
0001d0 fe b5 c5 bd e0 89 d4 3c a6 2e 2e 3d d6 50 e0 bc
       -0.09653853 0.02594465 0.042524956 -0.027382296
0001e0 71 63 88 3d 8e 8c 19 bd 14 b1 2c 3d dc 1c db 3c
       0.06659592 -0.03748756 0.042161062 0.02674716
0001f0 db aa 21 bc bb 35 2f 3e 9e bd 9e bd 4a 00 6e bd
       -0.009867395 0.1711034 -0.0775101 -0.058105744
000200 d3 07 78 bc 9a ba d1 bd 08 46 84 3d ec ee b8 3d
       -0.015138584 -0.102406695 0.0645867 0.09029946
000210 c6 5f d1 3c 22 a2 12 3c 8f 16 5d bc 5e 06 cb 3d
       0.025558364 0.008949788 -0.013494148 0.09913324
000220 09 46 0a 3d 4a 8c 21 3d 35 41 14 3e 31 dc ea 3d
       0.033758197 0.03944043 0.14478 0.114677794
000230 bb ba cd 3d 18 e0 d3 3d e3 d1 08 3e 44 67 9a bc
       0.10045382 0.10345477 0.13361315 -0.018848069
000240 00 8f 18 be 6e ab 70 bb 80 8c bb bd b0 11 6d bd
       -0.148983 -0.0036723274 -0.091576576 -0.057878196
000250 5b d5 5f bd 09 1a 48 bd 14 d3 9d 3d 95 6f db 3d
       -0.05464683 -0.048852954 0.077062756 0.10714642
000260 eb 20 8b 3d 4c 76 12 be ce 80 b9 3d 7d 1c 15 3d
       0.06793388 -0.14302939 0.09057771 0.03640412
000270 d0 64 29 3d 56 ec 0f be ed cc b7 bd c5 20 a2 3d
       0.041355908 -0.14054999 -0.08974633 0.079164065
000280 91 50 e2 3b c9 23 98 bd df 5b dd bd 4c 40 41 3d
       0.006906577 -0.074287005 -0.10808539 0.04718046
000290 3a b2 48 bd 80 cf 5d bd 74 43 95 bd 66 91 6c 3d
       -0.048998095 -0.054152966 -0.07288256 0.05775585
0002a0 82 16 b5 3d 19 39 bb bc fb 72 b2 bd 4d f4 81 bd
       0.08842184 -0.022854375 -0.08713337 -0.06345425
0002b0 b8 37 e5 bd 68 66 0b 3e d8 9a 40 3d 9c 13 c9 3d
       -0.11192268 0.13613284 0.04702267 0.09818193
0002c0 16 37 28 3e 53 1c ec 3d 8c 55 d3 3d ab 65 81 3d
       0.16427264 0.1152884 0.10319051 0.0631822
0002d0 43 75 0c 3e 2d c5 2c bd 4d 4f fb 3d 60 76 ad 3d
       0.13716607 -0.04218023 0.12270985 0.08469844
0002e0 bf ce ae 3d 6e ed 79 bd 4a 40 6f bd 5a 85 00 be
       0.085355274 -0.061017446 -0.05841092 -0.1255087
0002f0 3f 82 b7 bd a1 d3 cb 3d e4 f6 5e 3d 5d 83 6b bd
       -0.08960389 0.099524744 0.054434672 -0.057498325
000300 a2 e6 96 3d 68 eb 00 be 15 6b 87 3c 4c d6 76 bd
       0.073682085 -0.125898 0.016530553 -0.060262963
000310 cb 4d 16 be ac b4 a5 bd 3c 9c 2d 3d de db 1a be
       -0.14678113 -0.08091101 0.042385325 -0.15122935
000320 9f 71 f6 bd 80 08 d3 3d 6a 87 b1 39 af af b0 bd
       -0.1203339 0.103043556 0.00033860962 -0.08627259
000330 27 db 46 3d 32 33 e3 3d 3e 35 24 3d 3a 99 13 be
       0.048548844 0.11093749 0.04008984 -0.1441392
000340 e8 33 b9 3d 33 8d 31 3d 43 2f 71 3d fd 8c c6 ba
       0.090431035 0.04334755 0.058882963 -0.0015148219
000350 df 69 0a be fd b9 af bd 2a 5e 16 3d 0b 09 39 3e
       -0.13516949 -0.08580396 0.036710896 0.18069856
000360 cd 3c d6 bd c6 a1 4b bd 86 62 97 3d 61 50 a4 3d
       -0.104608156 -0.049714826 0.07391839 0.080231436
000370 76 fc b4 3d 15 a6 b6 bd 82 b4 b0 bd 45 ac dd 3d
       0.088372156 -0.089183964 -0.08628179 0.108238734
000380 72 e0 6b 3d f9 27 fa 3d 1a b6 eb 3d 91 ca 62 3d
       0.057587095 0.122146554 0.115093425 0.055368964
000390 91 99 23 3e e6 1e 5b 3d 4f dc 40 3e ca 68 73 3b
       0.1597655 0.053496264 0.18834041 0.0037141317
0003a0 a5 2b 16 be 38 4c 0e bd 84 bc 49 3d 0e e2 b0 bd
       -0.14665087 -0.034740657 0.049252048 -0.086368665
0003b0 57 49 f7 3d 5b 0d d5 3c 30 14 0e be 12 c9 85 bb
       0.12074535 0.026007345 -0.13874888 -0.0040828073
0003c0 fb 09 dc 3c 11 79 8a bd 1c e7 65 bd af 61 71 be
       0.026860228 -0.06761373 -0.056128606 -0.2357242
0003d0 57 9b a3 bd 8d 3a 10 be 21 87 be bd d9 57 50 3d
       -0.07988613 -0.14084835 -0.093031175 0.050865028
0003e0 26 b6 bc bc fc f2 1d bd b0 2e f6 bd 21 dc 63 3e
       -0.023036074 -0.038561806 -0.12020624 0.22251941
0003f0 be 68 85 3e bb fa 19 3e 08 96 a1 3c 34 f2 a1 bd
       0.26056474 0.15037052 0.01972486 -0.07907525

transformer.encoder.layers.0.linear1.bias f4 [256]
000000 10 06 54 3d 69 20 e6 bd fe 13 8c bd e3 c9 ce bd
       0.051763594 -0.112366505 -0.06839751 -0.100971006
000010 e1 6b a1 3d f5 7a 2c be ee a0 80 3d 98 9e 30 bd
       0.078819044 -0.1684378 0.06280695 -0.043119997
000020 21 19 cc 3d 1d 57 11 be 69 26 59 3d 65 83 17 bd
       0.099657305 -0.14193387 0.053015146 -0.036990542
000030 ab ba d5 3d bf 1a cf bd b0 be 95 3d 6a 75 eb bc
       0.10435995 -0.10112523 0.073117614 -0.02874251
000040 81 15 b0 3c 9f 93 5c bd f9 52 b1 bd ef 7c 34 bd
       0.021494629 -0.05385172 -0.08658404 -0.04406446
000050 8b 5f d7 3d f5 ac d7 bd 92 64 a9 3d a9 30 37 3d
       0.1051627 -0.10531036 0.082711354 0.04472414
000060 00 2d 87 3c d3 d7 f7 bd 75 69 85 3c f4 dd cc bd
       0.01650095 -0.12101712 0.016285637 -0.10003272
000070 4c 55 c9 bc 94 e1 80 3d 0b 0f 0b bd 43 e8 47 bc
       -0.024576806 0.062930256 -0.033949893 -0.012201372
000080 8f c3 cd bd 1e ba 8a bd b5 69 b5 3d d5 0c 14 3c
       -0.100470655 -0.0677378 0.08858053 0.0090362625
000090 d0 3a 4b 3c e5 a5 25 be 77 c4 24 bd 22 54 8c bd
       0.012404159 -0.16176565 -0.040226426 -0.068519846
0000a0 24 1e 85 bd 07 b0 e6 bd 35 ef a5 bd 07 2a 17 bc
       -0.064998895 -0.11264043 -0.08102266 -0.009226329
0000b0 c1 c2 3c 3c 19 54 ad 3d c6 6c ad 3d 57 e5 a7 3c
       0.011521042 0.08463306 0.084680125 0.0204951
0000c0 b7 ac f0 bd e5 36 c4 bd c4 ed 5c bd e2 e1 d8 bc
       -0.11751693 -0.09580783 -0.05393769 -0.026474897
0000d0 b8 fa 1e 3c b9 3e 0e be ae 03 d8 3d 8f f9 09 be
       0.009703331 -0.13891114 0.10547577 -0.13474105
0000e0 26 b9 bb 3d d7 bc dd bd d5 22 fb 3c 9b 50 74 3d
       0.09166174 -0.10827034 0.030656258 0.059647184
0000f0 b9 62 5c bc 01 c7 42 bb 6d de c6 3d ee 61 bd 3d
       -0.013451272 -0.0029720666 0.09710393 0.09247194
000100 e6 13 8a 3a 24 2f a7 bd 77 a3 ce bc 59 09 92 3c
       0.0010534495 -0.08163288 -0.02522443 0.017826723
000110 9c 6f a1 bd 0a 96 52 bd d9 b6 e6 bd 92 5c 94 3d
       -0.07882616 -0.05141262 -0.11265344 0.07244219
000120 ee fe 90 bd 19 a5 cc 3b 70 9e c7 3d bb dc b7 3d
       -0.07079874 0.006245267 0.097470164 0.08977648
000130 e7 1b c8 3c 9e 3b f9 bc 7a b7 df bd 2d 19 09 bd
       0.024427367 -0.030423936 -0.10923667 -0.033471275
000140 a3 59 87 bd 1f d3 bf bc 67 0f b7 bd 15 b2 ca bd
       -0.06608894 -0.0234161 -0.08938485 -0.09897248
000150 78 0d b5 bc 21 3e 84 bc b3 03 da 3c bc 7f db bd
       -0.022101149 -0.016142907 0.026613092 -0.10717723
000160 f6 e0 f0 bd a6 4e ae bd 79 24 c3 3d 25 72 68 3d
       -0.11761658 -0.08511095 0.09528441 0.05674948
000170 6f 97 97 bc 97 69 d2 bd d4 68 08 bd 79 e9 11 3d
       -0.018504826 -0.10274046 -0.033303097 0.035623048
000180 71 8e 34 3c fe 7b ba bd 9a e4 ba 3b e6 3f 88 3c
       0.011020289 -0.09105681 0.005703521 0.016632032
000190 6e 43 11 be 4f ed 52 3d 11 f8 ab bd 61 58 00 be
       -0.14185879 0.051495846 -0.08396924 -0.12533714
0001a0 a0 f4 20 bd 62 03 95 3d 1f 77 be 3c 7f dc e8 bc
       -0.039295793 0.07276036 0.02325016 -0.028425453
0001b0 db 1c 17 be a5 be 67 3b 0f 96 2f 3c 93 47 0c bd
       -0.14757101 0.0035361436 0.010716929 -0.034247946
0001c0 93 85 01 3c e9 a0 95 3c 10 2d ba 3d 48 88 10 be
       0.007905382 0.018265205 0.09090626 -0.14114487
0001d0 cc 68 93 3d d0 68 3e bc 46 a5 f3 bd c7 35 11 be
       0.07197723 -0.011621669 -0.11896758 -0.1418067
0001e0 4b 19 f4 3d 28 6b f6 3d d4 ba 76 bc 57 47 57 3b
       0.11918887 0.12032157 -0.015059192 0.0032848918
0001f0 d4 af 18 bc fe 46 b4 3b 56 5f b6 bd e8 8a c7 3c
       -0.009319264 0.005501627 -0.08904903 0.024358228
000200 a6 ba b5 3d 95 0a 93 bd 3f 37 40 3c b3 41 df 3c
       0.08873491 -0.07179753 0.011731922 0.027253008
000210 57 7a 7b bd 7f 7d 1c 3d 5a d4 1a 3d 57 57 a8 3c
       -0.06139597 0.03820562 0.03780017 0.02054946
000220 8b 3b 2b be 8e 77 a6 3d db 32 ad 3d fe a1 64 3d
       -0.16721933 0.08128272 0.084569655 0.05581855
000230 b7 99 04 bd e0 77 cd 3a f0 74 b8 3b 18 c5 58 3d
       -0.032373156 0.0015675984 0.0056291744 0.05292234
000240 a7 65 45 3d d8 9c d8 bd 53 47 f2 3c e6 8e 70 3c
       0.048192646 -0.105767906 0.029575026 0.014682507
000250 36 92 95 3d 52 25 ae bd 4b 6a 4f 3d 1a e8 17 3d
       0.07303278 -0.08503212 0.05063848 0.037086584
000260 8c 99 3f bc 52 64 22 ba cd d7 3f 3d 1b a3 94 3d
       -0.011694323 -0.00061947585 0.046836663 0.072576724
000270 ea ee b1 3d 88 f1 3f bd 44 fb 06 3e 56 07 93 3d
       0.08688147 -0.0468612 0.13181788 0.071791336
000280 40 c8 8c 3d 06 67 4d bc 78 df d3 bd 10 66 0a be
       0.06874132 -0.01253677 -0.10345358 -0.13515496
000290 c2 d1 08 be d9 5c ce bd d9 0a 14 be f0 08 e7 3b
       -0.13361266 -0.10076303 -0.14457263 0.007050626
0002a0 c2 3a 85 3d 45 2c d2 bd e2 cf 13 3d 13 ce 72 bc
       0.06505348 -0.1026235 0.036086924 -0.01481964
0002b0 45 15 a5 bc 4c cd ea bc 67 54 09 3d 04 c4 1c 3d
       -0.020151744 -0.028662346 0.033527758 0.038272873
0002c0 7d ff ba 3c 40 df ee bb 81 6a 28 be 52 9c 24 be
       0.022826904 -0.007289797 -0.16446878 -0.16075256
0002d0 db 0e 12 bc 14 d0 0f be 68 45 04 3b 45 d1 3d 3c
       -0.008914675 -0.1404422 0.002018297 0.011585538
0002e0 fb 4e 02 be 94 c4 3a 3d 54 63 df bd 6a f5 9b bd
       -0.12725441 0.045597628 -0.10907617 -0.076151684
0002f0 73 ae 68 3d f5 18 d1 3d 0c a4 64 bd 6d cb 83 bd
       0.056806993 0.10209838 -0.05582051 -0.06435285
000300 8c c6 43 bd 6e 84 e4 bd 8d 2d eb bd f3 f5 19 bd
       -0.04779677 -0.111580715 -0.114832975 -0.03758807
000310 03 a8 b4 bd 97 93 6d bd c2 75 15 3d a5 d3 94 3d
       -0.08821108 -0.05800208 0.036489256 0.072669305
000320 09 6b 66 bc 52 a8 86 3d fc b4 75 bd 94 31 1f 3d
       -0.014063605 0.06575073 -0.059987053 0.03886564
000330 bb f8 9b bd 67 94 26 be ed 8b 56 ba 91 16 e0 3c
       -0.07615801 -0.16267549 -0.0008184303 0.02735451
000340 c5 64 fa bc c0 b0 32 3d 8e 92 19 bd dc cd 0d 3d
       -0.030565629 0.043625593 -0.03749328 0.03462015
000350 2f 0d e7 bc f1 4c 0c be a9 99 25 be f6 2d 8b bd
       -0.028204529 -0.13701226 -0.16171898 -0.06795876
000360 27 16 e4 bc 99 39 08 be e3 da 99 3d d3 5b 2f bd
       -0.027842594 -0.13303222 0.075124525 -0.04281218
000370 24 75 95 bd 27 c0 8a 3d 09 d7 24 bd aa aa 22 be
       -0.072977334 0.067749314 -0.040244136 -0.15885416
000380 2b f3 91 bb 87 e4 ea bd da 77 83 3d 94 ba 88 bd
       -0.0044540367 -0.114693694 0.06419344 -0.06676212
000390 0c 33 14 3d d5 69 e5 bc c0 da 88 bd c8 f7 54 3d
       0.036181495 -0.028004566 -0.06682348 0.051994115
0003a0 18 f3 e5 bd 57 17 ee bd 0b 49 11 be c8 84 86 bd
       -0.11228007 -0.116255455 -0.1418802 -0.06568295
0003b0 1f c6 8f 3d 4f 55 91 bd 1e 2b 9c 3d e7 32 24 bc
       0.070202105 -0.070963494 0.076254115 -0.010021902
0003c0 4c 17 b2 bd fa 8f e0 bd a5 db 97 3d be ac d4 bd
       -0.0869585 -0.10964961 0.07414941 -0.103845105
0003d0 08 40 c5 3c b7 4e 04 bd c7 a4 be bd f3 eb a1 3d
       0.024078384 -0.03230163 -0.093087725 0.07906332
0003e0 6b 08 72 bc 11 b7 3d be a7 c3 34 bd b6 93 91 bc
       -0.014772515 -0.18526866 -0.0441319 -0.01777063
0003f0 79 32 1a 3d 76 46 ff bd 2f 07 2b 3d 9a 38 2b 3d
       0.03764579 -0.12464611 0.041754898 0.041802026

transformer.encoder.layers.0.linear2.weight f4 [64, 256]
000000 a7 8e 7d 3d df 6c a3 bc 36 f6 4d 3d 19 81 8f bd
       0.061903622 -0.019949375 0.050283633 -0.07007045
000010 6b 6b 9b 3d 25 46 f2 bd 0e 80 cc 3d 58 26 d9 bd
       0.07588848 -0.11829785 0.09985362 -0.106030166
000020 76 90 5e bd be 90 08 be 68 34 89 3c 3f 93 a3 be
       -0.054336987 -0.13336465 0.016748622 -0.31948277
000030 5b 3c 04 be 1d 8c ff 3c ec 02 00 3d 53 73 b6 3d
       -0.12913649 0.03119474 0.031252787 0.08908715
000040 c7 50 83 bd 89 6d 15 3b a5 89 bb 3d fc 6e de 3d
       -0.064118914 0.0022800884 0.09157113 0.10861012
000050 7f aa 02 3e 5c 01 e4 be 3d 7c a3 3d 94 bf 8f bd
       0.12760352 -0.44532287 0.07982681 -0.070189625
000060 46 15 47 3c 1e c1 fa bd 6e 2f 45 bd eb 73 02 3e
       0.012151068 -0.122438654 -0.048140936 0.12739532
000070 2d 70 a8 bd f8 50 ba bd 9d 2a fc bd f7 8f 76 bd
       -0.08224521 -0.09097475 -0.12312815 -0.06019589
000080 42 c3 90 bd 1b 64 e7 3c 10 47 05 3e 9b b7 ea 3d
       -0.070684925 0.028245976 0.1301539 0.11460801
000090 a0 8e 2d bc 71 8b ae 3c d8 a0 30 3c 6d 3d fb 3d
       -0.0105930865 0.021306725 0.010780536 0.122675754
0000a0 5c 8b e8 bd 54 fe c5 3d ec f5 5d bd 4e 35 e8 bd
       -0.11354706 0.0966765 -0.054189608 -0.11338292
0000b0 63 ae 13 3e 5e 6e 56 be 69 1b 72 3d de bc 39 ba
       0.14421992 -0.20940539 0.05910817 -0.00070853333
0000c0 a7 a6 21 3d e3 36 51 bd 28 60 ff bd 46 ba 0a 3e
       0.039465573 -0.051077735 -0.12469512 0.1354762
0000d0 7e e7 a8 3d 87 b1 d4 3c 27 37 df 3d 9c 97 9b bd
       0.08247279 0.025963558 0.10899191 -0.075972766
0000e0 d1 9e b1 bd 0c 61 5c 3d 7c 6f 85 3d 49 78 ee 3d
       -0.0867287 0.05380349 0.065154046 0.11644036
0000f0 e4 7a f6 bd 21 b1 80 3d 39 73 ac bd 05 cc de 3d
       -0.12035158 0.06283785 -0.084204145 0.108787574
000100 bf 87 fd bc 4a 0a 5d 3d 5f 6d a9 3d a8 ac 20 be
       -0.030948518 0.05396489 0.08272814 -0.15690863
000110 79 c1 a6 bd c7 db 5d 3d b8 7d bd bd e6 40 f6 bc
       -0.08142371 0.054164674 -0.092524946 -0.030060243
000120 f5 be 46 bc 0e 43 c3 3d 90 5d 9b bb 61 3e ba bc
       -0.012130489 0.09534274 -0.004741378 -0.022734823
000130 89 8f ec 3c 9b a3 93 bd aa 42 95 3d 83 bb 47 be
       0.028877037 -0.0720894 0.07288106 -0.19505124
000140 2c 28 b6 3d aa c7 b5 bc d4 b4 38 3d 30 52 d3 bd
       0.08894381 -0.022189934 0.045094326 -0.103184104
000150 39 8b 53 3d 0a 49 85 3d f5 e4 c3 bd 27 21 7e 3d
       0.051646445 0.06508072 -0.095651545 0.062043335
000160 0a 8d 12 bd 96 bb 00 3d f0 3a 93 3d f1 50 1a 3e
       -0.035779037 0.031428896 0.07188976 0.15069939
000170 a6 dd b7 3d db 3e c6 bc 79 4b d4 3d 97 e2 a8 bd
       0.08977823 -0.024199894 0.10365958 -0.082463436
000180 c3 3f c2 3d ff 9b 86 bd cb 59 ca 3d b7 1b 3f bd
       0.09484818 -0.06572723 0.09880408 -0.04665729
000190 d9 d4 0e be 1f cf 46 3c 5f a5 48 bd 34 69 9b bd
       -0.13948382 0.012134342 -0.048985835 -0.07588425
0001a0 f5 23 89 3d 05 d2 9f bd e6 ee b3 3d 04 0e 2c be
       0.066963114 -0.0780373 0.08785801 -0.16802222
0001b0 ea ec 0b 3e 1b d8 ef 3d 1a 88 78 3d ee 79 46 3d
       0.13664594 0.11711141 0.06067667 0.048456125
0001c0 3e f2 7b be e6 36 f5 bd b5 ef d9 3a 7a c7 a4 bd
       -0.24604127 -0.11973362 0.0016627224 -0.0804586
0001d0 15 5d 0e bd 31 de 57 3d 23 59 54 bd 5e bf 3f bd
       -0.03475674 0.052702133 -0.05184282 -0.04681336
0001e0 9c 42 86 3b 1e c7 80 bd 31 89 8e 3d b0 bb e0 3d
       0.004097296 -0.062879786 0.06959761 0.109732985
0001f0 38 c6 4d b8 a1 1a d2 bb d0 79 19 3d 9d 41 6c bd
       -4.9060414e-05 -0.006411866 0.037469685 -0.05767976
000200 42 85 0f 3d b8 9d b6 bd 11 9b 03 be cc b2 f0 bc
       0.035039194 -0.08916801 -0.12852122 -0.029382132
000210 14 b3 d9 3d 89 4d 15 bf d0 5f 85 bd 0e e2 98 bd
       0.106298596 -0.58321434 -0.065124154 -0.074649915
000220 8f 1d ee 3c 5f 72 90 3c ff d4 e0 bd ac 85 bb bd
       0.029066829 0.017632661 -0.10978126 -0.09156355
000230 f4 0a 42 3d aa ea 02 3e 24 b8 e1 3c 1c b2 41 bd
       0.047373727 0.1278483 0.027553625 -0.047289
000240 e8 73 a3 bd fa 25 e3 3d 2f c9 79 bd 3e 3d fd bd
       -0.07981092 0.11091228 -0.06098288 -0.12365197
000250 6d 91 a2 bd 49 a1 0c bd 98 5a 05 3e 90 1d 8c be
       -0.07937894 -0.0343335 0.1302284 -0.27366304
000260 a8 f3 24 bd e5 f6 31 3c 62 86 1a bd c5 13 e4 3c
       -0.04027143 0.010862087 -0.037725814 0.027841458
000270 06 d2 bb 3d ee f1 9a bd 84 a7 87 bd aa c3 ba bb
       0.09170918 -0.07565676 -0.06623748 -0.0056995945
000280 3d 2a 1f 3d f8 a8 09 3d 58 a4 57 bd fd 86 3f 3c
       0.03885864 0.033608407 -0.052646965 0.011689899
000290 d3 a6 e2 3d 4c 79 0a 3d a2 b3 7f 3c 65 7e 31 3d
       0.110669754 0.033807084 0.015606793 0.04333343
0002a0 da c4 a1 bd 88 63 43 bd d7 79 e5 3d af 58 8d bd
       -0.078988746 -0.047702342 0.1120488 -0.06901681
0002b0 c4 38 5c bd 66 03 a8 3b da 84 67 be e3 ba 56 bc
       -0.053765073 0.0051273583 -0.22609273 -0.013106081
0002c0 12 4d 82 be a0 0f 80 3d 20 e8 ef 3d 1f 17 a5 3d
       -0.25449425 0.0625298 0.11714196 0.080610506
0002d0 c8 41 c2 3c a3 cd 37 bd 6d 78 e9 bd 34 e3 fc 3d
       0.023713008 -0.044873845 -0.113999225 0.12348023
0002e0 51 14 9f 3d 6f ad 7d 3d f2 ee 70 3d c9 ad 83 bc
       0.07767547 0.061932977 0.058821626 -0.016074078
0002f0 06 33 b9 bd 24 c1 f1 3d 25 fe 18 3d 9a 53 c7 3d
       -0.09042935 0.11804417 0.037351746 0.097327426
000300 f1 46 1c 3c 9c f4 d3 3b 54 2b 78 3d 28 f6 1a bd
       0.009538398 0.0064683687 0.060588196 -0.03783241
000310 a3 f1 b1 3d b3 15 c8 bc 1d 7d a7 3d 3a cc 1f 3d
       0.08688667 -0.02442441 0.0817816 0.039013125
000320 18 58 a7 bc ed 85 a2 3c c3 95 2f bd 99 dc b9 3c
       -0.020427749 0.019839251 -0.042867433 0.022688197
000330 af 2b 8d be be 26 02 be ed 6c 58 3d 8e da 01 bd
       -0.2757239 -0.12710091 0.052838255 -0.03170257
000340 00 52 ba bd 28 c9 d1 3b 2d 9a a5 3d c3 97 10 ba
       -0.090976715 0.0064021535 0.08086047 -0.00055157783
000350 94 b2 83 3c 5a 91 0a 3e 3a fb e5 bd 02 2b ef bd
       0.016076364 0.1353201 -0.11229558 -0.11678125
000360 34 38 c0 bd ed 6d a2 3c 4c f1 61 3d aa 79 6a bd
       -0.0938572 0.019827807 0.05516176 -0.057244934
000370 7a e4 f9 bc 95 7b e8 3b c9 8b e6 b9 cf 2d ad bd
       -0.030504454 0.0070948103 -0.00043973167 -0.08456003
000380 a4 e8 e2 3d 5f 4b ac be 0f 0c d1 bc 5d c9 2e 3d
       0.11079529 -0.33651254 -0.025518445 0.042672504
000390 3f 9f 8d bd 2a 91 c8 bc 02 d7 02 be 80 a2 ae bd
       -0.069151394 -0.024483282 -0.12777331 -0.08527088
0003a0 70 8f 0d be 15 23 28 bd 83 e4 2d 3d 5f ee a0 3d
       -0.13824248 -0.04104908 0.042454254 0.07857966
0003b0 cf 4a 08 be 40 db 03 be f2 eb e1 3d 20 dc 90 3b
       -0.13309787 -0.12876606 0.11031331 0.004420772
0003c0 5e 8d 64 bd cd 57 c6 3d bf f3 68 bd e4 06 d2 3d
       -0.05579888 0.096847154 -0.05687308 0.102552205
0003d0 76 7f 97 3d 63 b5 0f 3e d0 82 82 3c 68 24 f6 bd
       0.07397358 0.14034037 0.015931517 -0.12018663
0003e0 1a fd e4 bd 49 ae c6 3d 2c d4 f0 3d a2 e5 db ba
       -0.11181088 0.09701211 0.117592186 -0.001677681
0003f0 17 6c 33 bd b4 f9 cf bb f3 0b 1d bf 55 fe d3 3d
       -0.043804254 -0.0063469056 -0.6134636 0.10351244

transformer.encoder.layers.0.linear2.bias f4 [64]
000000 40 87 8b 3d 8e fd 4f 3d 32 53 39 bd c3 4e a4 3d
       0.06812906 0.050778918 -0.045245357 0.08022835
000010 12 63 46 3d b2 b1 d2 bc 9a 91 f5 3c a2 0f 79 3b
       0.048434325 -0.025719497 0.029976655 0.0038003703
000020 ea 0e 7f 3d ff ab 84 3c 20 fe a9 3c 1c 7a 88 bd
       0.062270083 0.016195295 0.020751059 -0.066639155
000030 5b 7d ac bd 9f c8 7d 3c 60 c4 f8 3a 16 b1 52 3d
       -0.08422347 0.015489726 0.0018979423 0.051438414
000040 d1 b7 34 3d ef 2a af bc 6e 50 ca b9 5a 51 06 be
       0.044120613 -0.021382777 -0.00038588367 -0.1311697
000050 9d 06 2d bd 51 26 da bb 79 4a 35 3d 3e bb d7 3c
       -0.042242635 -0.0066573997 0.044260476 0.026334401
000060 50 fe 45 bd 9b ac 8d 3c d6 92 8f bb 62 53 82 bd
       -0.048338234 0.017294219 -0.004381518 -0.0636356
000070 eb 35 88 3c 9c 6f ac bc 77 0d a5 3d 08 10 16 bd
       0.016627273 -0.021049313 0.08059209 -0.036636382
000080 42 04 d4 3d 8a 10 70 bb ba 17 4b 3d 87 05 75 3d
       0.103523746 -0.0036630952 0.049583174 0.059819724
000090 93 55 ac 3c d7 55 5d 3d 0d 8a bf bc 16 45 82 bd
       0.021036899 0.05403694 -0.023381257 -0.06360833
0000a0 fe 50 ac 3c 58 27 35 bb 62 7d 0b bd 0e 70 49 bd
       0.021034714 -0.002764186 -0.03405512 -0.04917913
0000b0 fe 83 80 bc d3 de f8 bc a3 96 27 bd 64 a4 f3 bc
       -0.015687939 -0.030379688 -0.040915143 -0.029741473
0000c0 29 99 a2 bd 4a c5 c2 3d 2c 72 86 3d f3 d2 26 3d
       -0.07939369 0.09510286 0.06564745 0.04072852
0000d0 c3 1b 5e bd 4c 17 6a 3c e0 52 14 3d ae e8 31 bc
       -0.054225694 0.014287781 0.03621185 -0.010858698
0000e0 0e 89 e8 3c 4b 8f 0e 3b 9a 61 33 3d c3 9f b1 bc
       0.028385665 0.002175289 0.043794252 -0.021682626
0000f0 67 16 0a bc 8f 96 16 bc 99 c6 f7 bc d2 62 db bb
       -0.008428193 -0.009191169 -0.030246066 -0.00669513

transformer.encoder.layers.0.norm1.weight f4 [64]
000000 71 c1 83 3f 2a aa 6e 3f 2c 8e 8a 3f b1 c4 5d 3f
       1.0293409 0.932284 1.0824637 0.8662825
000010 dc 04 78 3f ec 91 85 3f 2d 67 8b 3f 8d fa 74 3f
       0.96882415 1.0435157 1.0890862 0.9569481
000020 9d ce 6a 3f 3c 4d 72 3f 38 82 72 3f 51 d6 4a 3f
       0.91721517 0.946491 0.9472995 0.7923327
000030 55 f3 83 3f 3a 29 6f 3f 24 51 53 3f 15 9f 80 3f
       1.0308634 0.9342228 0.82545686 1.0048548
000040 59 3e 62 3f 73 a6 8e 3f 61 8a 81 3f ee cf 72 3f
       0.88376385 1.1144546 1.0120355 0.94848526
000050 e3 e0 8c 3f 23 03 55 3f 01 b1 5d 3f 2a 54 8c 3f
       1.100613 0.8320791 0.8659821 1.0963185
000060 93 b2 84 3f 03 c3 6a 3f 9b 56 77 3f 22 e4 81 3f
       1.0366997 0.91703814 0.96616524 1.0147746
000070 c0 27 86 3f 07 48 67 3f cb a4 67 3f 6d d4 66 3f
       1.0480881 0.9034428 0.9048583 0.90167886
000080 12 e8 76 3f c9 ca 76 3f 1b 3a 73 3f 58 2d 42 3f
       0.9644786 0.96403176 0.95010537 0.7585044
000090 53 30 7e 3f 0b 8b 82 3f 4e c0 81 3f ec 0a 6b 3f
       0.99292487 1.0198683 1.0136812 0.9181354
0000a0 2c 53 82 3f 24 ed 81 3f 62 df 70 3f de 2e 75 3f
       1.0181632 1.0150495 0.94090855 0.9577464
0000b0 88 f8 75 3f 64 e3 85 3f 6a 36 89 3f 7c e5 5a 3f
       0.96082354 1.0460019 1.0719731 0.85506415
0000c0 ea 0e 81 3f 14 06 66 3f 88 c1 7f 3f 8a b1 84 3f
       1.0082676 0.89853024 0.9990468 1.0366681
0000d0 a0 1f 5c 3f 30 45 85 3f f1 b1 7e 3f fd ee 8d 3f
       0.85985756 1.0411739 0.9949027 1.1088558
0000e0 cd f2 75 3f 6a 48 41 3f 42 81 80 3f bb c9 88 3f
       0.9607361 0.7550112 1.0039446 1.0686563
0000f0 c0 6d 84 3f 73 52 83 3f b5 c0 80 3f 52 c1 6e 3f
       1.0345993 1.0259537 1.005881 0.93263733
