pythiatransformer/toy/toy_transformer.pt (torch, 962713 bytes, 69 tensors)

sos_token f4 [1, 1, 64]
000000 c4 00 48 3f ff 17 83 bf f0 37 f4 3e 14 09 97 bf
       0.7812617 -1.0241698 0.47698927 -1.1799645
000010 6e 87 8b 3f 1e ff 76 bd e3 cc cf bf 23 c4 87 be
       1.0900705 -0.060301892 -1.6234401 -0.26516828
000020 e8 f0 60 be fa d5 88 bf bc b3 4d 3e 82 68 2e 3e
       -0.21966898 -1.06903 0.20088094 0.17032054
000030 4e e6 67 3f fe 82 9a 3f e3 b8 45 bf 0d 0d 4f be
       0.9058579 1.2071226 -0.7723524 -0.20219822
000040 f6 cb c7 be 76 47 85 3d ce a5 8d bf d6 e5 87 3e
       -0.39022797 0.06507771 -1.1066225 0.26542538
000050 19 22 31 3f e5 b4 81 3f 1a c1 2c bd fe c9 00 3f
       0.69192654 1.013333 -0.042176344 0.50308216
000060 2e de 09 be 10 d2 0b 40 5f 28 9e 3c 91 9c c2 3f
       -0.13463661 2.1846962 0.01930636 1.520403
000070 45 d9 c6 be ae 2e 86 3f 3b 7a 64 3f 12 1f f1 bf
       -0.38837638 1.0482996 0.8924901 -1.8837607
000080 8e aa ee be be 4c b2 3d 75 65 83 3f 49 0a ec 3f
       -0.46614498 0.08706044 1.0265337 1.8440639
000090 73 ec 66 3e ed 22 81 bf df 61 4f bf e3 4b 5d 3e
       0.22551136 -1.0088784 -0.81008714 0.2161098
0000a0 68 fa 78 bf 16 2f d5 bf a0 b2 3c bd 6b af 37 bf
       -0.9725709 -1.6654994 -0.046068788 -0.7175204
0000b0 29 bf 60 bf fe 54 07 3f 8a 40 c2 3f 17 32 b1 3f
       -0.8779169 0.5286406 1.5175946 1.3843411
0000c0 2a c4 92 bf d9 2a 74 3f e2 92 3f bf b2 6e 66 3f
       -1.1466115 0.9537788 -0.748335 0.9001266
0000d0 dc 04 db ba 32 b8 c0 3e fc 97 73 be 7f 06 b2 bf
       -0.0016709822 0.3764053 -0.23788446 -1.3908232
0000e0 2b b7 ca be ad c7 99 bf c8 55 82 3e 3a e5 bd bd
       -0.3959287 -1.2014061 0.2545607 -0.09272237
0000f0 dc ea d5 3f 38 10 00 3d 83 a4 82 3f bb b2 b6 3f
       1.6712298 0.031265467 1.0206455 1.4273294

in_proj.weight f4 [64, 1]
000000 79 9a 82 be 07 de 95 be b3 e0 a1 bd f3 e9 25 3e
       -0.25508478 -0.29270956 -0.07904186 0.16202526
000010 ca 91 6b 3e fd 4c 1e bf 6a d6 fc 3d 13 50 47 3f
       0.23004833 -0.61836225 0.12345584 0.7785656
000020 7b 68 c4 be 41 dd 63 3d e1 10 47 be b2 53 76 3f
       -0.38360962 0.055630926 -0.19440033 0.9622146
000030 c6 40 7f bf 53 60 10 3e b2 2d 5a 3e 97 8e ff 3c
       -0.9970821 0.14099245 0.21306494 0.031195922
000040 51 18 1d 3f 04 f6 34 3f 3d c5 49 bf 4c d7 d7 be
       0.6136523 0.7068789 -0.78816587 -0.42156446
000050 7c 19 c4 be 01 ce b6 be 55 14 7a bf e0 9a 0a 3f
       -0.38300693 -0.35704044 -0.97687274 0.5414257
000060 5d 51 4f bf ee 3f 71 bd 2b db 63 bf 13 c6 a1 3e
       -0.80983526 -0.05889886 -0.890063 0.3159643
000070 1c aa 40 3f a7 6c 80 be 1d 99 c9 be 1e e5 d8 bd
       0.75259566 -0.25082895 -0.3937463 -0.10590576
000080 3a 19 68 be bc 04 07 be 4b e6 97 3e e0 77 fb be
       -0.22665873 -0.131854 0.29667887 -0.49114895
000090 83 7b 84 be f1 cd 27 bf a1 65 1f 3f 14 70 5b 3d
       -0.25875482 -0.65548617 0.6226445 0.053573683
0000a0 df d1 df 3d bd d1 3c bd bd d8 2f 3f 9f 98 4a 3f
       0.109287016 -0.04609846 0.6869009 0.7913913
0000b0 84 2a 4f 3f 9f e9 e8 be 57 d5 80 3f a3 4c 43 3f
       0.8092425 -0.4549074 1.0065106 0.76288813
0000c0 77 95 52 bf b4 11 51 bf c0 03 76 bf 58 35 93 be
       -0.82259315 -0.8166764 -0.9609947 -0.28751636
0000d0 6b fa 54 bf 3d 13 12 bf 9f 9a fc be 5e 74 81 3f
       -0.8319461 -0.57060605 -0.49336717 1.0113637
0000e0 ff fe a5 be 94 ad ea bd 87 37 3b 3f d9 f4 fe 3d
       -0.3242111 -0.11458889 0.73131603 0.12449045
0000f0 84 8b 4b 3d a3 08 b3 be 8b 26 27 3f a6 bd 38 bf
       0.0496936 -0.34967527 0.65293187 -0.7216438

in_proj.bias f4 [64]
000000 08 e7 c4 3e c9 20 62 3e b1 04 1d 3f fd a8 1f bf
       0.38457513 0.22082819 0.61335284 -0.6236723
000010 0c f1 05 3f 50 27 1e 3f 9e ef 58 bf 3b 2b 68 3f
       0.52320933 0.61778736 -0.84740627 0.90690964
000020 01 66 31 3d 5a fd 1f 3f e5 9d e1 be 98 38 89 3c
       0.04331017 0.6249596 -0.44065776 0.016750619
000030 c6 29 55 bf ac 6c 29 bf 5a 38 73 3d eb b3 db 3e
       -0.83266866 -0.66181445 0.059379913 0.42910704
000040 8a 44 53 3f 72 ef 83 bf 19 4b 20 3f ac 0d e1 3e
       0.8252646 -1.0307448 0.6261459 0.43955743
000050 65 4d 81 3f fb 3a 35 bb 59 c8 15 3d 1b 3a 91 bf
       1.0101744 -0.0027653563 0.03656802 -1.1345857
000060 e2 86 0c 3f c9 a1 bc bd 26 4f 59 be e8 ff 9f be
       0.54893315 -0.092105456 -0.21221599 -0.31249928
000070 bd d3 27 bf 58 09 80 be 80 95 93 3e d3 9f 46 3f
       -0.6555746 -0.2500713 0.28824997 0.7758762
000080 43 2c 1f bf 4d 13 67 bf 37 2f 53 3d c2 9b 55 3f
       -0.62176913 -0.90263826 0.0515587 0.8344079
000090 b0 a6 27 3c 86 98 b0 bd b6 d6 10 bf 4d a5 dc bd
       0.0102326125 -0.086228415 -0.5657762 -0.10773716
0000a0 a1 15 1f bf ab 23 06 3f 0f 27 03 be 7b 86 f1 bd
       -0.6214238 0.52398175 -0.12807868 -0.11793228
0000b0 a8 96 fd be 0e 12 17 3f 18 4f 62 bf 82 e4 4d 3f
       -0.49529004 0.59011924 -0.8840194 0.804268
0000c0 09 68 be be fd 0f 0d bf a5 86 cb 3d b6 c6 a4 3f
       -0.37188748 -0.5510252 0.09937791 1.2873142
0000d0 df d9 a7 be 5e d8 27 3f a0 b8 2d bb 4c 53 59 bf
       -0.3278341 0.65564525 -0.002650775 -0.84892726
0000e0 83 cf 83 bc d1 56 b0 3e 37 fe 38 3f ca 22 93 be
       -0.01609016 0.34441236 0.722629 -0.2873748
0000f0 6e c2 1d bf 2f b5 7c be 24 87 0e 3f 7f 3e 9a 3d
       -0.616248 -0.24678491 0.5567496 0.075314514

transformer.encoder.layers.0.self_attn.in_proj_weight f4 [192, 64]
000000 76 6b 5e 3c b2 f8 8a 3d 72 28 ac 3c dc c3 a4 bd
       0.013575425 0.06785716 0.02101538 -0.0804517
000010 2b ed 26 3d db 41 e9 3d 2f d3 da bd 1d 30 83 3c
       0.040753525 0.11389514 -0.10684811 0.016014153
000020 0b 74 90 3d 8c 46 0d 3e dd 94 d8 bd 9c 1f 18 be
       0.070533834 0.13796443 -0.105752684 -0.14855808
000030 0f c7 00 3e 50 13 cf 3d 5b 68 61 3d ff b0 81 ba
       0.12575935 0.101111054 0.05503116 -0.0009894668
000040 40 69 8b bd a8 81 4e 3d 14 db e5 bd ca 4f ef bd
       -0.06807184 0.05041662 -0.112234265 -0.116851404
000050 2a 3c ed bd b9 a9 16 be 46 81 a5 3d 9b c8 e5 3d
       -0.11583741 -0.14713182 0.080812976 0.11219903
000060 dd 6b 2e 3d 8c 21 92 3d 1e 0e 0f be 26 06 54 bd
       0.042583335 0.07135305 -0.13970229 -0.051763676
000070 5b d0 34 3d cd 85 ef 3d 48 b3 2c bd 45 6f ab 3d
       0.044144016 0.11695442 -0.042163163 0.08370832
000080 b5 30 84 3d 02 97 08 be 3f a8 09 3e 10 83 8b bd
       0.06454603 -0.13338855 0.13443087 -0.068121076
000090 eb 1f be 3d a3 78 08 be b2 5a 56 bb 1c 87 1c 3d
       0.092834316 -0.1332727 -0.0032707867 0.038214788
0000a0 a5 bd 2b 3d cb 1d bc 3d 2e 77 25 3c ba c6 e1 3d
       0.041928906 0.0918537 0.010099215 0.11024232
0000b0 51 68 9a bd 90 e8 4d 3c a8 d6 42 bd b1 25 62 3a
       -0.07539428 0.012567654 -0.047567993 0.0008626832
0000c0 62 84 38 bd bc c2 ae 3d 58 c2 1b bd ce 52 c6 3c
       -0.045048125 0.085332364 -0.038027138 0.024209406
0000d0 d4 10 15 3e 6b ae 52 3d f3 75 c7 3d 34 09 bb 3d
       0.145572 0.05143587 0.09739294 0.09132615
0000e0 51 96 a2 3d 4c 71 41 3d 14 53 e7 3d f9 1f 36 bc
       0.07938827 0.04722719 0.11295143 -0.011116021
0000f0 95 a1 e2 bc 4a 78 6a 3d 54 b2 cc 3d 4e 79 08 3c
       -0.027664939 0.057243623 0.09994951 0.008329703
000100 eb 3c bf 3c 40 ea 59 3d 76 7e 9d 3d 89 e1 05 3e
       0.023344478 0.053201914 0.07690136 0.13074316
000110 55 6b 15 be bf db db 3d 40 f9 0b 3e f9 c7 b8 3c
       -0.14591725 0.107352726 0.136693 0.022556292
000120 5d 83 77 3d 3a 18 db bd 86 76 79 3d fa 8d cb bd
       0.060428012 -0.1069798 0.06090405 -0.09939189
000130 c7 9d 0a 3d d6 9a f6 bd 30 99 f0 3d db d6 0e be
       0.033841874 -0.12041251 0.11747968 -0.13949148
000140 e6 a8 f2 3b 44 2f a6 3d 68 64 d1 3d 46 7b 17 be
       0.007405388 0.08114484 0.10224229 -0.14793119
000150 1e d1 02 bd 5a 88 01 bd 20 74 01 be 74 0f 2e bd
       -0.03193771 -0.031624176 -0.12641954 -0.042495206
000160 c4 70 60 bc 8f 68 e9 3d b3 07 a6 bd 6f e3 9b 3d
       -0.01369876 0.11396896 -0.08106937 0.07611739
000170 3a b5 7c bd 4c db b0 bd a0 34 f1 3d 0c 58 a7 bc
       -0.06169627 -0.086355776 0.117776155 -0.020427726
000180 a9 b5 25 bd cd 2e 07 be 97 1a 73 3d b0 c6 06 3e
       -0.040456448 -0.13201447 0.05935153 0.13161731
000190 75 e0 f8 ba f3 6d c7 3b 77 1d b0 bb 28 f6 76 bd
       -0.0018987792 0.006086105 -0.0053746062 -0.060293347
0001a0 a2 c2 01 3e 22 16 4b 3d 51 72 34 3b 79 24 8c bd
       0.12671903 0.049581654 0.0027533958 -0.06842894
0001b0 b3 ae 16 bd e0 25 7a bd 3d 52 0b be 9c b0 d7 bd
       -0.0367877 -0.061071277 -0.1360559 -0.105317324
0001c0 af c4 a5 3c 83 40 10 be 0e 23 57 3d 46 aa 8a bc
       0.020235388 -0.1408711 0.052523665 -0.016926896
0001d0 32 85 85 3d 9e 95 3b bd b2 ff 19 3e d7 bf 1a be
       0.065195456 -0.045796983 0.15038946 -0.15112244
0001e0 bf 1c fe bd 0c ea 12 3e 86 86 b4 bd 2d 35 cd bd
       -0.12407827 0.14347094 -0.08814721 -0.10019908
0001f0 c6 fb 84 3b 8c 99 fe bd 1b 13 b9 3c 0d d3 c9 bc
       0.004058334 -0.124316305 0.022592118 -0.02463677
000200 59 14 00 3e eb ad cc bc a5 be fe 3c 91 7b ca bd
       0.12507762 -0.024985274 0.031096766 -0.0988685
000210 24 f6 8a bd a6 69 9d 3d 38 7c 81 bd 22 44 13 3e
       -0.06785229 0.076861665 -0.06322521 0.1438146
000220 28 33 b7 ba 6f c0 4f 3d cc 40 03 3e ea fd d8 3c
       -0.0013977038 0.05072063 0.12817687 0.026488263
000230 14 fc 18 3e 37 3e 2d 3d f0 05 20 3d cc 30 04 be
       0.1493991 0.04229566 0.039068162 -0.1290924
000240 f2 ac bf 3d 8d e1 1a be cc 42 c1 bd b3 e3 fb 3d
       0.093591586 -0.15125103 -0.094365686 0.122992896
000250 30 47 ed bd 13 bd 9c bd 16 91 1b 3e 15 ce c2 3d
       -0.115858436 -0.076532505 0.15192065 0.09511963
000260 56 a8 60 bc 96 35 9a bc 88 39 a3 bd 19 65 8d bd
       -0.013712009 -0.01882438 -0.079699576 -0.069040485
000270 7d a9 b2 3b eb 8e b8 bd e4 ed 05 3e 34 96 14 bd
       0.0054523335 -0.090116344 0.1307903 -0.036276057
000280 43 c0 d1 bd df 27 0e 3e a7 63 24 bd ec b2 87 3d
       -0.10241749 0.13882397 -0.0401341 0.066259235
000290 69 34 21 3d 59 5e 52 bd 93 4d 02 bd 09 05 fd 3d
       0.039356623 -0.05135951 -0.03181226 0.12354476
0002a0 03 60 19 be fc 30 86 3d c5 db e8 bd 9d 32 d7 3d
       -0.14978032 0.06552312 -0.11370043 0.105077006
0002b0 40 49 6a bd 1f 2f 26 3c 9c 09 67 3d 2d 5f 11 be
       -0.057198763 0.0101430705 0.05640565 -0.14196463
0002c0 2f 11 d7 b9 96 76 04 3d 0e a9 02 be c5 a6 17 bd
       -0.00041020798 0.032339655 -0.12759802 -0.03702428
0002d0 41 51 aa 3d c2 f6 04 be 43 d7 1b bd e9 aa 61 bd
       0.08316279 -0.12984756 -0.038047086 -0.055094633
0002e0 5d b8 16 bb e4 eb 1a 3e f2 66 15 3b 99 92 32 bd
       -0.0022998073 0.15129048 0.0022796956 -0.043596838
0002f0 cc ee f8 3d 57 f6 07 be 42 39 19 be 4c 12 0d be
       0.12154922 -0.13277565 -0.14963248 -0.13776511
000300 a7 99 50 bd 51 c6 7e bd 9b 3a 12 be f4 13 64 3d
       -0.050927784 -0.062200848 -0.14280169 0.05568309
000310 00 ee 3a 3d cb a5 e6 bc b9 bd 9c bd 79 99 12 be
       0.04563713 -0.028155228 -0.07653374 -0.14316358
000320 00 21 13 be 26 0c d1 bc 37 07 02 3e 70 1f 1d 3d
       -0.14368057 -0.025518488 0.12698065 0.03836006
000330 bf 45 04 b6 56 3e 3f 3c 73 f2 a5 3d fd f0 94 3d
       -1.971013e-06 0.011672577 0.08102884 0.07272527
000340 c8 82 af 3d c9 82 a1 3d ab 8f a7 bd 36 46 1a be
       0.085698664 0.078862734 -0.08181699 -0.15065846
000350 fb e5 36 3d bc 9c 0f 3e b2 8d 0b be 55 5a 8b 3c
       0.04465292 0.14024633 -0.13628271 0.017010847
000360 b9 0d b0 bd 71 29 73 3d 50 f2 a2 3d 90 ca 17 be
       -0.085963674 0.059365693 0.07956374 -0.14823365
000370 13 84 49 3d 42 ba c9 bd c7 39 98 bd 83 d9 09 be
       0.04919822 -0.09849979 -0.07432895 -0.1346188
000380 2a 46 aa 3d dd cf 0b 3e 51 19 00 3e 4c 55 8b bd
       0.08314164 0.13653512 0.12509657 -0.068033785
000390 2f 9c c7 3b b4 11 98 bd 97 a3 02 3e 26 d4 1b 3e
       0.0060916166 -0.074252516 0.12757717 0.15217647
0003a0 58 90 ec 3c 17 de 95 bd db cc a1 bd d2 4a 8d bd
       0.028877422 -0.07317751 -0.07900401 -0.068990365
0003b0 09 3d 0d 3e 90 03 16 bd 8c 43 4f bd e2 e2 72 3d
       0.13792814 -0.03662449 -0.050601527 0.059298404
0003c0 99 29 7f 3d 8c 30 55 bd ae 89 96 3d b4 68 e9 3c
       0.06229553 -0.05204825 0.07350479 0.02849231
0003d0 7e ca 09 bc d9 74 57 bd 59 e5 a2 3d c2 52 11 bd
       -0.008410094 -0.05260167 0.07953901 -0.035479315
0003e0 e6 ec bc 3d 7f 69 e6 3d 32 f7 89 3c 0f 9e 3f 3d
       0.09224872 0.112505905 0.016841505 0.046781596
0003f0 93 62 5d bd 1e da 10 3e 67 d6 b4 bd 5b 0c 9a bd
       -0.054049086 0.14145705 -0.088299565 -0.07521888

transformer.encoder.layers.0.self_attn.in_proj_bias f4 [192]
000000 00 00 00 00 00 00 00 00 00 00 00 00 00 00 00 00
       0.0 0.0 0.0 0.0
000010 00 00 00 00 00 00 00 00 00 00 00 00 00 00 00 00
       0.0 0.0 0.0 0.0
000020 00 00 00 00 00 00 00 00 00 00 00 00 00 00 00 00
       0.0 0.0 0.0 0.0
000030 00 00 00 00 00 00 00 00 00 00 00 00 00 00 00 00
       0.0 0.0 0.0 0.0
000040 00 00 00 00 00 00 00 00 00 00 00 00 00 00 00 00
       0.0 0.0 0.0 0.0
000050 00 00 00 00 00 00 00 00 00 00 00 00 00 00 00 00
       0.0 0.0 0.0 0.0
000060 00 00 00 00 00 00 00 00 00 00 00 00 00 00 00 00
       0.0 0.0 0.0 0.0
000070 00 00 00 00 00 00 00 00 00 00 00 00 00 00 00 00
       0.0 0.0 0.0 0.0
000080 00 00 00 00 00 00 00 00 00 00 00 00 00 00 00 00
       0.0 0.0 0.0 0.0
000090 00 00 00 00 00 00 00 00 00 00 00 00 00 00 00 00
       0.0 0.0 0.0 0.0
0000a0 00 00 00 00 00 00 00 00 00 00 00 00 00 00 00 00
       0.0 0.0 0.0 0.0
0000b0 00 00 00 00 00 00 00 00 00 00 00 00 00 00 00 00
       0.0 0.0 0.0 0.0
0000c0 00 00 00 00 00 00 00 00 00 00 00 00 00 00 00 00
       0.0 0.0 0.0 0.0
0000d0 00 00 00 00 00 00 00 00 00 00 00 00 00 00 00 00
       0.0 0.0 0.0 0.0
0000e0 00 00 00 00 00 00 00 00 00 00 00 00 00 00 00 00
       0.0 0.0 0.0 0.0
0000f0 00 00 00 00 00 00 00 00 00 00 00 00 00 00 00 00
       0.0 0.0 0.0 0.0
000100 00 00 00 00 00 00 00 00 00 00 00 00 00 00 00 00
       0.0 0.0 0.0 0.0
000110 00 00 00 00 00 00 00 00 00 00 00 00 00 00 00 00
       0.0 0.0 0.0 0.0
000120 00 00 00 00 00 00 00 00 00 00 00 00 00 00 00 00
       0.0 0.0 0.0 0.0
000130 00 00 00 00 00 00 00 00 00 00 00 00 00 00 00 00
       0.0 0.0 0.0 0.0
000140 00 00 00 00 00 00 00 00 00 00 00 00 00 00 00 00
       0.0 0.0 0.0 0.0
000150 00 00 00 00 00 00 00 00 00 00 00 00 00 00 00 00
       0.0 0.0 0.0 0.0
000160 00 00 00 00 00 00 00 00 00 00 00 00 00 00 00 00
       0.0 0.0 0.0 0.0
000170 00 00 00 00 00 00 00 00 00 00 00 00 00 00 00 00
       0.0 0.0 0.0 0.0
000180 00 00 00 00 00 00 00 00 00 00 00 00 00 00 00 00
       0.0 0.0 0.0 0.0
000190 00 00 00 00 00 00 00 00 00 00 00 00 00 00 00 00
       0.0 0.0 0.0 0.0
0001a0 00 00 00 00 00 00 00 00 00 00 00 00 00 00 00 00
       0.0 0.0 0.0 0.0
0001b0 00 00 00 00 00 00 00 00 00 00 00 00 00 00 00 00
       0.0 0.0 0.0 0.0
0001c0 00 00 00 00 00 00 00 00 00 00 00 00 00 00 00 00
       0.0 0.0 0.0 0.0
0001d0 00 00 00 00 00 00 00 00 00 00 00 00 00 00 00 00
       0.0 0.0 0.0 0.0
0001e0 00 00 00 00 00 00 00 00 00 00 00 00 00 00 00 00
       0.0 0.0 0.0 0.0
0001f0 00 00 00 00 00 00 00 00 00 00 00 00 00 00 00 00
       0.0 0.0 0.0 0.0
000200 e5 49 21 bd 5c f1 6b bc e2 bd 8e 3d 7c 50 25 bd
       -0.039377112 -0.014400806 0.06969811 -0.04035996
000210 b4 45 41 3d 40 10 de bc b7 95 45 bc 7b ab db 3b
       0.047185615 -0.027107358 -0.012059621 0.0067037917
000220 c4 41 11 3c 39 57 cb bd f4 56 4c bb be 3d b5 bd
       0.008865777 -0.09928746 -0.0031179758 -0.08849667
000230 8a 55 77 3d 6c 2f 01 3b 76 d7 4c bd fb c9 ce bd
       0.06038431 0.0019712104 -0.050010167 -0.100971185
000240 fe 62 06 bc 6e fd d4 3d 74 6d 2d bd 64 72 15 bd
       -0.0082023125 0.103999004 -0.04234071 -0.036486045
000250 37 8e 47 3c f2 0b bf 3b 6a 31 8a 3d de 4d b1 3c
       0.012179903 0.0058302814 0.06747706 0.021643575
000260 42 24 2f bc d2 32 be bb 3d 1f ba 3d 08 e3 99 bd
       -0.010689797 -0.005804398 0.090879895 -0.07514006
000270 2a dc 60 bc 0e 93 04 be 89 52 fa bc 94 23 b5 bd
       -0.013724366 -0.12946722 -0.030556934 -0.088446766
000280 51 19 c5 bc dd 91 e0 3d 12 f4 1c bb 12 30 18 bd
       -0.024059923 0.10965321 -0.0023949188 -0.03715522
000290 6c c4 5b bc 28 3c 81 3d 7a 24 d8 3d db eb 12 bc
       -0.01341353 0.06310302 0.10553832 -0.008967365
0002a0 75 f3 b1 3d 2f 14 2f bc 4d ac 09 bd 39 13 ca bd
       0.08689014 -0.0106859645 -0.033611584 -0.09866948
0002b0 79 17 4f 3c 26 ec fa 3a 8a e0 f4 3d ea 72 c2 3d
       0.012639874 0.0019143864 0.1195689 0.09494574
0002c0 40 4c ea 3c 10 4d af 3d f7 4c 01 3c 2d e8 48 3d
       0.028600812 0.085596204 0.007891885 0.049049545
0002d0 a3 d2 d3 3b ff 83 fe bd 77 ce 10 3d b3 0a a5 bc
       0.006464319 -0.1242752 0.03535315 -0.020146703
0002e0 64 e1 d3 3d 94 1b 0f bd 8c 4c f0 3b 06 4d 50 3d
       0.10345724 -0.03493841 0.007333344 0.050854705
0002f0 aa ac ac 3c 0a 82 2d bd 6e 01 ab bc d7 3b aa 3d
       0.021078426 -0.042360343 -0.020874705 0.08312195

transformer.encoder.layers.0.self_attn.out_proj.weight f4 [64, 64]
000000 48 53 80 bb 91 f2 d1 bc 47 bd 3e 3e a4 25 40 be
       -0.003916178 -0.02562836 0.18626891 -0.18764359
000010 60 ee 38 be 3a 89 14 be 51 dc 42 be bf ec 3a bd
       -0.18059683 -0.14505473 -0.19029357 -0.045635935
000020 ad 26 ec bd eb 34 4e be 3e 34 00 3e bb ca ef bd
       -0.11530814 -0.20137374 0.12519929 -0.1170859
000030 05 8e 18 3e 7b 3a 44 3e f9 62 f7 bc 4e 02 ed 3c
       0.14897926 0.19162934 -0.030198561 0.028931763
000040 67 9b ce bd 57 66 cf 3d b5 6a 0a 3e 26 e3 b9 3d
       -0.100882344 0.10126942 0.13517268 0.09076528
000050 8b 85 a2 bd f9 b0 22 be 05 b6 19 3e 48 07 05 be
       -0.079356275 -0.15887822 0.15010841 -0.12991059
000060 c9 2a 1e be 06 c4 7a bd 84 27 0c be f4 15 f2 bd
       -0.15446009 -0.0612221 -0.13686949 -0.118205935
000070 5b 0b 0b be 3d 42 23 3e 65 b4 08 3e 5f 59 a3 bd
       -0.1357855 0.15943237 0.13350065 -0.079760306
000080 df db 14 3e 16 ad cf bd b5 11 67 3d 17 9e 00 be
       0.14536999 -0.101404354 0.05641337 -0.12560306
000090 9e 49 d9 bd fa 9a 73 3e 44 88 26 3d d4 1f 9f bd
       -0.106097445 0.23789588 0.040657297 -0.077697426
0000a0 a9 2c 95 bd 27 60 4b 3c 8c ce 17 be cd 14 0d be
       -0.07283909 0.012413061 -0.14824885 -0.13777466
0000b0 c5 87 ff bc 0e f6 56 3d d4 52 eb 3d c9 a3 63 bd
       -0.03119267 0.05248075 0.114904076 -0.05557612
0000c0 80 aa f9 bc b6 cc 9b 3d fe 92 6a 3d b6 4d 08 bd
       -0.030476809 0.07607405 0.05726909 -0.033277236
0000d0 21 48 65 be 34 fb b4 3c 5e ad ca 3d 4a 36 04 3e
       -0.22390796 0.02209244 0.098963484 0.12911335
0000e0 9f 04 0d 3e 64 47 bf 3d e5 8b a0 bd f6 0d e0 bd
       0.13771294 0.093397886 -0.07839183 -0.10940163
0000f0 0a f6 e5 3d 6b 48 6b 3b ab 5c 4c be 42 c4 2b be
       0.11228569 0.0035901319 -0.19957225 -0.16774085
000100 be 89 23 3e 8e 8f 00 3d 6d d6 1f be fb 22 43 be
       0.15970513 0.031386904 -0.1560914 -0.19056313
000110 99 50 d5 3d aa b6 1e be b0 36 26 3e 85 40 df bd
       0.104157634 -0.15499368 0.16231799 -0.10900978
000120 1d 07 8d bd 1d e1 44 be 1c 40 dc bd 76 eb 7c be
       -0.068861224 -0.19226499 -0.107544154 -0.24699196
000130 f5 d8 ba 3c 45 f7 3d be 42 55 29 bd 49 d2 85 be
       0.022808531 -0.18551357 -0.041341074 -0.26136997
000140 ac 36 c5 3d 1d 92 9e 3e 86 76 28 be bb 31 16 3e
       0.096295685 0.3097085 -0.16451463 0.14667408
000150 bc 28 a3 bd 2c 6a 25 3e 58 42 4a 3e 8c 6e 3d 3e
       -0.07966754 0.16153783 0.1975187 0.18499202
000160 e4 89 95 bd 63 54 ca bd 81 50 87 3b 61 51 b0 bd
       -0.07301691 -0.09879377 0.00412947 -0.08609272
000170 30 2c 8e 3d aa ad d7 bd cc 76 ae 3d 57 40 3a be
       0.06942022 -0.10531171 0.085187525 -0.18188606
000180 48 49 b2 3d 2a 01 39 3e 92 6f 13 be 64 91 38 be
       0.087053835 0.1806685 -0.1439803 -0.18024212
000190 6d 2a 1e be 2f 79 68 bc 73 d3 c6 3d 45 33 cf bd
       -0.15445872 -0.014189049 0.097082995 -0.10117201
0001a0 42 20 5c 3e 8c 16 81 bd 64 d3 2f bd e5 cc c0 bd
       0.2149668 -0.063031286 -0.042926207 -0.094140805
0001b0 8c 7d 23 be ba d6 12 be 07 32 ac 3c 5d ae 69 3e
       -0.15965861 -0.14339724 0.021019949 0.2282042
0001c0 30 fe 11 be 0a d5 e6 bd 71 ef 1a 3d 4b 21 16 3e
       -0.14257121 -0.11271103 0.037826005 0.14661138
0001d0 ce 5b bb 3d 59 e8 cd bd 08 ab 5c 3d 30 6f 1a be
       0.0914837 -0.100540824 0.053874046 -0.15081477
0001e0 c3 a7 68 3e a7 7c 6f 3d 9f e7 26 3e ae ec 25 3e
       0.22720246 0.058468487 0.16299294 0.16203567
0001f0 79 c7 87 bd 1b 37 f0 bd 14 2e 0e 3e 8e fd 7a 3e
       -0.06629843 -0.117292605 0.13884765 0.24510786
000200 37 0e dd bd 52 d6 d0 bc c4 33 2c 3e aa 75 78 3d
       -0.10793727 -0.02549282 0.16816622 0.06065909
000210 76 89 23 be b1 48 29 be 0d 0d 2e bd 56 79 ea bd
       -0.15970406 -0.16531636 -0.042492915 -0.11448924
000220 0f 84 b8 3d 93 f5 09 bd e4 44 02 3e 0c 1a b6 3d
       0.09009563 -0.033681463 0.12721592 0.08891687
000230 25 d8 18 3e 98 ed b0 3d 8d 14 ee bd b2 bd 87 bd
       0.14926203 0.086390674 -0.116250135 -0.066279784
000240 37 59 88 bd 27 63 df bb e3 7b 3a bc 9c 11 c6 3b
       -0.066576414 -0.00681724 -0.011382076 0.0060445797
000250 81 8d b0 3d ae aa 4f 3d 0b e3 eb 3c 41 cb 30 be
       0.0862074 0.050699882 0.028794786 -0.17265035
000260 55 2c d7 3c 71 94 5d 3d bb 43 9d 3d 37 3b 24 bc
       0.026266256 0.054096643 0.07678934 -0.010023884
000270 a7 75 2e bd f0 b3 13 3d 06 47 da bd fa 79 3c be
       -0.04259267 0.036060274 -0.10658078 -0.18405905
000280 34 62 3e be 9a a0 a7 3d f9 f8 b5 bd 0e 35 90 bd
       -0.18592149 0.08184929 -0.088853784 -0.070413694
000290 3e 85 54 3c 0c 6f 05 3e ce ec fa 3d 77 d4 27 be
       0.012971221 0.13030642 0.12252198 -0.16389643
0002a0 e1 c9 5a bd b4 d5 82 3d 1c 85 ec bd a9 10 df bc
       -0.053415183 0.06388417 -0.11548826 -0.027229624
0002b0 96 c9 74 bd a5 7c 42 bd af c6 ad bd d5 d3 42 3d
       -0.05976256 -0.04748215 -0.084851615 0.0475653
0002c0 0c 1f b3 b8 e8 88 d8 bc fd 86 b7 bb 4f 73 c5 bd
       -8.541168e-05 -0.02643247 -0.0056008087 -0.09641134
0002d0 4b 30 59 3d 0f d9 e9 bd d9 6b e5 bd 6a a4 3a 3e
       0.05302457 -0.11418354 -0.11202211 0.18226781
0002e0 89 f9 91 3e be de 12 3e 26 25 11 3e fa 77 20 3d
       0.28510693 0.14342782 0.14174327 0.03917692
0002f0 1c 42 b3 3d 61 31 11 3e 66 d1 1a be c3 37 9c bd
       0.08752844 0.14178993 -0.15118942 -0.07627823
000300 af c5 4a 3e 5c 54 89 bc 18 70 0f 3e 8e ea c8 3c
       0.19801973 -0.016763858 0.14007604 0.024525907
000310 c1 c8 ad 3d 68 49 25 3e c3 9c 1d bd 7f c6 01 3e
       0.084855564 0.16141284 -0.038479578 0.12673377
000320 58 5c 2e 3e 65 8c e4 bd a6 28 3f bd fe 9c 03 3e
       0.17027414 -0.11159591 -0.046669625 0.12852857
000330 dc ff 1e 3e de 9c dc 3d e3 0b eb bd df f8 86 be
       0.1552729 0.107721075 -0.114768766 -0.2636175
000340 7b 52 9e bd 77 44 8a bd cd f6 1e be 4b bf 3f bd
       -0.07730576 -0.0675134 -0.15523835 -0.04681329
000350 2f fd 18 be 5c 33 1b be 54 03 39 3e 26 e6 0f be
       -0.14940332 -0.15156311 0.18067676 -0.14052638
000360 ee 18 cb bc 8f 3e 2e be f4 2a 0c 3e 8b 9d a2 bd
       -0.02479216 -0.17016052 0.1368826 -0.07940205
000370 b3 b8 09 3e f1 3d 36 be 17 08 a1 3d 50 66 12 bd
       0.13449363 -0.17797066 0.07862871 -0.035742104
000380 29 b9 f2 3d 2b 37 69 3e 1d 57 26 3e 99 15 11 be
       0.11851723 0.22774951 0.16244169 -0.14168395
000390 a4 54 18 bd f0 c9 c8 3d 43 32 58 ba e4 9c c9 bd
       -0.037190095 0.098041415 -0.00082472357 -0.09844378
0003a0 a6 d1 e7 3d fc 2c 37 bd dc 9e 31 3d 23 3d ea bd
       0.11319284 -0.044720635 0.04336439 -0.11437442
0003b0 7b c3 b1 3d 16 ff 1e be a3 34 14 3e 82 5d c6 bd
       0.08679863 -0.15526995 0.14473204 -0.09685804
0003c0 20 b6 91 3d e0 38 63 bd 09 d4 87 bd ce 1c a5 3d
       0.07114816 -0.055474162 -0.06632239 0.08062135
0003d0 f0 d9 6e 3d 0c ec 91 3c 6a 81 0e 3e 0f 28 58 bc
       0.05831331 0.017812751 0.13916555 -0.013193144
0003e0 25 6b 67 3e 2a 97 1d be 6c 83 cf bd bd 91 00 3e
       0.22599466 -0.15389696 -0.101324886 0.12555595
0003f0 ef 4a ac bd 63 6d 29 be a0 d9 b0 bd 65 4a eb bd
       -0.0841273 -0.16545634 -0.08635259 -0.11488799

transformer.encoder.layers.0.self_attn.out_proj.bias f4 [64]
000000 8a 78 05 3e b8 7b d6 3d c3 fc 3a 3e 7c a3 0c 3c
       0.13034263 0.10472816 0.18260483 0.0085839
000010 b4 22 08 3e 77 45 2d 3e 55 af 27 be fe 75 c2 3d
       0.13294488 0.1692103 -0.16375478 0.094951615
000020 ab 47 6d bd c6 fa 29 3e a3 ea be 3d 41 68 dc bd
       -0.057929676 0.16599569 0.09322097 -0.10762072
000030 ce 85 f6 bd a8 1b b5 bd 0d 5e b3 bd d5 51 fd 3d
       -0.1203724 -0.08843166 -0.08758173 0.12369124
000040 60 8a bb 3d 28 b1 45 be a0 88 d5 3d fd 3d 6f 3d
       0.09157252 -0.19305861 0.1042645 0.058408726
000050 a4 3d 09 3e cc 31 b8 3d 86 21 e0 3c 6e 00 fb bd
       0.1340242 0.08993873 0.027359735 -0.12255941
000060 53 d5 c0 3d d3 54 80 3d f0 5b a3 3d 6c d6 03 be
       0.09415688 0.06266179 0.0797652 -0.12874764
000070 6e 7e 2e be 58 af 00 be 2c b7 0e 3e 85 b9 f9 bd
       -0.17040417 -0.12566888 0.13937062 -0.12193588
000080 ae 86 13 be 77 58 60 bd 59 c8 ac 3d 17 c0 04 be
       -0.14406845 -0.054771867 0.08436651 -0.12963901
000090 dd a5 bb bd 3a 61 1e 3e 29 01 09 be 6a 05 f2 3d
       -0.09162495 0.15466776 -0.13379349 0.11817439
0000a0 20 07 2a be 9f e0 17 3e c9 95 c6 3d 12 53 0f be
       -0.1660428 0.1483178 0.09696538 -0.13996533
0000b0 ee 49 4a be 23 49 14 3e c5 1a 11 be 87 11 88 3d
       -0.19754764 0.14481024 -0.14170368 0.06643968
0000c0 5e 11 88 3d 38 56 9d bd 03 16 0b 3e 78 f6 dd 3d
       0.066439375 -0.076824605 0.13582616 0.10838026
0000d0 ae fe 92 3d 2f f4 09 3e ec 8f c3 bd c6 01 13 be
       0.071774825 0.13472055 -0.09548935 -0.14356145
0000e0 c3 53 94 bc 5a 22 70 3b 97 e0 0a 3e 1e 11 19 be
       -0.018106347 0.003664157 0.13562237 -0.14947936
0000f0 3c 5e d4 bd 36 86 12 be 77 54 fd 3d 4c 8b 0b be
       -0.10369536 -0.1430901 0.12369626 -0.13627356

transformer.encoder.layers.0.linear1.weight f4 [256, 64]
000000 96 6b 9f bc 3f 7a db bc b6 6a b0 3d 8c 78 af bd
       -0.01946048 -0.02679169 0.086141035 -0.08567914
000010 1f 3b ba bd fd 76 bc 3d dc 13 82 3d 90 2f c5 3d
       -0.09093308 0.09202383 0.06351444 0.096282125
000020 22 d9 ed 3d 47 54 11 bc 45 19 aa 3c f9 e6 7a bc
       0.116136804 -0.008870191 0.020764003 -0.015313857
000030 ad 17 43 3d 6a 2d 02 3d db 15 1f bd 27 ab 0a be
       0.04763 0.03178159 -0.038839202 -0.13541852
000040 fc 9b b2 bd bc dc 5a bd af a7 d3 bc 0b f4 80 3d
       -0.08721158 -0.053433165 -0.025836794 0.062965475
000050 4c 21 f1 3d 42 e7 e5 3d 32 4f 13 3e 2c e3 e1 bc
       0.11773929 0.112257496 0.1438568 -0.027574144
000060 26 2a 6e 3d 7b 4c 54 bd 8e be 44 3d 18 2d e0 3d
       0.058145665 -0.05183075 0.04803329 0.10946101
000070 4b f1 c9 3d 2f 25 4a bd e2 fe c3 bd 93 5d 96 bd
       0.09860476 -0.049351867 -0.095700994 -0.073420666
000080 89 0b 9a 3d 6b 7b 0a bd c0 3f ed bb f9 9b a8 3b
       0.075217314 -0.033809107 -0.0072402656 0.0051455465
000090 48 80 b7 bd 17 bd d6 3d 8a eb f7 3d 75 b3 ab bd
       -0.089600146 0.10485285 0.121054724 -0.08383838
0000a0 41 c7 8b 3d 3c 4b 3b bd de fd e8 bd 04 2e 96 bd
       0.06825114 -0.045726046 -0.11376546 -0.073329955
0000b0 21 ff 95 bc 0a f1 8e bd 3a a1 e2 3d 53 1f 89 3d
       -0.018310132 -0.06979568 0.11065908 0.06695428
0000c0 ab b7 bf 3d c1 f5 48 bc 57 65 3f 3d 7c 2f 5e 3d
       0.09361204 -0.012265624 0.046727505 0.054244503
0000d0 22 53 fc bc 0e 2a f9 bb 11 9a 7e 3d a7 ac a6 3d
       -0.03080136 -0.0076038903 0.062158648 0.081383996
0000e0 58 66 e5 3d 7c b9 f0 3c b7 12 19 bd 73 05 b6 bd
       0.11201161 0.02938532 -0.037371363 -0.08887758
0000f0 3d 97 9f 3c 7e 53 e3 3d e5 47 1f be be 54 3b 3c
       0.019481296 0.11099909 -0.1555477 0.011433778
000100 cf 76 23 3d dc d0 0e 3d c7 f3 13 3d 79 9b e6 3a
       0.039908227 0.034867153 0.036121156 0.0017593942
000110 51 31 7a bc cf 85 c5 3c f7 3d bd bd e1 c1 e9 bd
       -0.015270547 0.024111656 -0.092403345 -0.114139326
000120 4f 60 b0 bd 87 76 3f bd 08 56 ac bd 38 48 55 bc
       -0.086121194 -0.046743896 -0.08414847 -0.013017707
000130 87 3c 0b 3e 97 54 43 3c 1d 20 e3 3d 26 72 a8 3d
       0.13597308 0.011922023 0.110901095 0.08224897
000140 31 9a 77 3d 6e 41 10 be 33 cc be bd b0 a9 39 3c
       0.060449783 -0.1408746 -0.09316292 0.011331961
000150 a1 7b f5 3c 34 b0 e2 3d 54 e8 69 bc cb f5 e3 3d
       0.029966177 0.11068764 -0.014276583 0.11130866
000160 4d f6 ff 3d f0 a3 7d 3d f9 fc 1a bd 77 19 8e bd
       0.1249815 0.06192392 -0.03783891 -0.06938451
000170 3d b8 a4 3c 47 86 b9 3c a2 ba bf bd 00 fe ea 3d
       0.020107383 0.022647036 -0.09361769 0.11474228
000180 0e 5e 91 3d 08 2a 0a 3e aa 76 b8 3c b8 c0 b3 3d
       0.07098018 0.13492596 0.022517521 0.087769926
000190 7a fc da 3d 42 70 db 3d 1e 54 39 3c 1a 55 de 3a
       0.10692687 0.10714771 0.011311559 0.0016962618
0001a0 c0 5c d9 bd b9 90 48 3d 7e ff 23 bd 1c a6 35 bd
       -0.10613394 0.048966143 -0.04003858 -0.044347867
0001b0 99 d2 e4 3d 53 c9 75 3c bd 7f 81 3d 32 92 24 3d
       0.11172981 0.015001613 0.06323192 0.040178485
0001c0 d5 26 09 bd 59 25 ae 3d be 60 ed 3d c9 74 d3 bd
       -0.0334843 0.08503217 0.11590718 -0.103250094
0001d0 42 d4 f8 bd aa d6 11 3d 27 b8 d4 3c 72 fc e0 bc
       -0.1214986 0.03560511 0.025966717 -0.027464125
0001e0 ff 9a df 3b c6 e9 23 bd bd 14 97 3d 3c 3a 42 3c
       0.006823897 -0.040017866 0.073770024 0.0118547045
0001f0 b9 79 9e bd 7c f2 17 3e 8e a9 82 bd 51 03 22 bd
       -0.077380605 0.14838594 -0.06379996 -0.039553944
000200 bc 5c be bc 0a 76 b0 bd 92 df d3 3d 06 f2 7c 3d
       -0.023237579 -0.08616264 0.10345377 0.06175425
000210 52 d9 13 3d 7d de ae bb 40 5f e9 ba 22 48 df 3d
       0.036095925 -0.0053365813 -0.0017804876 0.1090243
000220 04 da c0 3c 4e 08 81 3d b1 4f 17 3e 7e 12 d4 3d
       0.023541458 0.06300412 0.14776494 0.103550896
000230 48 8f b3 3d 9f 19 a3 3d ae df be 3d 9c d7 a3 bc
       0.08767563 0.07963871 0.09320007 -0.020000271
000240 1f ff 1a be 4d 19 d0 3b 6a 52 c5 bd ba fd 9f bd
       -0.15136383 0.0063506723 -0.0963486 -0.078120664
000250 d8 bc 9b bd 27 47 4d bd bd 31 b1 3d b0 14 02 3e
       -0.076043785 -0.050116684 0.08652065 0.12703204
000260 83 4f 92 3d 5e 1e 15 be e0 3d b4 3d b3 ed 4a 3d
       0.07144072 -0.14562365 0.08800864 0.049543094
000270 11 cc 6f 3d 37 f3 ff bd 2a 36 92 bd 93 66 90 3d
       0.058544222 -0.124975614 -0.07139237 0.070508145
000280 51 f7 1a bd 27 a0 87 bd af 80 c9 bd 74 b3 0b 3d
       -0.037833516 -0.066223435 -0.098389976 0.034106687
000290 a5 67 15 bd 08 e0 81 bd 8e bb 75 bd 9b 96 b0 3d
       -0.036475796 -0.06341559 -0.05999332 0.08622476
0002a0 24 c6 9d 3d 47 49 22 bc 0f 6b 9b bd c6 fb 5f bd
       0.07703808 -0.009905166 -0.07588779 -0.05468347
0002b0 0b eb ce bd 03 48 01 3e 24 d6 82 3d 19 a8 b5 3d
       -0.10103425 0.12625127 0.063885 0.08869953
0002c0 5b f7 13 3e 16 59 e2 3d bc b8 b3 3d 63 e2 68 3d
       0.14449827 0.11052148 0.0877547 0.056856524
0002d0 9e 90 02 3e 48 25 51 bd 54 38 f4 3d e1 8a aa 3d
       0.1275048 -0.051060945 0.11924806 0.0832727
0002e0 98 dd 88 3d ef aa 91 bd cb 19 4c bd 49 80 ef bd
       0.06682891 -0.07112681 -0.049829286 -0.1169439
0002f0 bb d3 92 bd 5a 1a ce 3d 9a d3 84 3d a5 03 81 bd
       -0.07169291 0.1006362 0.06485672 -0.06299523
000300 12 60 28 3e 83 e2 65 bd 41 88 79 3d a5 15 fd bd
       0.16442898 -0.05612422 0.060920957 -0.12357644
000310 ec 91 7e bd 68 39 c7 bd 81 97 7e 3d 95 bc db bd
       -0.06215088 -0.09727746 0.062156204 -0.107293285
000320 c6 0b f1 bd dd 66 2f 3e 34 9e 78 bc 97 16 04 be
       -0.11769824 0.17129083 -0.015174437 -0.12899242
000330 0a a8 01 3c 23 1f 67 3e f7 15 58 3d a9 02 55 bd
       0.007913599 0.22570471 0.052755322 -0.05200449
000340 47 57 8e 3d 95 03 78 3d f4 9c 23 3d 55 f7 88 bd
       0.069502406 0.06055029 0.039944604 -0.066878
000350 a7 8d 29 be c9 1d af bd 6b d8 18 3d a2 2a 5a 3e
       -0.16557942 -0.08550603 0.037315767 0.21305326
000360 e6 46 24 bd 87 cd a9 bc 63 1f 87 3d a9 6f cf 3d
       -0.040106677 -0.020727886 0.065977834 0.10128719
000370 8a ac bf 3d d0 0d 66 bd 46 08 8c bc 5c dc b4 3d
       0.09359081 -0.056165516 -0.017093789 0.08831093
000380 82 d9 a0 bd be 26 0c 3e e9 75 cc 3d 10 53 77 3c
       -0.07853986 0.13686654 0.09983427 0.015095487
000390 82 6b 2d 3e 05 56 f4 3c 9b bb 26 3e a0 f4 54 3d
       0.16935542 0.029826174 0.16282503 0.051991105
0003a0 96 68 36 be 23 28 b3 3d 51 c5 4e 3d eb 37 cf bd
       -0.17813334 0.0874789 0.050481144 -0.101180874
0003b0 63 7a d4 3d e4 f6 93 3c ee 6b f4 bd 06 a3 36 bc
       0.10374906 0.018062063 -0.119346485 -0.011147266
0003c0 9b cc 98 bb 99 8d d5 bc 16 7e a5 bd 9e a1 89 be
       -0.0046630627 -0.026068496 -0.080806896 -0.26881117
0003d0 1c 58 7f bd 0a 92 0c be 32 28 c4 bd 6a 75 7a 3d
       -0.062339887 -0.13727584 -0.09577979 0.06114713
0003e0 96 da e1 bd 7a f0 9e bd 05 70 b8 bd 76 06 29 3e
       -0.1102802 -0.07760711 -0.09005741 0.16506371
0003f0 f1 d2 90 3e bd e8 b2 3d d0 40 5c 3d ee 04 c3 bc
       0.28285936 0.087357976 0.053772748 -0.023806062

transformer.encoder.layers.0.linear1.bias f4 [256]
000000 82 d9 03 bc 83 15 c7 bd a9 e8 74 bd 30 35 b4 bd
       -0.008047463 -0.097209 -0.059792195 -0.08799207
000010 94 a9 89 3d df 8d 1f be 45 17 78 3d 7b b7 32 bd
       0.067217976 -0.15581463 0.060569067 -0.04363201
000020 8a 88 bc 3d b0 7f fa bd b4 a0 60 3d 50 e5 ad bd
       0.0920573 -0.12231386 0.05484076 -0.084910035
000030 00 ce d0 3d f2 b7 c6 bd 13 f0 a0 3d 89 52 50 bd
       0.101955414 -0.097030535 0.078582905 -0.05085996
000040 53 89 03 3d ce ea 4c bd da 57 db bd 02 5a c5 bd
       0.032113384 -0.050028615 -0.10710116 -0.09636308
000050 65 4c c0 3d fe f8 e1 bd 4b 99 a8 3d a2 c3 16 3d
       0.09389571 -0.110338196 0.08232363 0.036807664
000060 34 8c 09 ba 14 0b 0e be 89 03 ba bb 38 11 a5 bd
       -0.0005247027 -0.13871413 -0.005676691 -0.08059925
000070 1d 66 4f bb 74 59 be 3d 9e 23 29 bd e9 94 b5 bb
       -0.0031646558 0.092944056 -0.041293733 -0.005541433
000080 0f d3 a9 bd ab f8 dd bd a9 de 7f 3d 7a 0b 54 3c
       -0.08292209 -0.10838445 0.062468205 0.012942189
000090 4e 8e 24 3a 25 94 00 be 15 db 29 bd 38 16 33 bd
       0.00062773086 -0.12556513 -0.0414687 -0.04372236
0000a0 04 98 5f bd 9f b4 f2 bd 19 0e 8d bd 0c 31 a9 bc
       -0.054588333 -0.11850857 -0.068874545 -0.02065327
0000b0 7a d0 16 bc 93 71 d0 3c f0 a1 af 3d a6 e9 ca 3c
       -0.009204978 0.025444781 0.08575809 0.024769615
0000c0 22 e6 18 be 37 42 98 bd 7e 07 24 bc 1f 49 a4 bc
       -0.14931539 -0.074345045 -0.010011552 -0.020054398
0000d0 49 97 8f 3a c3 72 f2 bd 25 d9 46 3d ed e7 04 be
       0.0010955121 -0.11838295 0.04854693 -0.12979098
0000e0 1f 68 f8 3d c5 96 10 be ef 30 9d bb f0 18 6c 3d
       0.121292345 -0.14120014 -0.004797093 0.05764097
0000f0 f1 49 e2 3c 8e 6b 9c 3b 0a 1a d3 3d 17 93 8e 3d
       0.027623149 0.0047735637 0.10307701 0.06961649
000100 1d 4a c2 bc 55 2f b0 bd 1b cf 43 3c f1 a5 bd bc
       -0.02371698 -0.08602778 0.011951233 -0.023150416
000110 41 98 8e bd 41 39 57 bd b8 4a eb bd 28 c9 97 3d
       -0.06962634 -0.052544836 -0.11488861 0.074114144
000120 5d 9b 9e bd 4c 32 01 3c f5 4b d0 3d 68 2b 4c 3d
       -0.07744477 0.007885527 0.10170738 0.049846083
000130 5b b3 7d ba e6 9d 64 bc 96 59 f2 bd 1b 0b 18 bd
       -0.000967791 -0.013953662 -0.118334934 -0.037119966
000140 9f 0a 87 bd f7 44 cd 3c 11 00 d1 bd 26 eb d4 bd
       -0.06593823 0.025057299 -0.10205091 -0.103964135
000150 f3 e4 f6 3b c7 a1 ca bc f7 9b 2e bb f1 79 e7 bd
       0.007534617 -0.024735345 -0.0026643255 -0.11302555
000160 3b 90 ec bd 68 30 ad bd 95 47 b6 3d 6e 0b 5f 3d
       -0.11550947 -0.084564984 0.08900372 0.05445426
000170 17 e8 4d bd 02 88 40 be 47 1a 47 bd a8 6a 28 3d
       -0.050270166 -0.18801883 -0.048609044 0.04111734
000180 49 cc 37 3d a4 85 b8 bd a7 64 3e 3c 36 8c 7c 3c
       0.044872556 -0.09009865 0.011620677 0.015414288
000190 84 86 0a be a6 5f c1 3d cf 7c ad bd fb fe 01 be
       -0.13527876 0.094420716 -0.08471071 -0.12694924
0001a0 ab 07 20 bd 1e 2a de 3c 0c 35 8e 3b 5d b4 d6 bc
       -0.039069813 0.027119692 0.00433982 -0.02620905
0001b0 df e0 11 be c6 8e 7e 3b 53 f9 d0 39 5a 1a 9a bc
       -0.14245938 0.0038842424 0.00039858613 -0.018811394
0001c0 24 83 4d 3c 7f fb fc 3c 80 10 d4 3d ad 6a 18 be
       0.012543473 0.030881641 0.103547096 -0.14884444
0001d0 b5 8a 9d 3d a7 0b d4 bb c0 d5 e8 bd 42 b5 1c be
       0.07692472 -0.0064711156 -0.113688946 -0.1530352
0001e0 64 de bf 3d 0c 22 a5 3d 23 24 db bc 1a a0 3b 3b
       0.093685895 0.080631346 -0.02675063 0.0028629364
0001f0 e3 ec 4c bc 36 78 6e bc 52 8e b0 bd 60 06 f2 3c
       -0.01250765 -0.014555028 -0.086208954 0.029544055
000200 2f 63 bb 3d 3d 9f b4 bd c7 a3 82 3b 6f 19 b4 3c
       0.09149777 -0.08819435 0.003986809 0.021984784
000210 c4 38 3b bd c3 01 47 3d e4 1a 17 3d 95 20 d1 39
       -0.045708433 0.048585664 0.03689088 0.00039887862
000220 3a 71 2f be e8 db 9d 3d 63 1d d4 3d e3 e4 62 3c
       -0.17133036 0.077079594 0.103571676 0.013848516
000230 63 79 bb bc 36 c2 72 bb e9 a0 94 bb 4c a8 b0 3d
       -0.02288503 -0.0037042028 -0.0045357835 0.0862585
000240 97 15 3a 3d 68 18 be bd b6 c8 06 3d e6 24 92 bd
       0.045430746 -0.09281999 0.032906257 -0.07135944
000250 ae 0e ae 3d 2d 29 92 bd 2d ec b9 3c e7 d3 39 3d
       0.08498894 -0.0713676 0.022695625 0.0453681
000260 8c 49 c0 ba b1 85 20 3d 93 1c 26 3d 27 24 ed 3d
       -0.0014670356 0.039189998 0.040554594 0.11579161
000270 53 96 b5 3d 94 64 8d bd 76 4f e2 3d 8a a8 7c 3d
       0.08866563 -0.069039494 0.11050312 0.06168417
000280 1f 4a 80 3d d1 06 e7 bb 63 64 0a be bc a6 ff bd
       0.062641375 -0.007050373 -0.13514857 -0.12482974
000290 cf 50 06 be 8f 46 ee bd 07 00 01 be ec ac 49 3c
       -0.13116764 -0.11634552 -0.12597667 0.012309294
0002a0 7a d8 94 3d c3 73 54 bd 81 42 0a 3c 1e 15 24 3d
       0.07267852 -0.05186821 0.008438707 0.0400592
0002b0 92 6d 8a 3c 4e ea 22 bd 70 18 3e 3d f9 9b 8a 3c
       0.01689795 -0.03977423 0.046410024 0.016920077
0002c0 35 0d 75 bc 92 c9 8f 3b 85 10 19 be 56 d5 14 be
       -0.014956762 0.0043880427 -0.14947708 -0.14534506
0002d0 46 25 a2 3c 5f 6f 0b be d8 fc 80 3c 42 32 c5 3b
       0.019793164 -0.13616703 0.015745565 0.006017954
0002e0 5d 3e 05 be 45 50 10 3d e8 60 d4 bd 0f a4 f3 bd
       -0.13012071 0.0352328 -0.10370046 -0.11896526
0002f0 58 92 54 3d 34 e3 55 3d da 31 43 bd 79 a5 a7 bd
       0.051897377 0.05221863 -0.047654964 -0.08185858
000300 62 35 2c bd b5 4d c7 bd ac 31 cd bd 1a b1 49 bd
       -0.042043097 -0.09731618 -0.1001924 -0.049241163
000310 62 35 9c bd 7c ed cc bd 36 9c 0e 3d 30 76 4e 3d
       -0.076273695 -0.10006234 0.034816943 0.05040568
000320 8c cb 6f bc 8a d2 a8 3d ac da aa bd 02 99 3c 3d
       -0.014635932 0.08243282 -0.083424896 0.046044357
000330 1f 36 da bd 1c 09 2f be af 77 87 bb ac 3a 2e 3d
       -0.10654854 -0.17093319 -0.0041341404 0.042536423
000340 73 49 c7 bc 29 21 1b 3d c5 4b b4 bc 8d 11 52 3c
       -0.024327016 0.03787342 -0.022008786 0.012821567
000350 01 b3 1b bd df 11 16 be af 7b 37 be b0 2d 36 bd
       -0.03801251 -0.14655255 -0.17918275 -0.044477165
000360 dc dc 9d bc 21 58 13 be 51 0a a3 3c c9 4f 12 bd
       -0.019270353 -0.14389087 0.01990238 -0.03572062
000370 50 46 90 bd 38 ea 9a 3d 34 50 13 bd ed 28 1d be
       -0.07044661 0.07564205 -0.03596516 -0.15347643
000380 50 f6 a7 3c 8b ca 46 be fd 1e 82 3d 27 fd 8f bd
       0.020503193 -0.19413202 0.06353567 -0.07030707
000390 26 c4 84 3d 3d 2b 8b bc 3c ef 2c bd 7d 1a 9c 3d
       0.06482725 -0.016988391 -0.04222034 0.0762224
0003a0 72 ef df bd 6d de a3 bd 15 7c 15 be 83 21 61 bd
       -0.109343424 -0.08001409 -0.14598115 -0.0549636
0003b0 9d 2e b1 3d 65 5b 4c bd 5f 84 5b 3d 18 b0 00 bd
       0.08651469 -0.049891848 0.053593036 -0.031417936
0003c0 23 c6 8f bd 2d 4c 70 bd d4 6f 84 3d be ba ea bd
       -0.070202135 -0.058666397 0.06466642 -0.114613995
0003d0 a7 8f 84 3d 6c 2c 00 bd fa 7f 82 bd 71 d9 04 3e
       0.06472712 -0.031292364 -0.06372066 0.12973572
0003e0 d2 32 34 3d 83 73 33 be 04 a3 13 bd 17 e5 a8 bc
       0.04399378 -0.17524533 -0.036044136 -0.020617051
0003f0 11 da 7d 3d 3c 76 0f be 51 a6 56 3d f3 08 18 3d
       0.061975542 -0.14009947 0.052404705 0.03711791

transformer.encoder.layers.0.linear2.weight f4 [64, 256]
000000 5f b6 d7 3d e1 bb 86 bb 75 9a 37 3d 5a fe 8a bd
       0.105328314 -0.0041117524 0.044825036 -0.06786795
000010 e4 1a 73 3d 13 d3 ec bd c3 6d b5 3d 84 c5 ef bd
       0.059351817 -0.11563697 0.08858826 -0.11707595
000020 f7 1e 53 bd 23 4b f2 bd 9a 49 59 3d 23 7d 7c 3c
       -0.051543202 -0.118307374 0.053048708 0.015410694
000030 3b c7 d1 bd c4 27 b1 3c 5a 71 a0 3d df 03 9f 3d
       -0.10243078 0.021625407 0.0783412 0.0776441
000040 ac f2 73 bd 87 c5 0f bc 72 ed 9a 3d 19 6f f5 bd
       -0.0595576 -0.0087751215 0.0756482 -0.11984081
000050 51 6c e9 3d 4c 0b c1 bd a1 1c c9 3c b1 d0 5d bd
       0.11397613 -0.09425983 0.024549784 -0.0541541
000060 a5 54 3d 3c 95 f2 9e bd 6d db 5c 3c 6c d6 7c 3d
       0.011555825 -0.077611126 0.01348005 0.061727926
000070 77 74 81 be b6 60 46 bd 07 d0 e7 bd 8e 14 38 bd
       -0.25284168 -0.048432074 -0.11318975 -0.044941477
000080 6d 8d 7d bd 61 74 8e 3c 4f 27 dc 3d 77 ec cf 3d
       -0.061902452 0.017389478 0.10749685 0.10152524
000090 d9 7e 92 3d 93 d1 a9 3c 87 9b 84 bd 0a 05 d6 3d
       0.071531005 0.020729816 -0.06474977 0.1045018
0000a0 f3 52 2c be 41 29 68 3c 14 7f 95 bd 05 d6 f0 bd
       -0.16828518 0.014169992 -0.07299629 -0.11759571
0000b0 89 d7 0d 3e fd 18 b5 bb c7 0b e2 3d 74 3e 6d bd
       0.13851751 -0.0055266605 0.110374026 -0.057920888
0000c0 0a e5 f2 3d f1 ef 87 3c c5 b9 8f bc e2 63 16 3e
       0.11860092 0.016593905 -0.017544637 0.1468654
0000d0 eb 9e a0 3d 0f 57 03 3d bb 7a 5f 3d 4f 64 bd bd
       0.07842811 0.032065447 0.054560404 -0.09247648
0000e0 4d 48 e1 bd e6 84 16 3d 76 2a cf 3d 3f 8f e6 3d
       -0.110001184 0.036747836 0.10115521 0.11257791
0000f0 f6 5b f6 bd 36 63 ba 3d b2 61 fb bd 34 85 4b 3d
       -0.12029259 0.09100954 -0.12274493 0.04968758
000100 c0 70 4a 3d 2b 17 11 3d 02 6d a1 3d 08 c7 81 be
       0.049423933 0.035422485 0.0788212 -0.2534716
000110 46 bf ba bd aa 65 2d 3d c3 75 af bd 4d d3 a0 bc
       -0.09118514 0.042333283 -0.08567383 -0.019632006
000120 d3 63 b0 bd 7e f5 ca 3d b4 6a 82 3d 28 0d 19 bd
       -0.0861279 0.09910105 0.06368008 -0.037366062
000130 4a 34 3c 3c e9 6c ce bd a4 2f 01 3e cf 14 d5 bd
       0.011487076 -0.10079367 0.1261583 -0.104043595
000140 5b ac c9 bd ee a7 ff bd e9 6a e8 3d a0 99 e6 bd
       -0.09847327 -0.12483202 0.113485165 -0.112597704
000150 5a 6f b3 3c 1f 98 ca 3d 90 14 d4 bd eb 3e c0 3d
       0.021903683 0.09892296 -0.103554845 0.09387001
000160 09 ce 73 bd e8 85 a6 3d 3f 13 e1 3d ae 7e fe 3d
       -0.059522662 0.08131009 0.10989999 0.12426506
000170 18 8c c0 3d 34 5c 8b bd dc d4 b8 3d 51 51 8f bd
       0.09401721 -0.06804696 0.09024975 -0.06997932
000180 fc 5f ce 3d eb 85 87 bd e2 a4 c3 3d df 09 98 bd
       0.10076901 -0.0661734 0.09552933 -0.07423758
000190 cd 5c 95 bd 55 5d 27 bd 5f 2e 33 bc e3 85 c0 bd
       -0.07293091 -0.040860493 -0.010936349 -0.09400537
0001a0 e6 2c e1 3d b6 ca a1 3c 54 94 1a 3e d2 82 cf bd
       0.10994892 0.01974998 0.15095645 -0.10132374
0001b0 e5 ac ed 3d a2 c1 01 3e a2 11 23 3d 74 aa 30 3d
       0.11605243 0.12671521 0.039811738 0.043131307
0001c0 52 0a 33 be 29 ab b9 bd b6 16 4d 3d 1d 79 dc bd
       -0.17484406 -0.09065849 0.050070487 -0.10765288
0001d0 c1 b2 84 3c 37 b6 84 3d a9 fa 45 bd f1 ef 50 bd
       0.016198518 0.06480067 -0.04833475 -0.051010076
0001e0 ca 4b b2 3d ed d0 9c be 4a c1 d2 3d 6b 1f d2 3d
       0.08705862 -0.30628148 0.10290773 0.10259899
0001f0 62 2c 75 3d 61 a0 08 bd 07 6c a6 3c 5d 18 75 bd
       0.05985678 -0.033356074 0.020315183 -0.059837688
000200 af ec 5b 3d eb 70 2c be f6 8c dc bd 83 f4 65 bd
       0.053692516 -0.1683995 -0.10769074 -0.056141388
000210 ef f5 b7 3d 07 a4 8c be 02 ed 6e bd b4 39 37 bd
       0.08982455 -0.27468893 -0.058331497 -0.044732764
000220 fc 13 56 3d 03 62 4b 3d 3d 60 7a bd b7 72 11 bc
       0.052265152 0.049654018 -0.061126936 -0.008877448
000230 22 4c 8b 3d cb 7b d7 3d 87 8d 28 3d 6f 8e 4b be
       0.068016306 0.105216585 0.041150596 -0.19878553
000240 24 5e e2 bc 44 38 f2 3d 60 db c2 bd e3 6e a8 3d
       -0.02763278 0.11827138 -0.09514499 0.08224275
000250 22 33 c4 bd 20 18 74 bd f8 a1 99 3d c0 0c a4 bd
       -0.09580065 -0.05959332 0.07501596 -0.08010244
000260 ec 6d a3 bc 38 c5 36 bd 4a 28 35 bd a1 f7 63 3d
       -0.019949876 -0.044621676 -0.044227876 0.05565608
000270 33 8e e8 3d 11 de d8 bd c2 23 1e be c4 f5 1d bb
       0.11355247 -0.10589231 -0.15443328 -0.0024102787
000280 d1 c5 20 3d 29 6c 23 3d bd e9 1e be d6 a7 18 3d
       0.039251152 0.03989807 -0.15518852 0.037269436
000290 f0 4b db 3d 4a 07 23 3c e7 a4 46 3d 86 31 8a 3d
       0.10707843 0.009950468 0.048497107 0.06747727
0002a0 f6 5c 71 bd fd 56 f3 3c 49 36 d6 3d 7b 3f 29 bd
       -0.058926545 0.029704565 0.10459573 -0.041320305
0002b0 21 eb 59 bd cb 3e b2 3c 2c e0 2b be d6 37 13 3d
       -0.053202752 0.021758458 -0.16784734 0.03594192
0002c0 bd 29 13 3d 57 79 77 3d 44 8d cb 3d 4a 9f 1f 3d
       0.035928477 0.060418453 0.09939054 0.03897027
0002d0 18 d4 da bb 88 79 bb 3c e0 da d9 bd 6f 34 00 3e
       -0.0066781156 0.022885099 -0.1063745 0.12520002
0002e0 5b d7 9c 3d 53 7a 8a 3c 8e c1 45 3d dd 10 58 bd
       0.07658263 0.016904032 0.04828029 -0.052750457
0002f0 13 79 b1 bd be 65 e1 3d 4d 5f fc 3d 2e 2d fa 3d
       -0.08665671 0.11005734 0.12322865 0.122156486
000300 07 60 2b 3c b3 80 86 ba 29 61 67 3d 92 4e 2b be
       0.010459906 -0.0010261744 0.056489144 -0.16729191
000310 89 6f bc 3d cb df 93 bc 43 9d a0 3d c5 81 44 3d
       0.09200961 -0.018051049 0.07842495 0.04797532
000320 d8 0d 09 bd 21 21 f1 3c 4a 1e 9f bd 73 75 14 3d
       -0.033460468 0.029434742 -0.07769449 0.03624482
000330 a9 fe 7a bd 51 10 f7 bd d5 60 5f 3d 47 4f ca 3a
       -0.06127802 -0.12063659 0.054535706 0.0015435003
000340 c5 cd 64 bd 28 e0 ad 3a ba a6 5a bd 8a 19 86 bc
       -0.0558603 0.0013265656 -0.05338166 -0.0163696
000350 be 76 58 bc 1d 30 fc 3d d1 f0 c4 bd 46 1a fb bd
       -0.013211904 0.123138644 -0.096162446 -0.12260871
000360 b6 a4 d1 bd e3 eb e0 3c 72 79 ce 3c a4 d5 13 bd
       -0.10236494 0.02745623 0.025204394 -0.036092415
000370 75 1b 27 bd 24 af ea 3d 95 a1 09 3c d2 17 aa bd
       -0.04079767 0.11459187 0.008400341 -0.083053246
000380 a4 e8 e2 3d 71 6f 09 bd da 61 08 bd d8 de 93 3d
       0.11079529 -0.033553544 -0.033296444 0.072202384
000390 a4 38 aa bd e2 d8 90 3b b5 2b 0a be 4f 69 9d bd
       -0.083115846 0.0044203857 -0.13493235 -0.07686102
0003a0 c0 e0 09 be 74 1c 30 bd 52 cb 26 3c d4 64 70 3d
       -0.13464642 -0.042995885 0.010180311 0.058689907
0003b0 56 c0 00 be a4 b6 89 bd 25 80 58 3d e0 f6 66 3d
       -0.1257337 -0.06724289 0.052856583 0.056387782
0003c0 32 db 59 bc 6f 82 db 3d 1d 9a 53 bd e3 ef 08 3e
       -0.013296889 0.107182376 -0.051660646 0.1337276
0003d0 5d c3 03 3e 3a 27 f5 3d b0 67 11 3c 23 ab 31 bc
       0.12867494 0.119703725 0.008874819 -0.010844025
0003e0 fb 21 71 bd 27 4b 77 3d fe ee 9a 3d e8 cd 63 3c
       -0.058870297 0.060374405 0.075651154 0.013904072
0003f0 6b 19 0a bd 42 1f 3d bc 25 0a 7b be 64 5d 86 3d
       -0.033715647 -0.011543097 -0.24515589 0.065607816

transformer.encoder.layers.0.linear2.bias f4 [64]
000000 ec 27 10 3d aa 0f 31 3b 92 0b 3b bd a4 37 fe 3c
       0.035194322 0.0027017393 -0.04566533 0.03103239
000010 fe 4b 3e 3c 3c 2e f8 bc dc 6f 8f 3d f9 12 cf 3c
       0.011614798 -0.030295484 0.07003757 0.025277602
000020 c5 44 07 bc 02 53 30 bc e2 ec 2b 3b 5b 26 a3 bc
       -0.008256142 -0.010761978 0.0026233722 -0.01991575
000030 51 a2 93 bd 26 5f 75 3c bc 44 78 bd f3 a6 02 bc
       -0.07208694 0.014976298 -0.060612425 -0.007974374
000040 74 90 c7 bc 41 72 14 bd 49 1c 9c 3c a2 5d 7e bd
       -0.024360873 -0.036241774 0.019056456 -0.062101014
000050 99 a9 f3 bc 8d 62 d0 bb 81 b9 fb 3c 00 9f 58 3c
       -0.029743956 -0.0063594044 0.030728104 0.013221502
000060 4a c1 36 be 57 9e 67 bc 4f 3b f8 bc 04 44 58 bd
       -0.17847171 -0.014136872 -0.030301718 -0.05279924
000070 22 5e dd 3b 5b 89 6e bc 16 93 db 3c 98 56 2c 3d
       0.0067556063 -0.014559115 0.026803534 0.04207477
000080 a9 6b f7 3c 15 0d 4c bd 21 25 38 bd bc 11 87 bc
       0.030202704 -0.049817163 -0.044957284 -0.016487949
000090 38 ca 1e 3d 64 50 03 3c 24 7e c7 3a e7 03 70 bc
       0.03876707 0.008014772 0.0015220088 -0.014649368
0000a0 ed cf 6b 3d 8a bd ea b8 c8 05 b5 bb 25 6c b2 bc
       0.05757134 -0.00011193294 -0.005524371 -0.021780083
0000b0 2f 03 47 3c d7 2f 0f bd d4 87 60 3b 08 87 a2 bc
       0.012146755 -0.034957733 0.0034260647 -0.019839779
0000c0 ed 65 ab bd b2 da a5 3d df f3 00 3d 6e 56 10 3d
       -0.0836905 0.080983534 0.031482574 0.035238676
0000d0 e6 a4 33 3c e6 54 1d 3c 92 eb 84 3d af 2c dd 3c
       0.010964608 0.009602761 0.06490244 0.026998846
0000e0 9c 57 8f 3d d6 18 8f bc 42 60 49 3d f3 bb 08 bd
       0.06999132 -0.017467897 0.049164064 -0.033382367
0000f0 a0 bb d2 3c 35 68 40 3c b3 a5 eb bc 3b de 33 bb
       0.025724232 0.011743595 -0.028765535 -0.0027445692

transformer.encoder.layers.0.norm1.weight f4 [64]
000000 c1 83 7c 3f c2 c3 7c 3f 34 60 88 3f fb 05 63 3f
       0.9863854 0.987362 1.0654359 0.88681
000010 a8 6f 73 3f 61 7f 81 3f 6b 3e 91 3f c8 43 74 3f
       0.9509225 1.0116998 1.1347173 0.95415926
000020 f4 00 39 3f 44 b2 7c 3f 64 ea 6e 3f 25 2a 75 3f
       0.7226708 0.9870951 0.933264 0.9576743
000030 6f 17 80 3f 3f 99 85 3f d6 2c 5f 3f 87 84 78 3f
       1.0007151 1.0437392 0.8717779 0.9707722
000040 42 ab 7a 3f ab ec 8c 3f 69 5a 79 3f 9d 8b 78 3f
       0.9791757 1.1009725 0.9740358 0.9708803
000050 71 07 91 3f 29 35 44 3f 9f a2 74 3f b2 8b 8e 3f
       1.1330396 0.76643616 0.9556064 1.1136382
000060 74 df 8b 3f 12 4d 47 3f ad b9 78 3f 55 d0 78 3f
       1.0927567 0.77851975 0.9715832 0.9719289
000070 60 d9 83 3f b3 1b 64 3f 89 3d 76 3f 4f 0f 74 3f
       1.0300713 0.89104766 0.96187645 0.9533586
000080 b8 88 5e 3f 3b a6 7f 3f 2f f7 59 3f ac 24 67 3f
       0.86927366 0.9986302 0.851428 0.9029033
000090 71 40 75 3f f3 74 7f 3f 93 7f 83 3f 82 3b 64 3f
       0.95801455 0.99787825 1.0273308 0.891533
0000a0 50 99 84 3f 6b e8 82 3f ab bb 76 3f a6 b1 73 3f
       1.0359287 1.0227178 0.9638011 0.95192945
0000b0 69 5a 7b 3f 99 77 83 3f d8 cd 8a 3f 2c 7e 53 3f
       0.9818483 1.0270873 1.0844069 0.826144
0000c0 66 92 84 3f d6 25 54 3f 2c 0c 85 3f 54 e7 8c 3f
       1.0357177 0.82870233 1.039434 1.1008096
0000d0 44 c7 59 3f f4 77 84 3f 29 b2 6f 3f ef 11 94 3f
       0.8506968 1.0349107 0.93631226 1.1567973
0000e0 c4 42 5e 3f eb b3 57 3f 2c 67 80 3f 43 cf 85 3f
       0.86820626 0.8425891 1.0031486 1.0453876
0000f0 7d ab 83 3f e7 85 82 3f c0 6d 7e 3f f6 5c 64 3f
       1.0286709 1.0197114 0.99386215 0.8920435
