pythiatransformer/transformer_model_eos_2.pt (torch, 980746 bytes, 68 tensors)

input_projection.weight f4 [64, 35]
0	0xbea97a98	-0.33101344
1	0x3e108520	0.14113283
2	0x3e0c571e	0.13705108
3	0x3dbd146e	0.09232412
4	0x3d80e783	0.06294157
5	0xbf3b37d5	-0.7313207
6	0xbee151fc	-0.44007862
7	0xbed30954	-0.41218054
8	0xbeb1358a	-0.3461116
9	0x3dff6b33	0.124716185
10	0xbe0976e7	-0.13424264
11	0xbe07164f	-0.13192104
12	0xbcec5410	-0.028848678
13	0xbdbdd67d	-0.09269426
14	0xbe207b11	-0.15671946
15	0x3d1428ae	0.036171608
16	0xbd1546a9	-0.03644434
17	0x3e2243a8	0.15846121
18	0x3daa6bf3	0.08321371
19	0xbec4c8fc	-0.3843459
20	0x3e4bb357	0.19892631
21	0xbea68be6	-0.3252861
22	0xbe3b543f	-0.18293856
23	0x3d3b1b58	0.045680374
24	0x3ddaaf15	0.106779255
25	0x3c9296cb	0.01789417
26	0x3d430662	0.04761351
27	0x3c8aa680	0.016925097
28	0x3e65a594	0.22426444
29	0xbe1a3070	-0.1505754
30	0xbe140f66	-0.14458999
31	0x3e1eaa74	0.1549471
32	0x3cb11e82	0.021620993
33	0x3d159474	0.03651853
34	0x3dc794dd	0.0974519
35	0xbe128b41	-0.14310934
36	0x3edf2a22	0.43586832
37	0xbe95ee27	-0.29283258
38	0x3e412204	0.18860632
39	0xbf3552c9	-0.70829445
40	0xbeae3e94	-0.34032118
41	0xbf5c8828	-0.8614526
42	0xbe72bc13	-0.23704557
43	0xbf35187c	-0.70740485
44	0x3de680c8	0.11255032
45	0xbc7cd9c4	-0.015432779
46	0x3d3eb645	0.046560545
47	0xbe0b63b0	-0.13612247
48	0x3d0d8d32	0.034558482
49	0xbd7e1429	-0.062030945
50	0x3ded48a0	0.11586118
51	0x3ca0186e	0.019542899
52	0xbe0caef6	-0.13738617
53	0xbe2809a9	-0.16409935
54	0xbe4b07d1	-0.198272
55	0x3ec435d5	0.3832232
56	0x3f449d99	0.76802975
57	0x3eda45ba	0.42631322
58	0xbee92881	-0.45538715
59	0xbdc87884	-0.097886115
60	0x3bb73d21	0.005592004
61	0xbe488639	-0.19582452
62	0x3cf25af6	0.02958439
63	0x3b332d1e	0.0027340124
64	0xbe376dbf	-0.17912959
65	0x3d8514a6	0.06498079
66	0x3d90ddea	0.07073577
67	0x3b0eef0e	0.0021809968
68	0xba3a9b81	-0.0007118509
69	0xbbe97e92	-0.007125684
70	0x3e135167	0.14386521
71	0xbe75478d	-0.23953076
72	0x3e28ae92	0.16472843
73	0x3db7667b	0.089550935
74	0x3e8cd841	0.2750874
75	0x3da3bcfd	0.07995031
76	0x3ea2cfc0	0.31799126
77	0x3d29dd63	0.041470896
78	0xbe68054e	-0.22658274
79	0xbe267a1f	-0.16257523
80	0xbdb2dae3	-0.087331556
81	0x3dedd4d1	0.11612857
82	0x3e00af1d	0.125668
83	0xbdb3f43c	-0.087868184
84	0x3cdb2fd6	0.026756208
85	0x3c8d72a9	0.017266588
86	0x3d0b3fb6	0.033996306
87	0xbd1c50b8	-0.038162917
88	0xbdc446fe	-0.09583853
89	0xbe149a51	-0.14511992
90	0xbee8a7cc	-0.4544052
91	0xbe95f913	-0.2929159
92	0xbe8767e6	-0.26446456
93	0xbecd0bb0	-0.4004798
94	0x3cd4f657	0.02599637
95	0xbb766992	-0.0037599546
96	0x3dea30e0	0.114351034
97	0x3e352938	0.17691505
98	0xbc852d54	-0.016256966
99	0xbd162f61	-0.036666278
100	0xbe30cbfb	-0.17265312
101	0x3d1888c6	0.037239812
102	0x3bcece44	0.00631121
103	0xbc80f928	-0.015743807
104	0xbb67a9fa	-0.0035349117
105	0x3f11428e	0.5674218
106	0xbddf3d01	-0.109003074
107	0x3e41c333	0.18922119
108	0x3e82246e	0.2541842
109	0x3eee63f6	0.4656064
110	0x3eb3cf23	0.3511897
111	0x3f312676	0.6919931
112	0x3e65ba33	0.2243431
113	0x3e2c5004	0.16827399
114	0xbe234fbd	-0.15948386
115	0x3e0990de	0.13434169
116	0xbe4790b5	-0.19488795
117	0x3de4d9f2	0.11174382
118	0xbd85f177	-0.065401964
119	0x3d6e0ab7	0.058115687
120	0x3d14225a	0.036165573
121	0x3e05ba89	0.13059439
122	0x3c99e3e3	0.018785423
123	0xbdf6ca68	-0.12050325
124	0x3eff6385	0.49880615
125	0x3ec9cafa	0.3941267
126	0x3f6d2457	0.92633575
127	0x3e7a48d3	0.24441843
128	0x3e2bb38c	0.1676771
129	0xbd088e8a	-0.03333906
130	0x3c7962e3	0.01522133
131	0xbd6fb523	-0.058522355
132	0x3d5e84db	0.05432592
133	0xbe85b10d	-0.26111642
134	0x3eed2b45	0.46322075
135	0x3e24a0ce	0.16076967
136	0xbe2bbbe0	-0.16770887
137	0x3ba49896	0.0050230725
138	0xbbdfbb3b	-0.0068277395
139	0xbaf1e022	-0.0018453638
140	0xbf071b08	-0.5277562
141	0xbdb5119d	-0.0884125
142	0xbea9da3e	-0.33174318
143	0xbe960b32	-0.29305416
144	0xbd7a13f6	-0.061054192
145	0xbcad180d	-0.021129632
146	0x3ce6a30d	0.02815392
147	0xbe29ba33	-0.16574936
148	0x3e4058a7	0.18783818
149	0x3e07371f	0.13204621
150	0x3d518267	0.051149752
151	0xbe24d832	-0.16098097
152	0xbc1f18a4	-0.009710465
153	0xbd55f601	-0.05223656
154	0xbdcee082	-0.10101415
155	0x3c37f4ef	0.01122783
156	0xbd27a095	-0.040924627
157	0xbd58bf0a	-0.052916564
158	0xbdea50cd	-0.11441193
159	0xbe08d74e	-0.13363382
160	0xbe5ab7e7	-0.21359216
161	0x3ee93692	0.45549446
162	0x3e9f8c1f	0.3116159
163	0x3e128639	0.14309014
164	0xbdfa3c2d	-0.12218509
165	0xbf0675d8	-0.52523565
166	0x3d9a97fb	0.07548519
167	0xbef37fda	-0.4755848
168	0x3dbee6c1	0.093213566
169	0xbe13e615	-0.14443238
170	0xbeb88dcb	-0.3604568
171	0xbdae13f5	-0.084999
172	0x3ba060f7	0.0048943716
173	0xbb8a21ce	-0.0042154556
174	0xbb501184	-0.0031748721
175	0xbe93c29c	-0.28859413
176	0xbea8855c	-0.32914245
177	0xbe3a58cc	-0.18197936
178	0xbdc413a2	-0.09574057
179	0xbed0225a	-0.40651208
180	0xbee5b701	-0.44866183
181	0x3f196aee	0.59928787
182	0x3e226683	0.15859418
183	0x3e8fce55	0.28087106
184	0xbdbbe215	-0.09173981
185	0x3d2d0fa2	0.042251237
186	0xbe281516	-0.16414294
187	0x3bf3e530	0.0074430928
188	0xbd1d0d8f	-0.03834301
189	0xbe04bce8	-0.12962687
190	0xbe2e4980	-0.17020226
191	0x3c9ebb03	0.019376284
192	0xbd8b3f86	-0.067992255
193	0x3dc7554c	0.09733066
194	0x3e4cab84	0.19987303
195	0xbdfa66a6	-0.1222661
196	0x3ec7a01c	0.3898934
197	0x3eba9457	0.364413
198	0xbf02302d	-0.5085476
199	0xbda31af9	-0.07964129
200	0x3e186395	0.14881738
201	0x3dbe0166	0.092776105
202	0x3e681591	0.22664477
203	0x3ea44932	0.32087094
204	0x3c07a4a2	0.008278998
205	0x3dc41d32	0.09575881
206	0xbdd86b31	-0.1056732
207	0x3c06e1b0	0.008232519
208	0xbb95bd50	-0.004569687
209	0xb7321397	-1.0614188e-05
210	0x3d6453c4	0.055743948
211	0x3d7607a1	0.06006587
212	0xbe432885	-0.19058426
213	0x3d14da92	0.036341257
214	0x3d901e53	0.07037034
215	0xbe494515	-0.19655259
216	0x3db3b2f5	0.08774368
217	0x3f086f1e	0.5329455
218	0xbeb6cbf0	-0.35702467
219	0xbdc6ecaf	-0.097131126
220	0x3d386096	0.045013987
221	0xbd7d0571	-0.061772767
222	0x3da5cd22	0.080957666
223	0xbdd3d89f	-0.103440516
224	0xbdffe90d	-0.12495623
225	0xbd9e04b7	-0.07715743
226	0xba9da638	-0.0012027686
227	0xbd87f1a4	-0.06637886
228	0xbdbe2f68	-0.09286386
229	0xbdc00d8e	-0.09377585
230	0xbf2893c1	-0.65850455
231	0xbf028db2	-0.5099746
232	0xbe92ae1e	-0.28648466
233	0xb9e5cbef	-0.00043830226
234	0x3c7693a4	0.015049849
235	0x3d5cd777	0.05391642
236	0xbc2497c2	-0.0100459475
237	0xbd00710e	-0.031357817
238	0xbdbb8d9f	-0.091578715
239	0xbd2f5325	-0.042803902
240	0xbe78a5e9	-0.2428204
241	0xbd2d5cf3	-0.04232497
242	0x3bc10fc7	0.0058917734
243	0xbc3bd9a8	-0.0114654675
244	0xbb196411	-0.0023405591
245	0x3e3e289b	0.18570177
246	0x3e653530	0.2238357
247	0x3b26df03	0.0025462515
248	0xbda2c038	-0.07946819
249	0xbc6050ca	-0.013691137
250	0x3f4e010c	0.8047035
251	0x3e0fb9ba	0.14035693
252	0xbf059583	-0.5218126
253	0x3bb43399	0.005499315
254	0x3dc9e00b	0.09857186
255	0xbe1f2d7a	-0.15544692

input_projection.bias f4 [64]
0	0xbd7da5df	-0.061925765
1	0x3c10dd5a	0.008841837
2	0x3da5a996	0.080889866
3	0xbc39ee3d	-0.011348304
4	0xbe496b09	-0.19669737
5	0x3d66bbaa	0.056331314
6	0xbdec3f61	-0.11535526
7	0xbdfd1246	-0.12357001
8	0xbd4c0660	-0.049810767
9	0xbdcf24ea	-0.10114463
10	0x3e6d800f	0.23193382
11	0x3d8dbe45	0.06921057
12	0xbb8028cf	-0.0039111148
13	0x3be4cec4	0.006982656
14	0x3df65cc4	0.120294124
15	0x3db132df	0.08652281
16	0x3d329278	0.043596715
17	0xbd8ea89c	-0.069657534
18	0x3d5429ae	0.05179756
19	0x3e2ae96d	0.16690607
20	0xbe34ebc3	-0.17668061
21	0x3e01823d	0.12647338
22	0x3d882ed5	0.066495575
23	0x3dfb02c3	0.12256386
24	0xbda39125	-0.079866685
25	0x3e0463a5	0.12928636
26	0xbd9ecd0b	-0.077539526
27	0x3cf21ffd	0.029556269
28	0xbde0a28b	-0.109685026
29	0x3dbd4a59	0.09242696
30	0x3dd1be18	0.10241336
31	0x3d683fcd	0.05670147
32	0x3d37c4ab	0.04486529
33	0x3d034f77	0.032058205
34	0x3c3720f3	0.011177289
35	0xbdabe630	-0.08393514
36	0x3d79012a	0.060792126
37	0x3e19e115	0.15027268
38	0xbde66315	-0.11249367
39	0x3b64982e	0.0034880745
40	0xbc492b57	-0.012278399
41	0x3da0c907	0.07850843
42	0x3dac9b37	0.084280424
43	0xbc1be9e4	-0.009516213
44	0x3e5b34d5	0.21406873
45	0x3d5218fd	0.051293362
46	0xbe18b940	-0.14914417
47	0xbe013f89	-0.12621893
48	0xbc1b789b	-0.009489204
49	0xbdbc924a	-0.0920759
50	0xbdb2de94	-0.0873386
51	0xbd8d63c9	-0.06903798
52	0xbd4ff283	-0.050768387
53	0x3b5d6931	0.0033784623
54	0xbe188539	-0.1489457
55	0x3e07cd8c	0.13262004
56	0x3dd2687d	0.10273836
57	0xbde057bb	-0.10954233
58	0xbdb249c2	-0.087054744
59	0xba14cdae	-0.00056764006
60	0x3d734f0a	0.05940155
61	0x3d85b1cf	0.06528055
62	0xbe0cc0b7	-0.1374539
63	0x3e1fb995	0.15598138

output_projection.weight f4 [35, 64]
0	0xbeceb46f	-0.40372035
1	0xbdad60ba	-0.08465715
2	0x3eb53601	0.35392764
3	0x3df76686	0.12080102
4	0xbf076a16	-0.5289625
5	0xbeb5c29a	-0.35500032
6	0x3d2577ea	0.040397562
7	0x3df355d0	0.11881602
8	0xbb5d0df9	-0.0033730252
9	0x3d9f597d	0.077807404
10	0xbdc4b799	-0.09605331
11	0xbd9b0890	-0.075699925
12	0x3d414185	0.047181625
13	0x3dddc4f9	0.10828585
14	0xbdcada60	-0.09904933
15	0xbe08bf88	-0.13354313
16	0x3e2f65f3	0.17128734
17	0xbe08f19c	-0.13373417
18	0x3d9edde4	0.07757166
19	0x3d310097	0.043213453
20	0x3e9eecf6	0.31040162
21	0xbcc6495b	-0.0242049
22	0xbe151a97	-0.14560924
23	0xbe2dcf0f	-0.16973518
24	0x3f0b5ee5	0.5444167
25	0xbe7a870c	-0.24465579
26	0x3e38e646	0.18056592
27	0xbd2b9ed3	-0.041899513
28	0xbd9cae7f	-0.0765047
29	0xbe0dd5da	-0.13851109
30	0x3e0007c2	0.1250296
31	0xbeb1dc45	-0.34738365
32	0x3d0f6c09	0.03501514
33	0x3da0b58b	0.078471266
34	0xbc80c064	-0.015716739
35	0x3e0a4f77	0.13506876
36	0x3da47cd7	0.08031624
37	0xbe5cde29	-0.21569122
38	0xbdcad5e7	-0.0990408
39	0x3ebcd099	0.36877897
40	0xbdac6100	-0.08416939
41	0x3da8b467	0.08237534
42	0x3eb4c0dc	0.3530339
43	0x3e287ae9	0.16453137
44	0xbe8a33d3	-0.26992664
45	0xbd31026f	-0.04321521
46	0xbde1a2c4	-0.11017373
47	0xbe2a291e	-0.16617247
48	0xbe509e6b	-0.20372932
49	0xbe1dd270	-0.15412307
50	0xbee3b937	-0.44477245
51	0xbcb20b53	-0.021733915
52	0xbd01c571	-0.031682435
53	0x3e8d0e87	0.27550146
54	0x3e389091	0.18023898
55	0xbceec0a8	-0.0291446
56	0xbcb6be49	-0.022307532
57	0x3dce207b	0.10064789
58	0xbc1c1ca3	-0.009528312
59	0x3daae8f9	0.08345217
60	0x3c8a6add	0.01689666
61	0x3e173078	0.14764583
62	0x3da509fa	0.080585435
63	0xbe81a49e	-0.25320905
64	0xbbd30e10	-0.0064408854
65	0x3e34737c	0.17622179
66	0xbe180608	-0.1484605
67	0xbe5aa70a	-0.21352783
68	0x3e472ace	0.19449922
69	0xbeb13118	-0.34607768
70	0x3d97f3c8	0.074195445
71	0x3a204aa5	0.00061146385
72	0xbe747c93	-0.23875646
73	0xbd394841	-0.045234922
74	0xbd6c78c7	-0.05773237
75	0x3d176235	0.036958892
76	0x3e90c980	0.28278732
77	0x3d8847b5	0.06654302
78	0x3d965be0	0.073417425
79	0x3dad35fd	0.08457563
80	0x3d74a654	0.059728935
81	0xbe6c43bd	-0.23072715
82	0xbdfd771d	-0.12376235
83	0x3dcf3d28	0.101190865
84	0x3dfe67eb	0.124221645
85	0x3d83c139	0.06433339
86	0x3e1ce3f1	0.15321328
87	0xbdf2af44	-0.118498355
88	0xbdeb66a2	-0.11494185
89	0xbe563c1a	-0.20921364
90	0xbda0cf51	-0.078520425
91	0xbe3ecefa	-0.18633643
92	0xbda8cbda	-0.082420066
93	0x3e0d2d1b	0.13786738
94	0xbd9a3b1a	-0.07530804
95	0x3dd03131	0.101656325
96	0x3e592bc2	0.21208099
97	0x3d940352	0.07227196
98	0xbbc6312d	-0.0060483427
99	0x3d1a30be	0.03764414
100	0xbd1a563e	-0.037679903
101	0xbdeed264	-0.116612226
102	0xbdd834fe	-0.105569825
103	0xbdf15ff9	-0.117858835
104	0x3e1bc645	0.15212353
105	0x3df50e2d	0.119655944
106	0xbe6bbc57	-0.23021065
107	0xbd8e65d2	-0.069530144
108	0x3d1d9614	0.038473204
109	0xbcedfe1a	-0.02905183
110	0x3df804e1	0.121103056
111	0x3dbc653e	0.09198998
112	0xbf67e7a4	-0.9058783
113	0xbe338062	-0.17529443
114	0xbc5b5d04	-0.013388876
115	0x3dbf540e	0.09342204
116	0x3df723f4	0.120674044
117	0x3e9018d8	0.28143954
118	0xbd053528	-0.032521397
119	0x3e039980	0.12851524
120	0x3ea1d8e0	0.31610775
121	0x3ce1a9bb	0.027546754
122	0xbe88feb4	-0.26756823
123	0x3c5839ae	0.013197346
124	0xbc93cdb4	-0.018042423
125	0x3d5989c5	0.053109903
126	0x3c8fd92a	0.017559607
127	0xbc620945	-0.013796155
128	0xbdc2d05b	-0.09512397
129	0xbe2ec47f	-0.17067145
130	0x3e4a3027	0.19744931
131	0xbc769677	-0.015050522
132	0xbe70ce76	-0.23516259
133	0xbec56c4f	-0.38559195
134	0xbe33ad9e	-0.17546698
135	0x3dbf4b4a	0.09340532
136	0xbe8e62e6	-0.2780983
137	0xbd5abba7	-0.053401615
138	0x3e63be17	0.22240482
139	0xbd399699	-0.045309637
140	0x3e0fa2b1	0.14026906
141	0x3ed9c5e9	0.42533806
142	0x3e97f4bf	0.29678914
143	0x3ed746be	0.4204616
144	0x3e3c7c9b	0.18406908
145	0x3d484128	0.048890263
146	0xbee16ba0	-0.44027424
147	0xbd5dd8f9	-0.054162
148	0xbe20f6d1	-0.15719153
149	0x3e6256cd	0.22103424
150	0xbd096c62	-0.033550628
151	0xbe1290a0	-0.14312983
152	0xbdb92501	-0.09040261
153	0x3db09bc3	0.08623459
154	0x3e0139c1	0.12619688
155	0x3d8a8fc5	0.06765703
156	0x3d8b83cd	0.068122484
157	0x3cbfafa7	0.023399187
158	0xbdddaacf	-0.10823595
159	0x3e2f02f4	0.1709097
160	0xbe2f2b4b	-0.17106359
161	0x3e5ceb89	0.21574225
162	0x3eda0377	0.42580768
163	0x3e484e9e	0.1956124
164	0xbd53e693	-0.051733565
165	0x3d93fd74	0.07226077
166	0x3dbb7cd7	0.09154671
167	0x3dca7f9a	0.09887619
168	0xbe19c31a	-0.15015832
169	0xbe95bdab	-0.29246268
170	0xbd695280	-0.056963444
171	0x3e969445	0.29409996
172	0xbe7c6163	-0.24646525
173	0x3da37a23	0.0798228
174	0x3bab6726	0.005230802
175	0x3e22c0dc	0.15893883
176	0x3e558f10	0.20855355
177	0x3df5c7f8	0.12001032
178	0xbc6f096d	-0.01458965
179	0xbd93966c	-0.07206425
180	0x3e17ab85	0.14811523
181	0x3eef6185	0.4675409
182	0xbdb3fa5d	-0.087879874
183	0xbb41c676	-0.0029567755
184	0xbede6f79	-0.43444422
185	0xbea5fdfd	-0.3242034
186	0xbe4cd6ea	-0.20003858
187	0xbe939c7a	-0.2883032
188	0xbe5b37ac	-0.21407956
189	0x3e11d446	0.14241132
190	0x3da113ab	0.078650795
191	0xbd058e26	-0.032606266
192	0xbe591ac0	-0.2120161
193	0x3e89f482	0.26944357
194	0xbdc6f700	-0.0971508
195	0x3e398a48	0.18119156
196	0xbbc0a614	-0.005879173
197	0xbe5c2764	-0.21499401
198	0x3e964d24	0.2935573
199	0x3da410de	0.0801103
200	0xbc68f0d8	-0.014217578
201	0xbd5ec49b	-0.054386716
202	0x3e06fa75	0.1318148
203	0x3c6ce36c	0.0144585185
204	0xbbdf8b6c	-0.0068220403
205	0xbebf4897	-0.3736007
206	0xbe1458c8	-0.14486992
207	0x3c060b10	0.008181348
208	0xbbf19923	-0.0073729916
209	0x3e6cacd5	0.23112805
210	0x3dd04b47	0.10170608
211	0xbdeb51c6	-0.114902064
212	0xbe311be9	-0.17295803
213	0x3e883e08	0.26609826
214	0xbdbeccb3	-0.09316387
215	0xbdadcb13	-0.08485999
216	0xbd9b20f8	-0.07574648
217	0xbd3fc3d4	-0.046817616
218	0xbe6bafb2	-0.23016241
219	0x3e126c7b	0.14299195
220	0xbe1721cc	-0.14758986
221	0xbceaf13a	-0.028679479
222	0x3e2cb16f	0.1686456
223	0x3e0158ec	0.12631577
224	0xbeb91a29	-0.3615277
225	0xbf18828b	-0.5957419
226	0x3ea03bb1	0.3129554
227	0x3e0fddb5	0.14049418
228	0xbcfa4c52	-0.03055397
229	0xbe7c2436	-0.24623188
230	0x3e3260a8	0.17419684
231	0xbd055158	-0.03254828
232	0x3e66402a	0.22485414
233	0xbeb6ab89	-0.35677746
234	0x3ee8dac4	0.45479405
235	0x3f26ee20	0.652071
236	0xbea2b2a2	-0.3177691
237	0xbdb9c9c6	-0.09071688
238	0x3e998411	0.2998357
239	0xbe401c30	-0.18760753
240	0xbf10fb1a	-0.5663315
241	0xbd677f17	-0.056517687
242	0x3f17cb75	0.59294826
243	0x3e7b8276	0.24561486
244	0xbd8d7810	-0.06907666
245	0xbe485189	-0.19562353
246	0x3b90298a	0.004399483
247	0xbc22f84b	-0.009946893
248	0xbdc561c8	-0.09637791
249	0xbe001382	-0.12507442
250	0xbea1183a	-0.31463796
251	0xbe81c9a4	-0.25349152
252	0xbe0da6d7	-0.13833176
253	0x3cb6d5fe	0.022318836
254	0x3e2a7058	0.16644418
255	0xbe3f3923	-0.1867414

output_projection.bias f4 [35]
0	0xbcfe58d0	-0.031048208
1	0xbdd604fd	-0.1045017
2	0x3c3b18ea	0.011419514
3	0xbd95127c	-0.07278916
4	0x3d0c7f94	0.034301355
5	0xbd4dc739	-0.05023882
6	0xbd559abb	-0.052149516
7	0xbdfc0e8f	-0.12307464
8	0x3d2facb9	0.04288933
9	0xbc06e679	-0.00823366
10	0xbe13bb38	-0.14426887
11	0xbe22991a	-0.15878716
12	0xbe2a2c5c	-0.16618484
13	0xbd868348	-0.06568009
14	0xbe4c1036	-0.19928059
15	0x3c0449d6	0.0080742445
16	0x3d2170b2	0.039414115
17	0xbddd1916	-0.107958004
18	0xbe51609c	-0.2044701
19	0x3dab03d9	0.08350343
20	0xbd47af72	-0.048751302
21	0xbdca5736	-0.098799154
22	0x3c7392bb	0.014866526
23	0xbe262286	-0.16224107
24	0xbe0ecda5	-0.13945635
25	0xbd21a92a	-0.039467968
26	0x3d37807d	0.04480027
27	0xbdc2e00c	-0.0951539
28	0x3dc3174c	0.09525928
29	0xbdaf5286	-0.08560662
30	0xbe024e9a	-0.12725297
31	0xbd93f24d	-0.072239496
32	0xbd2330c5	-0.039841432
33	0x3d6bf97b	0.05761097
34	0x3dcfd436	0.10147898

transformer.encoder.layers.0.self_attn.in_proj_weight f4 [192, 64]
0	0x3d35b986	0.044366382
1	0xbdf7b313	-0.120947026
2	0xbe035c8c	-0.12828273
3	0x3e1a6593	0.1507781
4	0x3ced7e92	0.028991017
5	0x3e04a731	0.12954403
6	0xbd886442	-0.06659748
7	0x3b39bf94	0.002834295
8	0x3cdd0b81	0.026983025
9	0x3de18018	0.1101076
10	0x3e07b37b	0.1325206
11	0x3cb06046	0.021530282
12	0x3be59b5f	0.007007047
13	0xbe18136d	-0.1485116
14	0x3da1f5da	0.079082206
15	0xbcbdde68	-0.02317734
16	0xbd029664	-0.031881705
17	0xbd623910	-0.0552302
18	0x3de2f700	0.11082268
19	0xbca2f8ca	-0.019894022
20	0x3d13e2c5	0.036104936
21	0x3cf51e96	0.029921811
22	0x3e0d3d86	0.13793
23	0x3dac423e	0.08411072
24	0x3de931df	0.11386465
25	0x3db374a0	0.08762479
26	0x3dfbbfaa	0.122924164
27	0xbda7c99a	-0.08192749
28	0x3e154739	0.1457795
29	0x3df41811	0.11918653
30	0x3e09d13f	0.13458727
31	0x3cff477b	0.031162014
32	0x3c9668de	0.018360551
33	0xbe156b0b	-0.14591615
34	0x3d0f4635	0.034979064
35	0xbd6efca3	-0.058346402
36	0x3d5fd897	0.054649916
37	0x3cb0e1fa	0.021592129
38	0x3ddcc2c1	0.10779334
39	0xbe0d6790	-0.13809037
40	0xbc3f9326	-0.011692798
41	0xbd77bddd	-0.060483802
42	0x3cdf1b6e	0.02723476
43	0xbc39e7ae	-0.011346741
44	0xbda5f68c	-0.08103666
45	0x3e0d7286	0.13813218
46	0xbcd05273	-0.02542994
47	0xbcf89e2e	-0.030348863
48	0x3cc936e7	0.024562312
49	0x3dc810c8	0.09768826
50	0x3bb0c52e	0.0053945994
51	0x3e19143f	0.1494913
52	0x3e043be8	0.12913477
53	0xbd8ba34b	-0.06818255
54	0xbe05b400	-0.13056946
55	0x3e12059e	0.14259955
56	0x3d763940	0.06011319
57	0xb9d98d3d	-0.00041494696
58	0xbe0e6ec2	-0.13909438
59	0xbdcd78a8	-0.10032779
60	0x3d9f0d25	0.07766179
61	0xbbba8aca	-0.0056928145
62	0xbe14fd84	-0.14549834
63	0xbdbac88f	-0.09120285
64	0x3d95d635	0.073162474
65	0x3d493ad8	0.049128383
66	0xbdfb6242	-0.122746006
67	0x3e091fcc	0.13391036
68	0xbd811950	-0.06303656
69	0xbd9e7243	-0.077366374
70	0xbd39c057	-0.045349445
71	0xbd56a0b0	-0.052399337
72	0x3da01ad4	0.07817617
73	0xbe02ac6e	-0.12761089
74	0x3e12edca	0.14348522
75	0xbdb0f2dd	-0.086400725
76	0xbd68954b	-0.056783002
77	0xbd3f892e	-0.046761684
78	0x3bb0ebb4	0.0053991918
79	0x3cac0763	0.020999616
80	0x3e041b42	0.12901023
81	0x3d835c42	0.06414081
82	0x3cc0d386	0.023538362
83	0xbda7b33f	-0.08188485
84	0x3d943f04	0.07238582
85	0xbd242e61	-0.040083293
86	0x3e002d77	0.12517343
87	0x3db02a3d	0.08601806
88	0xbe217de7	-0.15770684
89	0x3d37ede9	0.044904623
90	0x3c7c9873	0.015417206
91	0xbd421eae	-0.04739254
92	0x3df5f642	0.120098606
93	0x3d3b6b6d	0.045756746
94	0x3d9613ee	0.0732802
95	0xbd05ed07	-0.03269675
96	0xbd387e33	-0.045042228
97	0xbd9d520a	-0.07681663
98	0x3cae8533	0.021303749
99	0xbc9f323b	-0.019433131
100	0xbda9d93c	-0.08293387
101	0x3d4a4d70	0.049390256
102	0xbdda4964	-0.106585294
103	0x3c88fab1	0.016721101
104	0xbce70acc	-0.02820339
105	0xbdeaa472	-0.11457147
106	0x3daec167	0.08532982
107	0xbe141da7	-0.14464436
108	0x3d4b24ab	0.049595516
109	0xbca98f14	-0.020698108
110	0x3b5c5804	0.0033621797
111	0x3dc334ac	0.09531531
112	0xbc32b088	-0.010906346
113	0xbe05b947	-0.13058959
114	0xbd8bc7fd	-0.06825254
115	0xbe01753d	-0.12642379
116	0xbda22512	-0.07917227
117	0x3e067a91	0.13132693
118	0x3dd1e3f5	0.102485575
119	0xbd9f8668	-0.07789308
120	0x3d500c56	0.050793014
121	0x3d8302e4	0.06397036
122	0xbbfe3120	-0.007757321
123	0xbe11f8e5	-0.14255102
124	0x3e06bc12	0.1315768
125	0xbcd18844	-0.025577672
126	0xbd78035f	-0.06055009
127	0x3dd08c23	0.10182979
128	0x3daeed59	0.08541364
129	0x3cc74dc8	0.024329081
130	0x3d4fbbf5	0.05071636
131	0xbdd24418	-0.10266894
132	0x3cda6435	0.02665911
133	0xbd8356eb	-0.06413063
134	0x3e011aca	0.12607875
135	0x3d89b0d0	0.067231774
136	0x3d0e74cb	0.03477935
137	0xbcbe3042	-0.02321637
138	0xbe0b0d67	-0.13579331
139	0xbd1a2194	-0.03762968
140	0x3d0b4f69	0.03401128
141	0xbe00f029	-0.12591614
142	0x3ccc25a1	0.024920287
143	0x3e0412b1	0.12897755
144	0xbb3be9e1	-0.0028673338
145	0xbe0e9d64	-0.13927227
146	0xbd210fe8	-0.03932181
147	0x3e1045a7	0.1408907
148	0xbd8b4be7	-0.068015866
149	0x3db7fca4	0.08983734
150	0xbd95c6f9	-0.07313342
151	0x3d4e5d3b	0.05038188
152	0xbd419eb1	-0.04727048
153	0xbe1736c9	-0.14766993
154	0xbe007788	-0.12545598
155	0x3dfae4a9	0.12250645
156	0x3db0b735	0.08628694
157	0x3dc63ce9	0.096795864
158	0x3d970a53	0.07375016
159	0x3e017d22	0.1264539
160	0xbcf91599	-0.030405806
161	0xbcc87ead	-0.024474466
162	0x3e072a6f	0.13199781
163	0xbdb3045e	-0.08741067
164	0xbda4724c	-0.08029613
165	0x3d70a5e7	0.058751967
166	0xbd6d0b99	-0.05787239
167	0x3dc7acf0	0.09749782
168	0xbd823ec0	-0.06359625
169	0xbdf186f4	-0.117933184
170	0x3e1fb55e	0.1559653
171	0x3d8f96c2	0.07011177
172	0x3d55bf55	0.05218442
173	0x3d1532c1	0.036425356
174	0x3d1748d6	0.036934696
175	0xbda92cc3	-0.08260491
176	0xbd22374b	-0.039603513
177	0x3df95bec	0.12175736
178	0xbdc2e7ef	-0.09516894
179	0x3de3b52c	0.1111854
180	0x3dd17573	0.1022748
181	0xbd88c8c1	-0.06678916
182	0xbd2357f9	-0.03987882
183	0xbcc30b75	-0.023809174
184	0x3ded64ba	0.11591478
185	0xbe1dd1c9	-0.15412058
186	0xbb37d493	-0.0028050288
187	0xbe0ae0b8	-0.13562286
188	0x3dd2a3d0	0.10285151
189	0x3d80d2b1	0.06290186
190	0xbcbe1ffa	-0.023208607
191	0xbbf3db3e	-0.007441907
192	0xbcafe65d	-0.02147215
193	0x3df4ea53	0.11958756
194	0xbe162cb6	-0.14665493
195	0x3dd8b19f	0.105807535
196	0x3e0fd1a0	0.1404481
197	0x3df730d3	0.12069859
198	0xbd15ccc8	-0.036572248
199	0x3e1810bc	0.14850134
200	0x3d97c6a0	0.074109316
201	0xbdd15a95	-0.10222355
202	0x3cf19f0b	0.029494783
203	0xbda8b335	-0.08237306
204	0xbe0c5d0c	-0.1370737
205	0xbc8a4754	-0.016879715
206	0x3d0173d2	0.031604595
207	0xbdcef9fb	-0.10106274
208	0xbe0684aa	-0.13136545
209	0xbceaea95	-0.02867631
210	0x3e050b0c	0.12992495
211	0xbc877957	-0.016537352
212	0xbe04aec5	-0.12957294
213	0xbd3e3d08	-0.046444923
214	0xbdcfff51	-0.101561196
215	0x3db28bb4	0.087180525
216	0xbcea8955	-0.028629938
217	0xbdb77e0d	-0.08959589
218	0xbdc1bb52	-0.09459557
219	0xbe0042d6	-0.12525496
220	0xbe0a3a31	-0.13498761
221	0x3dbeb38c	0.093115896
222	0xbd1971a5	-0.037461895
223	0x3cf40d7c	0.029791586
224	0x3ae2ce18	0.0017303852
225	0x3df6e4c2	0.12055351
226	0x3e11e7fa	0.14248648
227	0xbd250bd1	-0.040294472
228	0x3d317e54	0.043333367
229	0x3d814d9d	0.06313632
230	0xbc0821ee	-0.008308871
231	0x3da5ae33	0.080898665
232	0x3de5ef2e	0.112272605
233	0x3d786cba	0.060650565
234	0x386f3c78	5.7038356e-05
235	0x3e1eaf84	0.15496641
236	0xbc84e498	-0.016222283
237	0x3d8ac016	0.06774919
238	0xbd4936f7	-0.049124684
239	0x3dceaa43	0.100910686
240	0x3c7fba66	0.015608406
241	0xbe11aa18	-0.14225042
242	0xbd0c5b6c	-0.034266874
243	0xbd17b416	-0.037036978
244	0x3dab5447	0.08365684
245	0xbd91d3ec	-0.07120499
246	0xbcc8632a	-0.024461348
247	0x3cd45ab0	0.02592215
248	0xbda99357	-0.08280056
249	0xbcf21f77	-0.02955602
250	0xbc568864	-0.0130940415
251	0xbabcf129	-0.0014415133
252	0x3d578020	0.052612424
253	0x3d1b37ae	0.037894897
254	0xbd926a85	-0.07149223
255	0x3d828669	0.06373293

transformer.encoder.layers.0.self_attn.in_proj_bias f4 [192]
0	0xbbcbfdbf	-0.0062253173
1	0x3be5bda0	0.0070111305
2	0x3b7776bc	0.003775998
3	0xbb60f250	-0.0034324117
4	0xbb93e383	-0.0045132055
5	0xbc2b8a8f	-0.010470047
6	0xbb90e4e4	-0.004421817
7	0x3ba50bb3	0.005036795
8	0xbbc0fda6	-0.0058896123
9	0x3c06ff59	0.008239591
10	0xb8dc110d	-0.000104935934
11	0x3ad26349	0.0016051318
12	0x3a25d4ba	0.0006325949
13	0x3b790554	0.003799756
14	0xba3e8934	-0.00072683697
15	0x3c4e90fd	0.01260781
16	0x3c1a3fbe	0.009414611
17	0x3bf4c80a	0.0074701356
18	0x3c25c619	0.010118031
19	0x3bd695cd	0.0065486194
20	0x3bf620bf	0.007511228
21	0xbbe45ba0	-0.0069689304
22	0xbbd030e1	-0.006353483
23	0xbc109665	-0.008824919
24	0x3bdef5a5	0.0068041855
25	0xbbd1f001	-0.0064067845
26	0xbc142076	-0.009040942
27	0xbc14a4d9	-0.009072506
28	0xbc12e6e8	-0.008966185
29	0xbbc92bbd	-0.006139247
30	0xbc24c92e	-0.010057731
31	0xbbefa2d1	-0.0073131104
32	0x3b932aad	0.0044911713
33	0x3b67e19e	0.003538228
34	0x3b426922	0.0029664715
35	0x39674418	0.00022055244
36	0xba925e55	-0.0011167029
37	0xbb966e45	-0.004590782
38	0x39a3514a	0.00031150348
39	0x3b9b4e04	0.004739525
40	0x3c869928	0.016430452
41	0x3becb808	0.0072240867
42	0x3c02e849	0.007989951
43	0xbbe2db3f	-0.006923109
44	0xbd058dc6	-0.03260591
45	0x3c545146	0.01295883
46	0xbb181c31	-0.0023210163
47	0x3cf9b705	0.030482778
48	0x3b7800ac	0.0037842197
49	0x3b3d679f	0.0028900874
50	0xbc3ef376	-0.011654725
51	0xbc484d4b	-0.012225459
52	0xbb70c6ba	-0.0036739544
53	0x3c2a856f	0.01040779
54	0x3b912cd5	0.004430393
55	0xbc9ab99b	-0.018887332
56	0xbc87cc33	-0.016576862
57	0x3b57c510	0.0032923855
58	0x3c4d5981	0.012533546
59	0x3bcb7493	0.006208965
60	0x3c4d1e78	0.012519471
61	0x3bc7a912	0.006093153
62	0x3bc7ab14	0.006093392
63	0x3a21dd03	0.0006174596
64	0xb9c8724c	-0.0003823213
65	0xb94f2abc	-0.00019756978
66	0xb945b9ed	-0.00018856647
67	0x388f3fc2	6.830647e-05
68	0x392937c0	0.00016137864
69	0xb6ece434	-7.0599144e-06
70	0x38997cfd	7.3188894e-05
71	0xb7ca7b28	-2.4137626e-05
72	0x38c427a0	9.353389e-05
73	0x38c05c7d	9.172501e-05
74	0xb8524cd6	-5.013946e-05
75	0x34661610	2.1428446e-07
76	0xb979dec0	-0.00023829471
77	0xb896e929	-7.195987e-05
78	0xb8425d0d	-4.6339865e-05
79	0x396c4c61	0.00022535167
80	0x39a30cc6	0.000310993
81	0x3994335c	0.00028267025
82	0xb9a837a5	-0.00032084915
83	0xb9b063bc	-0.00033643644
84	0xb9a374d3	-0.00031176824
85	0xb96c0259	-0.00022507588
86	0x394186a4	0.00018456072
87	0xb967d28c	-0.00022108312
88	0xb8c383ee	-9.3228984e-05
89	0x39cd7dd5	0.000391944
90	0x39c24bac	0.00037058943
91	0xb9e29264	-0.0004321515
92	0x381a6b09	3.6816145e-05
93	0xb9ab500c	-0.000326753
94	0x37d9016d	2.586908e-05
95	0x3a0bcd46	0.00053330173
96	0x38a1fb34	7.7238685e-05
97	0x3979aebe	0.00023811587
98	0xb8db040f	-0.0001044349
99	0xb9674c87	-0.00022058385
100	0xb89c4d5a	-7.4530675e-05
101	0xb7fdab58	-3.0239738e-05
102	0xb95cee14	-0.00021069526
103	0x388748d7	6.450869e-05
104	0x3949c548	0.00019242347
105	0xb9972c25	-0.00028833855
106	0xb983ad57	-0.00025115415
107	0x39d13501	0.00039903077
108	0xb92f154c	-0.00016697234
109	0xb9d5aa75	-0.00040753526
110	0x39c606dd	0.00037770616
111	0xb88a3a24	-6.591182e-05
112	0xb8c91f45	-9.590251e-05
113	0x38db0dd9	0.00010445313
114	0xb9476f5a	-0.000190196
115	0x393b511b	0.00017863924
116	0x395032da	0.0001985537
117	0xb92c9520	-0.00016458752
118	0xba0a2a30	-0.00052705687
119	0x392f9aa8	0.00016746914
120	0xb8275a98	-3.9900275e-05
121	0x39802688	0.0002444277
122	0xb7aab35b	-2.0349098e-05
123	0xb8d5515e	-0.00010171787
124	0xb8037bc8	-3.1348114e-05
125	0xb9f30249	-0.00046350274
126	0xb8913a56	-6.925005e-05
127	0xb803fd09	-3.146849e-05
128	0xbc72dfaa	-0.0148238335
129	0xbc08c4b7	-0.008347682
130	0x3ba50ed1	0.0050371666
131	0x3bea4478	0.0071492754
132	0xbb511115	-0.003190105
133	0xbb2be928	-0.0026231501
134	0xbc3fd4f5	-0.011708488
135	0xba8c7a66	-0.001071763
136	0x3bbf6a79	0.00584155
137	0x3be1d1fa	0.0068914862
138	0x3c6c69e1	0.01442954
139	0xbb0eaf30	-0.00217719
140	0xbc63f543	-0.013913455
141	0xbc61c461	-0.013779731
142	0x3bb43699	0.0054996726
143	0xbc520a9f	-0.012819915
144	0x39d6956d	0.00040928592
145	0xbc14dede	-0.009086339
146	0xbbc4c6db	-0.0060051507
147	0x3c1f56b9	0.009725266
148	0x3c29cb61	0.010363431
149	0xbb415659	-0.002950093
150	0xbc4a1779	-0.012334698
151	0x3bdc4dd0	0.006723143
152	0xbc1299b5	-0.008947779
153	0xbc09d5c7	-0.008412785
154	0x3c02dc41	0.007987083
155	0xbc547f99	-0.012969875
156	0xbc4c2854	-0.012460787
157	0xbccaeb77	-0.024770482
158	0xbbfae07b	-0.0076561547
159	0xbc2a11a7	-0.010380185
160	0xbbe36594	-0.0069395993
161	0x3b97ee32	0.0046365494
162	0x3bce7cf9	0.006301519
163	0xbc5c3854	-0.013441164
164	0xbca552c3	-0.020181065
165	0x3bd69645	0.0065486752
166	0xbbd771af	-0.0065748314
167	0x3bf20f68	0.0073870905
168	0xbc841219	-0.01612191
169	0x3bc69e19	0.006061327
170	0xbc22bc74	-0.009932626
171	0xbc5811a5	-0.0131878005
172	0x3c81f215	0.015862504
173	0xbbfe63a1	-0.0077633415
174	0x3b63a7be	0.0034737433
175	0x3b5a3779	0.0033297224
176	0x3c42d2df	0.011891096
177	0x3ba2aad8	0.004964214
178	0xbc02c8d0	-0.007982448
179	0x3bce6bcc	0.0062994715
180	0x3c2a91f8	0.010410778
181	0x37fc7cba	3.0098821e-05
182	0xbc9708d5	-0.018436829
183	0xbc294c73	-0.010333168
184	0xbc347ebb	-0.011016543
185	0xbbd2e2df	-0.0064357365
186	0x3b44b45e	0.0030014734
187	0x3c89e82f	0.016834347
188	0x3be24854	0.006905595
189	0xbc314ba3	-0.010821256
190	0xbc10b67f	-0.008832573
191	0x3bf2803d	0.007400541

transformer.encoder.layers.0.self_attn.out_proj.weight f4 [64, 64]
0	0x3e400d5f	0.187551
1	0xbba88ae3	-0.0051435097
2	0xbe0085b5	-0.12551005
3	0xbd453267	-0.04814377
4	0x3dfc6643	0.123241924
5	0x3e48188d	0.19540615
6	0xbe025103	-0.12726216
7	0xbc6bf780	-0.01440227
8	0x3dabc3b8	0.0838694
9	0xbdb0411a	-0.08606167
10	0xbe0db4b0	-0.13838458
11	0xbde54a24	-0.11195782
12	0x3e296c87	0.16545306
13	0x3db4e243	0.088322185
14	0xbd4d90ce	-0.050186925
15	0xbd03e2ac	-0.032198593
16	0xbc48b63f	-0.012250482
17	0xbdc9d1b4	-0.09854451
18	0x3db3801a	0.08764668
19	0x3d3cc9eb	0.046091
20	0x3ceea156	0.029129665
21	0x3abb2a11	0.0014279505
22	0xbe1a3595	-0.15059502
23	0xbcf519dc	-0.029919557
24	0xbde02f2c	-0.10946497
25	0x3d093de7	0.0335063
26	0x3de8ae81	0.11361409
27	0x3e5d7db7	0.21629988
28	0xbdcd345b	-0.10019752
29	0xbc4e73c1	-0.01260084
30	0xbd85aa5a	-0.065266326
31	0xbd5731af	-0.052537616
32	0x3aad506a	0.0013222818
33	0xbd1e9bf9	-0.038722966
34	0xbe51cc66	-0.20488128
35	0xbe2996d5	-0.16561444
36	0xbbe4e7c6	-0.0069856374
37	0xbe1e4d9f	-0.15459298
38	0x3e38f3da	0.18061772
39	0xbe14a498	-0.14515913
40	0x3e002224	0.12513024
41	0x3d4f4b0c	0.05060868
42	0x3dc0d3fa	0.09415431
43	0x3d6353fe	0.055500023
44	0x3e022cd1	0.12712409
45	0xbde937f2	-0.11387624
46	0xbdb820e8	-0.08990651
47	0xbd976313	-0.07391944
48	0x3deb7ed4	0.114988
49	0x3e61559f	0.22005318
50	0x3e0e8546	0.13918027
51	0x3d6b2112	0.057404585
52	0x3d0f49b7	0.03498241
53	0x3d87628e	0.06610595
54	0x3e4aede5	0.19817312
55	0xbe23de33	-0.16002731
56	0x3df1a287	0.11798578
57	0x3e54f296	0.20795664
58	0xbdf8ab26	-0.12142019
59	0x3cb1a887	0.021686805
60	0x3d3afe68	0.045652777
61	0xbe503465	-0.20332487
62	0xbc7ecef3	-0.01555227
63	0xbe1b0e95	-0.15142281
64	0x3e527c2f	0.20555185
65	0xbdeea92f	-0.11653363
66	0x3ab5488f	0.0013830828
67	0xbe366d42	-0.17815116
68	0xbe357c1d	-0.17723127
69	0x3e23c6c1	0.15993787
70	0xbc809742	-0.015697125
71	0x3dcf1d81	0.10113049
72	0xbd1bf553	-0.038075756
73	0x3e028028	0.127442
74	0x3a857fb9	0.0010185159
75	0x3d0f062d	0.034918
76	0xbb07bcac	-0.0020711822
77	0xbe125baf	-0.14292787
78	0x3d40e9b8	0.04709789
79	0x3c256245	0.01009423
80	0xbd5bf932	-0.053704448
81	0xbe3d7d4e	-0.18504831
82	0x3e2e62e3	0.1702991
83	0x3d412c3c	0.047161326
84	0xbdbd2b82	-0.09236814
85	0xbe30c916	-0.17264208
86	0x3e5de332	0.216687
87	0xbdcc62cc	-0.099797815
88	0x3e136ce7	0.14397012
89	0x3d4a34df	0.049366828
90	0xbdc8368f	-0.09776031
91	0x3b4c1a42	0.003114358
92	0xbdc27ec8	-0.09496838
93	0xbe2e69b5	-0.17032512
94	0x3d8703ff	0.06592559
95	0x3cf2290e	0.029560592
96	0x3e52fa8e	0.20603392
97	0xbd4d3391	-0.050098006
98	0xbe0d0d82	-0.13774684
99	0x3d966a36	0.07344477
100	0x3e48bf31	0.19604184
101	0x3e084063	0.13305812
102	0xbce8c27e	-0.028413054
103	0x3d46ba6b	0.048517626
104	0x3e399ac1	0.1812544
105	0x3d46dcbc	0.048550352
106	0x3cbcdc95	0.0230544
107	0xbdae3781	-0.0850668
108	0x3d9d2940	0.076738834
109	0x3dfad5cb	0.12247809
110	0xbe0a9e87	-0.13537036
111	0xbd7bff29	-0.061522637
112	0xbe34b97c	-0.17648882
113	0xbdc2a584	-0.09504226
114	0x3e483b56	0.19553885
115	0x3dc5bed9	0.09655542
116	0xbd97d96f	-0.07414519
117	0xbd16663a	-0.036718585
118	0x3e309c22	0.1724706
119	0x3ddb9c15	0.1072313
120	0x3db949e2	0.09047295
121	0x3d32de70	0.043669164
122	0xbe1445c3	-0.14479737
123	0x3dcfa3c3	0.10138657
124	0xbe17526f	-0.1477754
125	0x3df1c260	0.11804652
126	0x3e323c36	0.17405781
127	0x3e15db2f	0.14634393
128	0xbd157cb5	-0.036495883
129	0xbe13f1b2	-0.14447668
130	0xbdbd780a	-0.09251411
131	0xbc8bdd91	-0.017073425
132	0x3e29f5b9	0.16597642
133	0xbe49c7db	-0.19705145
134	0x3da8158f	0.08207237
135	0x3d2a7090	0.041611254
136	0xbe45887a	-0.19290343
137	0xbe020667	-0.12697755
138	0x3d2482a7	0.040163662
139	0xbd231f17	-0.03982457
140	0x3cbe369a	0.023219395
141	0xbe257eff	-0.16161726
142	0xbdac6163	-0.084170125
143	0x3e3a0281	0.18165018
144	0xbd3d3d80	-0.04620123
145	0x3db0d667	0.08634644
146	0xbe45154c	-0.19246405
147	0xbe15b8b0	-0.14621234
148	0x3d1e8652	0.038702317
149	0x3db2b821	0.08726526
150	0xbc9986ef	-0.0187411
151	0xbe4a0275	-0.197275
152	0x3c5ac1dc	0.013351884
153	0x3e493b2f	0.19651483
154	0x3d750447	0.059818532
155	0xbe4ad65a	-0.19808331
156	0x3ccce9a0	0.025013745
157	0xbe48a0d3	-0.195926
158	0x3d8f7fbc	0.07006785
159	0xbe59af52	-0.21258286
160	0x3e118f61	0.14214851
161	0xbe6387a7	-0.22219716
162	0x3e503583	0.20332913
163	0x3e290082	0.165041
164	0x3ca9ebdc	0.02074235
165	0x3d950fa0	0.07278371
166	0xbda8451a	-0.08216305
167	0x3e2d1c7f	0.16905402
168	0x3d7de10d	0.061982203
169	0x3d7d884d	0.061897565
170	0x3e495e16	0.19664797
171	0xbde45a73	-0.11150064
172	0x3ce25065	0.027626226
173	0x3e4a345a	0.19746533
174	0xbe43ea34	-0.1913231
175	0xbdf2af58	-0.118498504
176	0x3dee3a97	0.11632269
177	0xbe1789fe	-0.14798734
178	0x3e12ef78	0.14349163
179	0x3e213f9e	0.15746924
180	0xbe2e75aa	-0.17037073
181	0x3dff2a6a	0.12459262
182	0x3e20b789	0.15695013
183	0x3e105e6a	0.14098516
184	0xbe399248	-0.18122208
185	0xbd8b4c21	-0.0680163
186	0xbe3f204d	-0.18664666
187	0xbdf36be8	-0.11885816
188	0xbd2b4ddb	-0.041822296
189	0xbe3ee02b	-0.18640201
190	0xbd80a4a4	-0.06281403
191	0x3d81add0	0.0633198
192	0x3e18a2f3	0.1490591
193	0xbe3ebd6a	-0.18626943
194	0xbe0d1e9c	-0.13781208
195	0xbda78869	-0.08180315
196	0x3c370a9e	0.011171965
197	0x3d10d958	0.035363525
198	0x3e0194f1	0.12654473
199	0xbd8d6c63	-0.06905439
200	0x3e0b6400	0.13612366
201	0xbdcd365a	-0.10020132
202	0x3d08cfd2	0.033401318
203	0x3e150fbf	0.14556788
204	0xbbca6adc	-0.0061772894
205	0xbe2720bc	-0.16321081
206	0xbb8943c1	-0.004188985
207	0x3e51a922	0.20474675
208	0xbdbd50d9	-0.09243936
209	0x3e68f9eb	0.22751586
210	0xbd92d3e7	-0.071693234
211	0x3d9f06e6	0.07764988
212	0x3dc3e5cf	0.09565317
213	0x3da967fa	0.08271785
214	0x3e282459	0.16420116
215	0x3e12203e	0.14270112
216	0x3e5de6bf	0.21670054
217	0xbe04fe19	-0.12987556
218	0xbdb1826d	-0.08667455
219	0xbe1a2129	-0.15051712
220	0x3e35af27	0.17742597
221	0x3e5aaa59	0.21354045
222	0x3e6157bf	0.22006129
223	0x3de73c9f	0.112908594
224	0x3ce8c575	0.028414467
225	0xbd6d2d15	-0.05790432
226	0xbb91a7c7	-0.0044450494
227	0x3d744e88	0.059645206
228	0x3e533689	0.20626272
229	0xbe244ff6	-0.16046128
230	0x3e62f1e1	0.22162582
231	0x3deb297d	0.11482523
232	0x3e26e308	0.16297543
233	0xbdbd1125	-0.09231786
234	0x3e3ff39e	0.18745276
235	0x3dfefaa8	0.12450153
236	0x3d993037	0.074798994
237	0xbe2cfd00	-0.16893387
238	0xbd24dcd4	-0.04024966
239	0x3e1000da	0.14062825
240	0xbe7427ec	-0.23843354
241	0xbe344280	-0.17603493
242	0xbde659e1	-0.11247612
243	0xbdd8946f	-0.105751865
244	0xbe304fa9	-0.17217888
245	0xbe4b6aea	-0.19865003
246	0x3d990730	0.07472074
247	0xbdd1a4dd	-0.10236523
248	0x3e0eddcf	0.13951801
249	0xbe280584	-0.16408354
250	0x3dbcaad5	0.09212271
251	0xbe5bc150	-0.21460462
252	0x3cbf5136	0.023354154
253	0x3d2813d1	0.041034523
254	0xbe0b7237	-0.13617788
255	0xbe35b9c2	-0.17746642

transformer.encoder.layers.0.self_attn.out_proj.bias f4 [64]
0	0xbba1d5c0	-0.004938811
1	0xbbef8197	-0.0073091495
2	0xbbafab1e	-0.005360975
3	0xbcd2bc45	-0.02572454
4	0xbbf9f840	-0.0076284707
5	0xbc6701c7	-0.014099545
6	0xbc5c81e2	-0.013458701
7	0xbc192a10	-0.009348407
8	0xbbf5f3a1	-0.0075058495
9	0x3b8d7927	0.004317421
10	0x3bf14808	0.007363323
11	0xbbcd9a5f	-0.006274506
12	0xbae7a1db	-0.0017672138
13	0xbb6db80c	-0.003627303
14	0x3bb2100c	0.005434042
15	0x3c276d02	0.010218861
16	0xbc1668df	-0.009180277
17	0x3bf48828	0.00746252
18	0x3c4512c1	0.012028397
19	0x3bbbc9b0	0.00573083
20	0xbc33314e	-0.010937048
21	0x3c32427f	0.010880112
22	0xbbd07e53	-0.0063627153
23	0x3b938cb1	0.0045028557
24	0x3be78ce2	0.007066355
25	0x3c8a2b05	0.016866216
26	0x3c2861d1	0.0102772275
27	0xbb951434	-0.0045495275
28	0xbb98c300	-0.0046619177
29	0x3c05370c	0.0081308
30	0x3b2fd3dc	0.002682916
31	0x3bc29a74	0.0059388224
32	0xbc63f180	-0.013912559
33	0xbc6bc425	-0.014390026
34	0x3be178dd	0.006880863
35	0x3ab4b3ac	0.0013786457
36	0xbbe85555	-0.0070902505
37	0x3b030cc3	0.001999662
38	0x3c96efda	0.018424917
39	0xbb958284	-0.004562678
40	0xbc21b942	-0.009870829
41	0x3a8f0786	0.0010912276
42	0xbc330aff	-0.010927915
43	0x3b860b38	0.004090693
44	0xbc17dc16	-0.009268781
45	0xbbc9dcd7	-0.0061603594
46	0x3bbcb9de	0.005759462
47	0x3a75489d	0.00093568285
48	0xbba76998	-0.0051090233
49	0x3af6231e	0.0018778776
50	0x39a82b39	0.0003207566
51	0x3bee7bea	0.0072779553
52	0x3bc880aa	0.0061188536
53	0x3bceef12	0.0063151205
54	0x3bdec922	0.0067988792
55	0x3ca0f77b	0.019649258
56	0x3c299dd1	0.010352568
57	0xbba37bb5	-0.0049891123
58	0xbb08b679	-0.0020860715
59	0x3ba03c9a	0.004890037
60	0xbc5e4611	-0.01356651
61	0x3bdb4362	0.0066913823
62	0xbbef64e2	-0.0073057273
63	0xbbaa9217	-0.0052054035

transformer.encoder.layers.0.linear1.weight f4 [256, 64]
0	0x3d2f98d4	0.042870358
1	0xbda8aecf	-0.08236467
2	0x3dd813fe	0.10550688
3	0x3c979439	0.018503295
4	0x3de301c2	0.1108432
5	0xbd90d18d	-0.07071219
6	0x3d6982cb	0.0570095
7	0xbdae9cdd	-0.08526013
8	0x3ce81a99	0.028332995
9	0x3e0d7470	0.13813949
10	0x3cbcfae8	0.02306886
11	0x3cbe0e27	0.023200108
12	0x3e025acf	0.12729953
13	0xbddd3306	-0.108007476
14	0x3dcf555e	0.101237044
15	0xbbf00d85	-0.0073258304
16	0xbd9faafd	-0.07796285
17	0x3c953067	0.018211557
18	0xbd9df46f	-0.07712638
19	0x3dc5b4fd	0.096536614
20	0x3d249148	0.040177613
21	0xbd90fedc	-0.070798606
22	0x3d57c425	0.052677292
23	0x3de8703d	0.11349533
24	0x3e083c34	0.13304216
25	0xbd050d37	-0.032483306
26	0x3d145b39	0.03621981
27	0xbdaec632	-0.085338965
28	0xbd5c3055	-0.05375703
29	0x3dc07b9c	0.093985766
30	0xbe08fddc	-0.1337809
31	0x3db3b5c8	0.087749064
32	0xbe10bd79	-0.14134778
33	0xbe04f5f5	-0.1298445
34	0xbdfaaa4a	-0.12239511
35	0xbc50aca5	-0.012736474
36	0x3d8771d5	0.066135086
37	0x3e08ad9d	0.13347478
38	0xbd112411	-0.035434786
39	0x3daa3298	0.08310431
40	0xbda9c123	-0.08288791
41	0xbca89294	-0.020577706
42	0x3de32eaf	0.110928886
43	0x3d8e1a2a	0.06938584
44	0x3d2b4883	0.0418172
45	0xbdb12121	-0.08648897
46	0xbcb0350b	-0.021509668
47	0xbd055934	-0.032555774
48	0x3d3820c4	0.044953123
49	0xbddf65c6	-0.109080836
50	0x3dbf8f1c	0.09353468
51	0xbd20c512	-0.03925044
52	0xbdc47f7a	-0.09594627
53	0x3ddc1299	0.10745735
54	0xbceef483	-0.029169327
55	0xbe0af74b	-0.13570897
56	0x3ac598cc	0.0015075444
57	0xbdecbdda	-0.11559649
58	0xbc2e9444	-0.0106554665
59	0x3ccefd1b	0.025267174
60	0x3cc54e21	0.024085106
61	0x3d2936af	0.041311916
62	0x3dc4d66f	0.096112125
63	0x3dc99878	0.09843534
64	0x3dc4c674	0.096081644
65	0xbdaf99d4	-0.08574262
66	0xbde987c2	-0.11402847
67	0x3b843c39	0.0040354994
68	0x3d991e25	0.07476453
69	0xbd836137	-0.06415027
70	0xbdf5927e	-0.11990832
71	0x3ca49751	0.020091685
72	0x3d022e76	0.03178259
73	0xbdcae6cb	-0.099073015
74	0xbdc90749	-0.09815843
75	0x3df16714	0.11787239
76	0xbaf99b14	-0.0019043409
77	0x3d4e0947	0.050301816
78	0x3d9bd0ca	0.07608183
79	0x3dd14492	0.10218157
80	0x3d86ff18	0.06591624
81	0xbd90a45d	-0.070626
82	0x3df63d2f	0.120233886
83	0xbdc36977	-0.095416
84	0xbd3b02cf	-0.045656975
85	0xbd965b83	-0.07341673
86	0xbd5b29e4	-0.053506747
87	0xbdeb12c4	-0.11478189
88	0x3d3b6825	0.045753617
89	0x3dd5e035	0.10443155
90	0x3c764586	0.015031224
91	0xbccd3364	-0.025048919
92	0x3db68280	0.0891161
93	0xbbdc4b11	-0.006722816
94	0xbafe4f81	-0.0019402356
95	0x3e0b00ce	0.13574526
96	0xbe10b896	-0.14132914
97	0xbb0428d0	-0.0020165928
98	0x3dfa056a	0.12208064
99	0xbdb97972	-0.09056367
100	0xbde3816a	-0.11108668
101	0xbcd046ee	-0.025424447
102	0x3d5215bf	0.05129027
103	0xbbf0f890	-0.0073538497
104	0x3da0e1db	0.078555785
105	0x3ddbd71b	0.107343875
106	0xbdee227c	-0.11627671
107	0x3dddc29a	0.10828133
108	0xbdde8b55	-0.10866419
109	0xbb85c02d	-0.004081747
110	0x3d13a666	0.03604736
111	0xbc2eb58b	-0.0106634
112	0x3c384371	0.011246548
113	0xbd82516d	-0.06363187
114	0x3e0256aa	0.12728372
115	0x3c40f05d	0.011776057
116	0xbccdf230	-0.025139898
117	0xbdc4abc4	-0.09603074
118	0x3c3938bb	0.0113050295
119	0xbaa813f1	-0.0012823326
120	0x3dbc5c67	0.09197312
121	0xbddce36d	-0.107855655
122	0xbdf73995	-0.1207153
123	0xbcbc3731	-0.022975536
124	0xbdf81ec9	-0.12115247
125	0x3e0ae222	0.13562825
126	0xbe0eb136	-0.13934788
127	0x3c4a5c14	0.012351055
128	0xbdd6f7f3	-0.10496511
129	0x3d7bf401	0.061511997
130	0xbddddf26	-0.10833578
131	0x3d20618e	0.039155535
132	0xbdbf9667	-0.09354859
133	0x3d5a8b38	0.053355426
134	0xbbcbf24f	-0.006223954
135	0x3d1d0923	0.03833879
136	0x3dccab8c	0.099936575
137	0xbdca22ec	-0.09869942
138	0x3e0d2dc1	0.13786985
139	0x3cdf7ce8	0.02728124
140	0xbd8f7acb	-0.07005843
141	0x3d64814e	0.055787377
142	0x3d812e6b	0.06307682
143	0xbdd3839e	-0.10327838
144	0xbd55a28c	-0.05215697
145	0xbcfd490b	-0.030918619
146	0x3decaa20	0.11555886
147	0x3e018c96	0.12651286
148	0xbd8aeb30	-0.0678314
149	0xbe016b45	-0.12638576
150	0x3db2fa2f	0.08739125
151	0xbdb8301a	-0.0899355
152	0x3c5fc8e3	0.013658735
153	0xbddd743f	-0.10813188
154	0xbe100c40	-0.14067173
155	0x3db05180	0.08609295
156	0xbe008375	-0.12550147
157	0xbdb508d3	-0.08839574
158	0xbdc576ac	-0.096417755
159	0x3db778d8	0.08958596
160	0xbdfa4fec	-0.12222275
161	0x3d427ecf	0.047484215
162	0xbd7dfafe	-0.062006943
163	0x3dd9682d	0.10615573
164	0xbdc10958	-0.0942561
165	0x3db3fe5e	0.08788751
166	0x3dbca7f1	0.0921172
167	0x3d1c9194	0.03822477
168	0x3dd7599d	0.10515139
169	0xbd5c8206	-0.053834938
170	0x3dec33bd	0.11533306
171	0x3db7f054	0.08981386
172	0x3bc6db75	0.006068642
173	0xbb3cae5c	-0.002879045
174	0xbcc06788	-0.023486868
175	0xbd1e792d	-0.03868978
176	0x3e083796	0.13302454
177	0x3d140db5	0.036145885
178	0xbc0ce67c	-0.008599874
179	0xbb32215a	-0.0027180524
180	0xbd09125a	-0.033464767
181	0xbc5e7948	-0.01357872
182	0xbc932157	-0.017960234
183	0xbda0d927	-0.078539185
184	0xba836d09	-0.0010027002
185	0x3e045d9d	0.12926336
186	0xbd331004	-0.043716446
187	0xbdec7c11	-0.11547101
188	0xbd6ac974	-0.057321027
189	0xb9a5467a	-0.00031523762
190	0xbd870760	-0.065932035
191	0x37d366db	2.5201056e-05
192	0x3e133383	0.14375119
193	0xbd91341f	-0.070900194
194	0x3d3c7c55	0.04601701
195	0xbb1dccdf	-0.0024078412
196	0xbcbe6b84	-0.023244627
197	0x3da402df	0.0800836
198	0x3c27f743	0.010251823
199	0x3df275f4	0.11838904
200	0x3d78ee68	0.060774237
201	0x3d7da5f9	0.061925862
202	0x3deb6662	0.11494137
203	0xbd6ba41f	-0.057529565
204	0xbc4481ce	-0.0119938385
205	0x3dfbeae4	0.12300661
206	0xbdbba251	-0.09161819
207	0xbd70126c	-0.05861132
208	0xbd9211cb	-0.071323
209	0x3d790ec0	0.060805082
210	0xbdee15b3	-0.116252325
211	0xbcbe8e54	-0.023261227
212	0xbdcba6e1	-0.09943939
213	0x3d53df40	0.05172658
214	0x3cf48192	0.02984694
215	0x3d63f3c8	0.05565241
216	0x3e0d2c5f	0.13786457
217	0xbda9719b	-0.08273622
218	0xbd11ae12	-0.035566397
219	0xbd9cc941	-0.07655574
220	0xbdf02934	-0.11726609
221	0xbcc87b91	-0.024472984
222	0x3dc66f5b	0.09689208
223	0xba92902b	-0.0011181881
224	0x3d8a94b4	0.06766644
225	0xbcb37182	-0.02190471
226	0xbcf0d5fd	-0.029398913
227	0x3d0140bf	0.031555887
228	0x3decc0ed	0.11560235
229	0x3d917b02	0.0710354
230	0xbcae3bbe	-0.021268722
231	0xbcc4362b	-0.02395161
232	0xbd6e83db	-0.058231216
233	0x3d10a02f	0.035309013
234	0xbd676031	-0.05648822
235	0xbdf501ed	-0.11963258
236	0x3cd08e1f	0.025458394
237	0x3d6d33e8	0.05791083
238	0xbc993c79	-0.018705593
239	0xbd578ec2	-0.05262638
240	0xbd4bed6c	-0.04978697
241	0xbd33f86f	-0.043938097
242	0xbdd0feae	-0.10204826
243	0xbd1e7967	-0.038689997
244	0xbdbe9468	-0.0930565
245	0xbe163c61	-0.1467147
246	0xbd4a9bf1	-0.049465124
247	0x3cdc1245	0.02686418
248	0x3db1dbb2	0.08684482
249	0xbdb095e9	-0.08622343
250	0xbcaa81de	-0.020813879
251	0x3ca828e0	0.020527303
252	0x3cee6615	0.02910141
253	0xbdf4d8fb	-0.11955448
254	0x3decfc25	0.1157153
255	0xbdbaeeb1	-0.09127558
