pythiatransformer/transformer_model_sos.pt (torch, 981050 bytes, 68 tensors)

input_projection.weight f4 [64, 36]
000000 43 96 44 3e 2b 64 8c 3d f8 02 52 3e 23 99 f6 3d
       0.19197945 0.06855043 0.20508945 0.12040927
000010 b5 c8 27 3e e8 d2 a7 3c 0a 1c a5 3d 5e 33 ea 3c
       0.16385157 0.02048631 0.08061989 0.028588947
000020 b0 ae 06 3d ea 59 92 bd 27 9b e2 bd a2 83 42 3d
       0.03288144 -0.07146056 -0.11064749 0.047488816
000030 65 f0 48 bc de 4c ec b9 dc da 9f bc 50 22 ce bd
       -0.012264346 -0.00045070698 -0.01951354 -0.10065138
000040 13 e0 0f be 16 17 48 3e b8 b7 c5 3d 8b ed 18 3d
       -0.14050321 0.19540057 0.09654182 0.037335914
000050 27 3e 92 3e f1 a6 94 bd 3e c8 b1 3d 02 da c2 3e
       0.28563043 -0.07258404 0.08680771 0.38056952
000060 9c 8f 1f bd d7 5b ce bd 08 1d 58 3e de 62 e2 bd
       -0.038955316 -0.10076111 0.21104825 -0.11054014
000070 a2 89 1d 3e 28 fd ce bb 0c 16 b0 3c 24 a7 a1 3e
       0.15384534 -0.0063167997 0.021494888 0.3157283
000080 b0 74 df bd 61 76 38 bd e7 72 51 3e 36 da 4b bd
       -0.10910928 -0.04503477 0.20453988 -0.04976865
000090 bc e4 de 3d 78 72 40 3c bf ee 8b bc 66 9c fe bd
       0.10883471 0.0117460415 -0.017081616 -0.124321744
0000a0 c7 30 d0 3c 3e 77 2d 3d c7 0e 2c bd 40 42 63 3e
       0.025413884 0.042350046 -0.04200628 0.22193241
0000b0 07 00 83 bc 8d 94 2b bc 8d 0f a2 3c 80 9b f5 3d
       -0.015991224 -0.010472429 0.019782806 0.1199255
0000c0 05 db 47 3c 5a b5 e6 bd 5b 97 41 3e d3 22 28 3e
       0.012198214 -0.11265059 0.18905394 0.16419534
0000d0 09 21 db 3d 40 45 29 3e 8c 09 0f 3d 66 59 dc bd
       0.1069966 0.16530323 0.034921214 -0.10759239
0000e0 90 c3 ad 3d fa 3d 01 bd 2f 80 78 3c 21 cc cc 3d
       0.08484566 -0.031553246 0.01516728 0.09999872
0000f0 fd 33 a5 3d 44 d1 cc bd b6 7c 73 bd 70 07 31 3d
       0.080665566 -0.10000852 -0.059445105 0.043219984
000100 23 c7 ca 3d 89 a1 10 bd ad 64 2d 3e 91 21 c1 3d
       0.099012636 -0.035310302 0.16932936 0.094302304
000110 40 d3 69 3c 8c 8d 36 3d 23 8e 61 be b3 ad 11 be
       0.014271557 0.044568583 -0.22026877 -0.14226417
000120 2a 26 45 be ce ba 08 bd ed 86 05 bd 2a 40 c4 3c
       -0.1925284 -0.033381276 -0.03259938 0.023956377
000130 4a e2 15 bc 51 3e 94 bc c8 48 0b be ba 2f 30 be
       -0.00914819 -0.018096121 -0.13601983 -0.17205706
000140 28 24 52 3e 9d 4b 43 3d 21 1d a6 3c ad 05 57 3e
       0.20521605 0.047679532 0.020277562 0.20998259
000150 0b d1 74 bd 09 e4 03 3e 48 14 aa bd 3a 21 44 be
       -0.05976967 0.12879957 -0.083046496 -0.191533
000160 35 b5 82 3d 39 d3 60 3d d3 30 3f 3e 3a 2d 88 3d
       0.06382219 0.054888938 0.18670969 0.06649251
000170 1a 89 02 be 3b 94 31 be 9c 33 37 be a8 c8 36 be
       -0.12747613 -0.17341702 -0.17890781 -0.17849982
000180 fa 78 b2 3d c9 54 ef 3d 35 1e be 3c 7f bb 88 3d
       0.08714481 0.11686093 0.023207763 0.06676387
000190 c9 3e 75 3d bc cc 58 bc 17 01 bc 3d c4 35 6b be
       0.05987433 -0.013232406 0.09179895 -0.22969729
0001a0 c0 06 91 3d 53 4c 09 3e e6 60 32 be 9a 76 1f be
       0.070813656 0.13408022 -0.17419776 -0.15572587
0001b0 33 2c a8 3c 9c 93 0d 3e b7 01 dc bc 02 a6 0e 3e
       0.020528888 0.1382584 -0.026856286 0.13930514
0001c0 ce 54 51 3e 06 5a 4c 3d 7a 35 f7 bd 5f 43 d6 3d
       0.20442507 0.04989054 -0.12070747 0.10462069
0001d0 a6 2c 37 3d e4 ac 3c 3e d6 f4 32 be fc a4 f6 bd
       0.044720314 0.18425328 -0.1747621 -0.12043187
0001e0 9e f2 7d 3d b5 c9 dc bd 14 8a 02 bd 2f 62 a1 ba
       0.061998956 -0.1078066 -0.031869963 -0.0012312586
0001f0 58 f9 46 be 34 9e 34 be f7 ff f2 bc 9a d4 11 3e
       -0.19431055 -0.17638475 -0.02966307 0.14241257
000200 88 28 82 3e 3e f7 ed 3d f7 96 a8 3d 23 95 fe 3d
       0.25421548 0.11619423 0.08231919 0.12430789
000210 6d fa ff 3d a8 06 c2 bd a8 e2 83 3e b9 d0 88 3b
       0.12498937 -0.09473926 0.25758862 0.0041752723
000220 28 5d 0e 3e de 15 0b 3e d7 a0 56 bd 08 50 b3 3d
       0.13902724 0.1358256 -0.052399483 0.08755499
000230 76 fd aa 3c 8a 29 ae 3e c1 d8 7c 3e 86 b7 de 3c
       0.020872813 0.34016067 0.2469206 0.02718712
000240 d7 2c db 3d d2 90 65 3d 19 3b 80 3d b1 4e 4d 3b
       0.10701912 0.056046315 0.06261272 0.0031327421
000250 03 f5 81 bc 3f a6 c6 3d 59 2e 92 3e b6 54 a1 3d
       -0.015863901 0.09699678 0.28550985 0.078774855
000260 47 08 14 bd 64 7a 1d bd df e2 10 bb 6c d7 8f 3d
       -0.036140706 -0.0384468 -0.0022107882 0.0702351
000270 b4 e7 a4 bd ca 3f 60 3d 84 fb 20 be e9 cc 1c be
       -0.08052006 0.054748334 -0.15720946 -0.15312542
000280 f0 30 99 3d 3d 79 04 3e fd 71 e3 bb 0b 82 82 bd
       0.07480037 0.12936874 -0.0069410787 -0.0637246
000290 5a 96 8f 3e 12 90 06 3d e1 69 8c 3e c9 48 00 3e
       0.28044397 0.03285224 0.2742453 0.12527765
0002a0 46 0b b1 3c a5 3e 31 be 4f da 43 3e 03 7c 1d bd
       0.02161182 -0.17309053 0.19126247 -0.038448345
0002b0 f9 50 5d 3e 64 39 eb 3c d0 77 4b 3e 0b fb eb 3e
       0.2161292 0.02871389 0.19869924 0.46089968
0002c0 16 f4 a6 bc a5 88 df bb dc 17 d7 bd 0b e7 1b be
       -0.020380061 -0.006821709 -0.10502598 -0.15224855
0002d0 70 a8 2d 3a 86 d8 84 3d f5 b1 d5 bd d8 b0 c3 3d
       0.00066245254 0.06486611 -0.10434333 0.09555215
0002e0 e2 cc 35 3e cb ec a7 3d c4 d9 57 3e 71 e7 e8 3d
       0.17753938 0.081994615 0.21079165 0.11372269
0002f0 85 98 0c be 8d f4 27 bd 0c 25 44 3e 3f 15 40 3e
       -0.13730057 -0.041004706 0.19154757 0.18758105
000300 c4 a2 21 bd 85 48 a2 3d f1 17 d9 3d 69 34 28 3e
       -0.039461866 0.07923988 0.106002696 0.16426243
000310 ef 11 05 be 83 4b 30 3e 48 f0 92 bc 41 13 27 3d
       -0.12995122 0.17216305 -0.01793684 0.040789846
000320 39 8f 01 3e 95 d0 1d 3d 28 6d 67 bc f9 69 6b 3c
       0.12652291 0.038528997 -0.014125146 0.014368528
000330 29 69 a6 bd d4 02 80 3d e1 4c e5 bd 20 32 b3 3d
       -0.081255265 0.062505394 -0.11196304 0.08749795
000340 e2 61 06 3e 63 2f 0c 3e 95 07 2e 3e e7 c5 8d 3e
       0.13123277 0.13689952 0.1699508 0.2769005
000350 4e 8b b6 bd 62 77 97 be c7 81 de bd d8 1a 9a bd
       -0.08913289 -0.2958327 -0.10864597 -0.07524651
000360 51 18 d3 bd dd 0a 2b be c8 21 15 3e bc e3 9b 3d
       -0.10307372 -0.16703363 0.14563668 0.07611796
000370 3c cf 37 bc 16 1b b2 bd b1 fd e7 bc d3 2b e8 3c
       -0.011218842 -0.086965725 -0.028319212 0.02834121
000380 ab 07 2b bd 5a b3 ea 3d b6 39 0a bd 49 95 26 3e
       -0.04175536 0.1145999 -0.033746444 0.16267885
000390 cb 05 da bd 3d 6e 25 3d 6b 14 77 bc 0f ed 9d 3c
       -0.10645636 0.040388335 -0.015080552 0.019278077
0003a0 4a 54 e1 bc e6 fe ae 3d 46 9c 2c be 35 93 4d 3d
       -0.027506012 0.08544712 -0.16856489 0.050189216
0003b0 40 d2 94 3d 5c 54 41 be 1a 53 4f be 5c 2c f9 bc
       0.072666645 -0.18879837 -0.20246544 -0.03041666
0003c0 17 9b d9 bd 0f cb 8d 3d 4d b9 11 3e e9 20 dc bd
       -0.10625284 0.06923496 0.14230843 -0.107484646
0003d0 63 96 01 3e 48 33 d8 bc 30 47 76 3c 4c 52 b2 be
       0.12655024 -0.02639164 0.015031621 -0.34828413
0003e0 10 27 4d bd 7f fc 6a 3d b9 ec 6a 3e 98 33 fa 3d
       -0.05008608 0.057369705 0.22941865 0.12216872
0003f0 46 d5 2b 3c 18 47 e5 bd 07 16 f7 bd 5a 5f 13 be
       0.01048786 -0.11195201 -0.12064748 -0.14391842

input_projection.bias f4 [64]
000000 1c 3b eb 3c 10 a8 18 bd ea 8e 06 be 2e d7 93 bd
       0.028714709 -0.037269652 -0.13140455 -0.07218777
000010 18 4a e1 3d a9 ff c9 3d c4 09 84 3b 59 89 b4 3d
       0.110004604 0.098632164 0.0040294845 0.088152595
000020 5b 9b 05 3e be c2 bc 3c 0e 61 b9 bd fa 19 a8 3d
       0.13047545 0.023042079 -0.09051715 0.0820808
000030 b3 7f 9f bd e3 32 54 bc 30 61 a8 3d ad 1f 0a 3e
       -0.077880286 -0.012951585 0.08221662 0.13488646
000040 85 ac a6 3d d8 37 be 3d a4 2e d7 3c c1 7d 4b bd
       0.08138374 0.09287995 0.026267357 -0.049680475
000050 66 8d 2c 3c 1c 61 3d 3d 76 7e bc bd 47 0b 66 3d
       0.010531759 0.04623519 -0.09203808 0.0561631
000060 4e a9 14 bd 81 16 98 bd 88 f6 41 bc 24 e6 45 3c
       -0.036294274 -0.07426167 -0.011838563 0.012078796
000070 51 4e dc bd 4a 1e a8 3d 38 b0 ac bc 02 8a a9 3d
       -0.10757125 0.08208902 -0.021080121 0.08278276
000080 f9 40 72 3d 4f 00 6e 3c 97 bc 0e be e6 52 1d bd
       0.059143994 0.014526441 -0.13939129 -0.038409136
000090 62 a8 94 3c cf 61 c3 3d 85 6f ad 3d ef ee c2 3b
       0.018146697 0.0954014 0.08468536 0.0059488933
0000a0 12 67 0b be 99 e9 db bd bd c6 c6 bd 4a 7b ae 3d
       -0.13613537 -0.107379146 -0.09705875 0.08519609
0000b0 5a 03 f0 3c 47 c5 0f 3e 9b 02 d2 3d c5 dc 21 3d
       0.029298473 0.14040099 0.10254403 0.039517183
0000c0 9c 2b 09 3d e1 ec ad 3d 0c e1 8e 3b 3c cd 98 bc
       0.033488855 0.08492447 0.004360324 -0.01865255
0000d0 c2 8e 09 be c8 42 3d 3c 68 b8 f3 bd 85 c0 03 bc
       -0.13433364 0.011551566 -0.11900407 -0.008041506
0000e0 33 df 07 3e ad d0 8d bd 95 c1 a4 bd cd 78 8f 3c
       0.13268737 -0.06924567 -0.08044735 0.017513657
0000f0 b2 01 9b 3d 67 a4 72 3d 69 86 9d 3d f0 2e 74 bd
       0.07568683 0.059238818 0.07691652 -0.059615076

output_projection.weight f4 [36, 64]
000000 26 78 95 bd b1 a7 6e 3e aa a1 47 bd 8f 0d 07 be
       -0.07298307 0.23306157 -0.04873816 -0.13188766
000010 e7 24 d8 3d ef 77 38 3d 57 98 a4 bd e3 d4 de bd
       0.105539136 0.045036253 -0.08036869 -0.10880449
000020 ce 45 f5 3c 23 19 92 bd 16 6f 1c bc 84 04 94 bc
       0.029940512 -0.07133701 -0.009547969 -0.01806856
000030 15 09 13 bd 59 60 34 bd 37 c2 27 be 56 c4 97 bd
       -0.035897333 -0.044037197 -0.16382681 -0.07410495
000040 71 3f c5 3d ff da 06 be 68 2b ba bd da a6 b0 3d
       0.09631241 -0.13169478 -0.0909031 0.086255744
000050 57 96 85 3d 1c 6f 04 3e e3 76 af bd 39 e3 b8 bb
       0.06522816 0.1293301 -0.08567598 -0.0056423214
000060 8f 2a ad 3c a6 7b 09 3c 9f 7c b3 bd 19 8e 9e ba
       0.021138458 0.0083912965 -0.08764004 -0.0012096792
000070 46 fe f9 3d 7e 49 f2 b9 ae e4 32 3e 4b fa a5 3c
       0.12206702 -0.00046212593 0.17470047 0.02026095
000080 13 94 68 bd e2 c8 bb bd ad 0a a3 bd c0 71 ab bd
       -0.05678184 -0.09169175 -0.079610206 -0.083713055
000090 0f ce 14 be 51 4c 60 bd af 6b 71 bd 47 18 03 3e
       -0.1453173 -0.05476028 -0.058940586 0.1280223
0000a0 07 ce a6 bd 60 83 2c bd ea 3d 9b bd e2 d9 1c 3e
       -0.08144765 -0.042117476 -0.075801685 0.1531749
0000b0 ca 49 60 bd 7f e5 d0 3d cf 81 e1 3c 94 69 89 3d
       -0.05475787 0.10200023 0.027527718 0.067095906
0000c0 97 93 1d 3e 7e dc fa 3d a8 cf ff bc d4 45 af 3d
       0.15388332 0.12249087 -0.031226948 0.085582405
0000d0 2c 98 8a be 3c 3d e9 bd f5 8a a5 bd b7 78 ba bb
       -0.27069223 -0.11388633 -0.080831446 -0.00569066
0000e0 63 97 5b 3d e7 9a 07 3e be 23 07 be f7 f2 02 3e
       0.05361117 0.13242684 -0.13197228 0.12787996
0000f0 50 12 fe bc 32 78 6b 3d ce ed 39 bd 92 9e e5 3d
       -0.031014591 0.057487674 -0.045392804 0.112118855
000100 a3 02 a8 3b 9f f2 9f 3d a1 e3 8b 3c c1 34 07 be
       0.0051272674 0.07809948 0.017076315 -0.13203718
000110 2d 50 dd 3d 4d c7 ad 3c 36 95 c1 bd 4b 87 0a be
       0.10806308 0.021213198 -0.09452288 -0.13528173
000120 3b c1 b6 bd 97 4a 5f 3d 4b dc 91 3d 7b 9a 2c 3d
       -0.089235745 0.054514494 0.07122096 0.04213951
000130 7b 6f da bd 5d 00 29 3d 57 ac 76 bc 8b da 07 bd
       -0.106657945 0.041260112 -0.015055737 -0.033167403
000140 b8 51 4b 3d bf b7 01 be 96 6c 0b be 97 6d b0 3d
       0.04963848 -0.1266775 -0.13615641 0.086146526
000150 47 b4 e1 bd 89 2a b7 bc 6b 26 08 be 7a d6 be 3d
       -0.11020713 -0.02235915 -0.13295905 0.09318252
000160 a7 aa 11 3d 6a 12 64 bd 87 9d 10 bc 0a f1 b2 3d
       0.035563137 -0.055681624 -0.00882662 0.08737381
000170 0d 07 fe 3d 85 e7 4c bd 05 e2 05 3e 93 53 b2 bd
       0.124036886 -0.05002548 0.13074501 -0.08707347
000180 11 14 19 3e 04 0b 80 3c c9 62 35 bc 2c b7 c7 bd
       0.14949061 0.015630253 -0.0110709155 -0.09751734
000190 1a 0e a7 bd 80 39 4a bc a4 69 ce 3d 5c c8 09 3e
       -0.081569865 -0.012342811 0.10078743 0.13455337
0001a0 63 af 1d 3d 5f 0f a6 3d f0 ce fd bd 8e 67 16 3e
       0.03849734 0.081084006 -0.12392986 0.1468794
0001b0 11 76 c8 3d 45 bf f0 3a a0 19 c5 bd d5 23 86 bd
       0.097881444 0.001836755 -0.09624028 -0.06549803
0001c0 58 4d 48 3d 3b 64 b9 3d e2 02 d7 3b 51 06 93 3d
       0.048901886 0.090523206 0.006561623 0.07178939
0001d0 24 9d 32 be f6 da 39 bd 27 a9 8d bd 16 80 12 be
       -0.17442757 -0.045374833 -0.06917029 -0.14306673
0001e0 60 5e c0 bd d0 71 09 3e 99 f1 04 be f0 c9 ea bc
       -0.093930006 0.13422322 -0.12982787 -0.028660744
0001f0 f5 e6 ee bb 91 e4 1c bd 77 56 c8 bd 85 41 cd 3d
       -0.007290716 -0.038303915 -0.09782117 0.100222625
000200 45 4e f7 3c 0c dd 1f 3d 63 5a 68 3d 8a 38 0a be
       0.030188689 0.039029166 0.056726824 -0.1349813
000210 5d 17 2c 3e 82 03 a1 3d 0b 63 23 be 1a e1 35 be
       0.16805787 0.07861997 -0.1595575 -0.1776165
000220 d1 d5 4a 3d 1a 78 e3 3d 6e a8 a8 bc 7b f6 4a 3d
       0.049520317 0.11106892 -0.020588126 0.04955147
000230 79 c0 36 3d 68 14 ed 3d bd 68 d4 bd 50 16 68 bc
       0.04461715 0.11576158 -0.1037154 -0.014165476
000240 98 0d de bc 4b 0f 88 bc ac 64 ef bd 00 98 cd 3d
       -0.027106091 -0.016608855 -0.116891235 0.10038757
000250 9c 3f c1 3b 4a f7 95 bc 37 91 d4 3b d1 7f a5 3d
       0.0058974754 -0.018306393 0.0064870375 0.0808102
000260 fe 61 52 3d 8d dd 33 3d 69 cb b5 bd 12 83 31 3d
       0.051362984 0.04391246 -0.08876688 0.04333789
000270 4f aa 15 3e 8d 97 f8 bc c1 b9 67 3d 8b 1a f2 3b
       0.14615749 -0.030345703 0.056573633 0.007388418
000280 16 9a 07 3e 34 82 53 bd 58 39 8e 3d 89 0e a9 bd
       0.13242373 -0.051637843 0.06944531 -0.082547255
000290 a8 27 dc bc 73 0c ca bd 06 8d 5c 3d aa 14 f3 3d
       -0.026874378 -0.09865656 0.053845428 0.11869176
0002a0 ff 74 b6 bd 7d 2b be bd 74 b8 be bc 12 7b 27 3e
       -0.08909034 -0.092856385 -0.023281313 0.16355541
0002b0 89 06 a1 bb f4 be 92 3d f1 90 d1 bc de 59 01 3d
       -0.004914109 0.07165328 -0.025581809 0.031579845
0002c0 fe 05 12 3e f6 c0 a4 3a d1 a4 62 bd 78 62 93 bd
       0.14260098 0.0012569714 -0.055332962 -0.07196516
0002d0 1d fe fc bd 53 31 27 be 19 b3 8f bd 2a b1 8a bd
       -0.12353156 -0.1632741 -0.07016582 -0.067720726
0002e0 0d 77 a6 bb 92 98 08 bd 38 17 11 be ce 65 ad 3c
       -0.00508011 -0.033348627 -0.14169014 0.021166708
0002f0 b6 41 5d 3b 5f 63 18 be a9 a9 1c be 20 6f f6 3d
       0.003376109 -0.14881657 -0.15299095 0.12032914
000300 d8 32 be bd 97 27 37 bc 88 4e 3c bb 4c 5f 88 bd
       -0.092870414 -0.011178873 -0.0028733332 -0.066588014
000310 a0 99 95 3d 22 bb f9 3c cd ea 09 be ea b7 5d be
       0.07304692 0.03048474 -0.13468476 -0.21652189
000320 c8 70 2f bd 79 11 df bd 88 80 07 ba 2e 09 c8 3c
       -0.042832166 -0.108920045 -0.0005168994 0.02441844
000330 09 a8 0d 3e f4 a9 b1 bd b3 61 16 3c d2 6b b3 bd
       0.13833632 -0.08674994 0.009178567 -0.087607995
000340 09 f8 84 bb c7 c6 77 3d a7 22 11 be 84 40 fa 3d
       -0.0040578884 0.060492303 -0.14173375 0.12219337
000350 40 73 9c 3c ab ff 6e 3c 19 f5 9e bd 2d 48 55 bd
       0.019097924 0.014587323 -0.077615924 -0.052070785
000360 c0 1b 9d 3d 2d c5 57 bd 54 84 5e 3d 8a 02 79 3d
       0.076713085 -0.052678276 0.054325417 0.060793437
000370 31 e4 43 3e 9c 31 b8 bc a0 a1 d0 bc d5 87 16 be
       0.19130017 -0.022484593 -0.025467694 -0.14700253
000380 6a 57 48 3d c0 29 03 bd 3d 61 b7 3d 67 39 aa bd
       0.04891149 -0.032022238 0.089540936 -0.0831173
000390 31 5f 2c bd b8 98 cd bd f6 f3 02 be a9 05 75 bc
       -0.04208297 -0.100388944 -0.12788376 -0.014954963
0003a0 ba cf 52 3d d8 b5 08 3d d0 10 cc bd e3 d0 51 3e
       0.051467635 0.033376545 -0.09964144 0.2048984
0003b0 4a dc 48 3e cc 2b f9 bd 2e ec 4f bd dd 35 d4 bc
       0.19615284 -0.12166557 -0.050762348 -0.02590459
0003c0 d1 29 fb 3d ef be 66 3d bb 2c e9 3d 37 06 11 3e
       0.12263835 0.056334432 0.11385485 0.14162527
0003d0 50 54 9b bd fc 9c 89 3c 1d 1c c0 3d 36 9a 2a bd
       -0.07584441 0.016798489 0.09380362 -0.041650973
0003e0 e2 bd 21 bc 57 e2 2d 3c 00 2f 41 be de 10 b3 3d
       -0.009871932 0.010613046 -0.18865585 0.087434515
0003f0 1d 20 4c 3d 4f 63 46 be 42 b3 11 be 75 64 15 3e
       0.049835313 -0.1937382 -0.14228538 0.14589103

output_projection.bias f4 [36]
000000 d1 a5 eb 3c fe 6a 03 3d 39 4f ae 3c a6 6b 59 bd
       0.02876559 0.032084458 0.02127801 -0.053081177
000010 a5 a9 91 3c 10 43 3d bd af d1 a5 3c 41 05 b8 bd
       0.017781088 -0.046206534 0.020241586 -0.08985377
000020 c4 6d 37 bd e4 6e fb bc b5 a3 54 3d 2f b2 eb bd
       -0.044782415 -0.030692525 0.051913936 -0.11508595
000030 08 17 1b be a3 9d 60 3c 48 a8 b7 bd b2 76 36 bd
       -0.15145504 0.0137094585 -0.08967644 -0.04454679
000040 6d e6 e6 bd 69 88 55 3d 33 84 2f be 1b 27 81 3d
       -0.11274419 0.052132044 -0.17140274 0.06306287
000050 64 1b 02 be 34 b9 79 bd d5 8f b7 bd 6b e1 8b 3c
       -0.12705761 -0.06096764 -0.08962981 0.017075261
000060 b6 39 3d bd a5 44 af 3d a1 a5 8e 3d 14 c0 b5 bc
       -0.046197616 0.08558015 0.06965185 -0.022186317
000070 38 18 d2 3c f6 47 1f be f4 4a 06 3c b0 35 85 bb
       0.025646314 -0.15554795 0.008196581 -0.004065238
000080 31 9e 8e 3d 1a 5e b6 bd df 5a a9 bd 3b c3 b0 bb
       0.06963766 -0.08904667 -0.082692854 -0.005394367

transformer.encoder.layers.0.self_attn.in_proj_weight f4 [192, 64]
000000 5c f9 07 3d 60 db 73 bd eb 78 25 be 25 ea 3d 3d
       0.033196792 -0.059535384 -0.16159408 0.046365876
000010 0f 99 b9 3d 5a 03 07 be 2e e0 2b 3e 06 0e e6 bd
       0.09062397 -0.13184872 0.16784737 -0.112331435
000020 b1 7e 26 be 96 97 97 bd 3e 99 91 bd 02 b0 5a bd
       -0.16259266 -0.074019596 -0.07109307 -0.05339051
000030 c6 1a f7 bd 5c 5d 18 be 79 72 a5 3d c4 93 8f bc
       -0.120656535 -0.14879364 0.080784746 -0.017526515
000040 86 b4 be 3d a0 fb f5 3d 2b 54 de 3c ad f8 ad bd
       0.09311776 0.12010884 0.027139744 -0.08494697
000050 36 4e 2f be b3 1e 28 be 14 4a 06 bd bc e0 11 3c
       -0.17119679 -0.16417961 -0.03278549 0.0089036785
000060 0a 2e 3e 3e 8c 2c c5 bd 91 97 9e bd 6f 23 cc 3b
       0.1857225 -0.09627637 -0.07743753 0.00622981
000070 cd 96 49 3d f0 1f f0 3a 60 36 1a 3e 47 ab 38 3e
       0.04921608 0.0018320065 0.15059805 0.18034087
000080 a7 45 a3 bd b5 68 1d 3d 1b 91 f2 3b 30 5a 0c be
       -0.079722695 0.038429935 0.007402552 -0.13706279
000090 47 97 c6 bb 43 55 03 be cf 36 fd bd d1 11 de bb
       -0.006060514 -0.12825494 -0.123639695 -0.006777026
0000a0 2d 5a 83 bd 82 f7 1e be 1b ca 46 3d 67 af 90 bd
       -0.06413684 -0.15524104 0.048532587 -0.07064705
0000b0 b2 c1 3b 3e 56 75 94 bb fd 5f 2a 3b d9 ff 09 3e
       0.18335608 -0.004530589 0.0025997155 0.13476504
0000c0 eb f8 42 3c 87 53 a7 3c 8a 16 9d bd c4 c6 df bd
       0.011900167 0.020425571 -0.076703146 -0.109265834
0000d0 86 59 98 bd 39 b2 44 bd 61 7a be 3c bb f4 4c 3c
       -0.0743895 -0.04802153 0.023251714 0.01250952
0000e0 89 11 21 3e 1e c2 86 bd 81 42 62 bd 8d 59 9b 3d
       0.15729345 -0.06579994 -0.055239204 0.0758544
0000f0 98 1e b8 bc 55 2e 8f 3d 19 e0 d5 3c 3f dd bf 3d
       -0.022475526 0.06991259 0.026107835 0.09368371
000100 97 9f 8c bd bb 18 17 bb 77 ed cc bb 3b f1 0a be
       -0.06866377 -0.0023055512 -0.006253894 -0.13568585
000110 8f b6 3b 3e 5a ca 88 bd b0 b2 57 3d 3c b5 78 3d
       0.1833136 -0.066792205 0.052660644 0.060719714
000120 90 ec 33 3e 0f c6 74 bc b9 9a d6 bd cd 3e 3d 3d
       0.1757071 -0.014939799 -0.1047873 0.04620247
000130 07 eb 2d 3d 43 18 05 be 68 55 ce 3d f7 45 02 be
       0.042460468 -0.12997536 0.10074884 -0.12722002
000140 1a 6d e3 bc 8f dd dd 3d 1a 5b 0e bd bc e6 bc 3d
       -0.027761985 0.108332746 -0.03475485 0.092236966
000150 3e 12 01 be 15 30 82 bc bc 26 f7 bd b1 b6 88 3d
       -0.12604615 -0.015892068 -0.12067935 0.066754706
000160 4c 64 8f bd 26 f6 05 bd 36 19 90 3d a1 0f 06 3b
       -0.07001552 -0.03270545 0.070360586 0.0020456093
000170 5d c9 c7 3c 3a de 07 be 68 2d 03 3e d3 e0 32 be
       0.02438801 -0.13268366 0.1281029 -0.17468576
000180 75 06 a4 3d 47 b8 b5 3c 87 56 a2 bd 56 51 f1 3d
       0.08009044 0.022182597 -0.0792666 0.11783092
000190 74 44 8d 3d 5d 67 67 3d 85 0c 05 be b1 f3 f3 3d
       0.06897822 0.05649506 -0.12993057 0.11911715
0001a0 78 7c 05 3d ec 49 ed 3d 3b 0b 24 bd 74 1d ef 3d
       0.032589406 0.11586365 -0.040049773 0.116755396
0001b0 d2 55 8f bd f0 f8 f8 bc 0e cc d5 3c 6f a6 8a bd
       -0.06998791 -0.03039214 0.026098277 -0.06770026
0001c0 cc 02 9c bd 0e a5 a4 3d d1 23 78 3d 50 90 00 3e
       -0.07617721 0.08039294 0.060581032 0.12555051
0001d0 0b df 08 3d 65 30 fa 3d 81 0b eb 3b e8 bd 0e be
       0.033415835 0.12216262 0.007173002 -0.13939631
0001e0 11 75 0c 3e 2a d2 07 3e 1d 3a 8a bd 63 9a 18 3d
       0.13716532 0.13263765 -0.067493655 0.03725661
0001f0 da ed 02 3e 79 f8 af bd 6a 78 3c bc 57 42 28 3d
       0.12786046 -0.08592314 -0.011503318 0.04107889
000200 fc 96 fa 3b f0 61 27 3d a1 3a f6 bd ab 16 4a bc
       0.0076473933 0.040864885 -0.12022901 -0.012334506
000210 78 f6 35 3d 3d 6b bd 3d 16 3c 8c 3d 9c 80 32 be
       0.044424504 0.0924897 0.06847398 -0.17431873
000220 08 ee d0 bc 9e dc b3 bd 6e 55 33 bd fd 2d 53 bc
       -0.025504127 -0.08782314 -0.043782644 -0.012889382
000230 70 20 71 3d d3 3f 69 3d 7d 5f 48 bd f1 4e c3 3d
       0.058868825 0.056945633 -0.04891919 0.09536541
000240 63 73 99 3d c0 c0 fd bc 8f a9 42 3e c5 d0 61 bc
       0.074927114 -0.0309757 0.19009994 -0.013782685
000250 b1 f9 fd 3d f3 83 1e be cc 7d 01 bd 9a 00 16 be
       0.124011405 -0.15480022 -0.03161411 -0.14648667
000260 31 c8 a8 3d 0b bb 94 ba 3c f3 ed bb 57 39 39 bd
       0.082413085 -0.0011347247 -0.007261662 -0.0452207
000270 5c 85 13 bc 10 44 b5 bd 6b 77 be bd ba e2 45 3d
       -0.009003963 -0.088508725 -0.09300121 0.048311926
000280 83 2a 17 3e 34 18 1e 3d 7b b8 a8 3d 8a f4 06 3d
       0.1476231 0.0385973 0.08238312 0.032948054
000290 22 19 05 be 5d 97 ba 3d 62 89 01 3e e6 ef 2d be
       -0.12997869 0.091109015 0.12650064 -0.16986045
0002a0 96 18 fc bc 96 85 c5 ba a7 6b 71 3d 4e 96 0e 3e
       -0.030773442 -0.0015069719 0.058940556 0.13924524
0002b0 04 c6 48 3d 2d 3e 9c bd 53 e4 9d bc e4 a8 60 3d
       0.049016967 -0.076290466 -0.019273913 0.054848567
0002c0 7f 24 0d be 59 c8 81 bd cf 0f 97 3d bb c6 1f bd
       -0.13783453 -0.063370414 0.07376062 -0.039007884
0002d0 81 88 dc bd 2b d6 19 bd 62 07 0f be bd 39 c3 3b
       -0.107682236 -0.037557762 -0.1396766 0.0059578107
0002e0 94 4f b7 bd af 63 8d bd c0 9c f3 3d 9c 21 99 bd
       -0.08950725 -0.06903779 0.11895132 -0.074771136
0002f0 e6 cd c9 3d 27 63 e2 3d 2d 94 08 3e 8f 55 ab bd
       0.09853725 0.11054068 0.13337775 -0.083659284
000300 a9 45 3a 3d 93 80 96 bd 26 d1 d7 bd 75 66 c2 3a
       0.04547659 -0.07348742 -0.10537939 0.001483156
000310 47 66 b7 3c db 21 02 be 1c 62 83 3d 9c 8f 2e 3d
       0.022387637 -0.12708227 0.06415197 0.042617425
000320 42 37 e8 3d c2 0c a9 3c ec 34 e4 bb 5a 82 39 bd
       0.113386646 0.020635966 -0.0069643166 -0.04529033
000330 6c 01 2a 3e 98 e6 e3 bd ee 0d 0c be 9b 75 b0 3d
       0.16602105 -0.11127967 -0.13677189 0.086161815
000340 29 55 03 3d ac ef e9 bd bd 17 af bd 20 36 10 3e
       0.032063637 -0.11422667 -0.085494496 0.14083147
000350 78 63 6f 3d a2 de 08 be 60 e6 8e bd 0d 44 ce bd
       0.05844447 -0.13366178 -0.06977534 -0.100715734
000360 4a 53 b7 3d 85 5d 24 be 2e b0 53 3c 62 48 d7 bc
       0.08951433 -0.160513 0.0129204225 -0.026279632
000370 4c 95 d0 3c 36 1c 01 3e 9f 4d a2 3d fc 14 7d 3a
       0.025461815 0.12608418 0.07924961 0.0009654311
000380 48 00 09 3e 59 7e c3 bd 0b e7 06 3d 18 85 da bd
       0.13379014 -0.09545583 0.032935183 -0.10669917
000390 f6 4c e9 bd 4c 8a 9f 3d e6 74 34 3d 1a 5a 8e bb
       -0.11391632 0.0779005 0.044056796 -0.004344237
0003a0 cd 65 02 bd 8f 18 e6 3d 30 12 80 bd 45 4a 6e 3d
       -0.031835366 0.11235153 -0.06253469 0.058176298
0003b0 07 ba 8a bd 80 4f 21 bd 5b 0a b8 bd 85 df b7 bd
       -0.06773763 -0.039382458 -0.0898635 -0.0897818
0003c0 df 3e 13 bd fb 46 f2 bb 28 3c 4b 3d 0c 62 19 be
       -0.03594863 -0.0073937154 0.049617916 -0.14978808
0003d0 04 dc 06 3e f8 be 11 be cf 9e 69 bd ef 83 f2 bd
       0.13169867 -0.14233005 -0.057036217 -0.118415706
0003e0 57 85 b7 3d 55 e8 bd 3d fb d9 86 3d 75 ab 01 bd
       0.089609794 0.092728294 0.06584545 -0.031657655
0003f0 4c fb 0c 3e e1 f3 57 3d 10 8a 90 bd 94 e9 03 3e
       0.13767737 0.052722815 -0.07057583 0.12882072

transformer.encoder.layers.0.self_attn.in_proj_bias f4 [192]
000000 13 20 b6 bc 7b 62 91 3c 05 85 e8 3b ad 17 1c bc
       -0.022232091 0.017747154 0.0070959353 -0.009527129
000010 a8 2b 90 3b 1a 44 b1 bc 87 6f 8e b9 17 97 de 3c
       0.0043997355 -0.021638919 -0.00027167445 0.027171655
000020 9d 1a a9 bb 9b 92 e8 bc a0 c9 03 bd e3 22 65 3b
       -0.0051606433 -0.02839022 -0.032174706 0.003496342
000030 02 40 54 3c a1 07 4b bc 7c c8 b2 3b d5 57 2d bd
       0.012954714 -0.012391956 0.0054560285 -0.04232009
000040 54 a0 ae 3b 7f 55 0d 3c 5d db cb bb 21 14 68 3b
       0.005329171 0.008626341 -0.0062212185 0.0035412388
000050 a2 6b 9b 3c 4c 57 90 3c b4 42 10 bc 14 e0 47 3c
       0.018972222 0.017619751 -0.008804966 0.0121994205
000060 4b 05 93 3c eb 20 5f bc a4 08 10 3a 08 c0 6a 3c
       0.01794686 -0.013618688 0.00054944516 0.01432801
000070 24 4d 0b 3d 66 7d fd 3c 58 83 19 3c de 37 9e bb
       0.034009114 0.030943584 0.009369694 -0.004828437
000080 a9 6b 24 bc b0 35 d0 3c 1b aa 00 bc ea 1a cc bb
       -0.010035434 0.025416225 -0.007853056 -0.0062287943
000090 3f 47 0c bd 36 bb 2d 3b 60 0b 29 bc 1e 1c 33 3d
       -0.034247633 0.0026509291 -0.010317653 0.043727987
0000a0 76 1d 86 3b 26 96 84 3c ef db 42 bc 17 39 9c bc
       0.0040928675 0.016184878 -0.011893257 -0.019070191
0000b0 aa 0a 14 3d d0 af 38 bc e0 98 10 3d 31 11 9f bb
       0.036142983 -0.011272386 0.035302043 -0.0048543443
0000c0 7d cf e0 bc 86 38 80 3d 31 87 92 bc 00 9e c4 3b
       -0.027442688 0.06260781 -0.01788673 0.0060002804
0000d0 9e 94 a8 bc e5 ab 22 bc d5 b6 e2 bb 83 4d ec bc
       -0.020578679 -0.009928678 -0.006918768 -0.028845554
0000e0 35 11 49 bc 8f 1f a6 bd 16 91 8f bd 55 4e 44 bc
       -0.012272169 -0.08111488 -0.07010095 -0.011981566
0000f0 36 1a 2b 3c 09 d3 55 bd 01 bc 10 3b 35 cc 95 3d
       0.010443261 -0.052203212 0.0022084715 0.0731434
000100 95 ea 40 b9 c6 3a e2 37 3d 7e 3b b9 86 e8 fe b7
       -0.00018397935 2.6968668e-05 -0.00017880737 -3.0387437e-05
000110 ab a9 59 39 01 3b b5 35 d3 5b 42 37 d6 bf d9 38
       0.00020757939 1.3502723e-06 1.1584681e-05 0.000103830986
000120 19 33 45 b8 d2 29 b2 b8 f1 de a9 38 0f 23 03 b6
       -4.701605e-05 -8.495491e-05 8.100074e-05 -1.9540928e-06
000130 4f d3 e9 b8 ec e1 de 38 58 b2 18 b9 74 f9 49 b8
       -0.00011149665 0.00010627866 -0.00014562288 -4.8154456e-05
000140 c6 c9 ac b8 32 c6 e4 39 42 25 8f 38 a0 d2 19 b8
       -8.239182e-05 0.00043635216 6.825711e-05 -3.6674202e-05
000150 e8 06 1c 3a 85 cc 41 b8 a9 d8 d2 39 f0 ec 8d b9
       0.0005951957 -4.620526e-05 0.00040215746 -0.00027070148
000160 9b 39 20 b8 dc 6a 99 38 d9 a9 3a 38 35 74 eb b8
       -3.8200622e-05 7.3155126e-05 4.450404e-05 -0.000112273185
000170 27 82 5e b7 0b a5 2c b7 1c 1d fb b8 b1 16 e5 38
       -1.3262535e-05 -1.0290426e-05 -0.00011974035 0.000109237975
000180 62 1c 6b b8 39 12 08 38 e7 74 d5 37 d5 59 73 38
       -5.60548e-05 3.2441898e-05 2.5446016e-05 5.8019377e-05
000190 ad 6f 3e 39 a1 dd 0f 39 4c c0 ed 36 29 0b 2d 38
       0.00018161414 0.00013720106 7.0855367e-06 4.1256808e-05
0001a0 21 75 11 39 65 ed 8d b8 27 48 36 b9 4b 47 35 b8
       0.00013871912 -6.767622e-05 -0.00017383751 -4.322016e-05
0001b0 d3 0e 15 b8 f9 aa 23 b8 4a 34 0d 39 af 0c 98 b8
       -3.5538174e-05 -3.902146e-05 0.00013466287 -7.250287e-05
0001c0 f5 f2 67 b8 3a 63 76 37 bc 48 f7 37 0a f9 92 b7
       -5.5300963e-05 1.4685846e-05 2.9478564e-05 -1.7520524e-05
0001d0 37 9f a8 b8 5e 43 d1 b7 6d 77 cc 35 a8 6d a5 b8
       -8.04052e-05 -2.4946112e-05 1.5233942e-06 -7.888238e-05
0001e0 20 95 65 38 b7 71 fc 37 1a d6 f8 38 38 e0 89 38
       5.4736738e-05 3.0093694e-05 0.00011865441 6.574433e-05
0001f0 0e 89 ed b5 46 0f e4 38 ad b1 e9 b8 80 51 26 b8
       -1.7697764e-06 0.00010874732 -0.000111434005 -3.9653387e-05
000200 a4 56 d6 bb a3 61 2a bb 3c a4 ed ba b5 fb ad 39
       -0.00654109 -0.0025998137 -0.0018130611 0.00033184668
000210 96 93 47 3a bb 74 0c 3c f5 1e a8 ba ca 2a eb 3a
       0.00076132396 0.008572753 -0.0012826609 0.0017941829
000220 fd c8 9a 3a 48 8e 39 ba 8b 3a 64 3b cc c5 14 bc
       0.0011809167 -0.00070783915 0.0034824933 -0.009080362
000230 5a fb 18 3b fe c3 29 bb 85 8e bf 3a b6 38 96 3b
       0.0023343177 -0.0025904174 0.0014614618 0.004584397
000240 a1 7a 7a bb 69 06 83 b9 b3 d2 09 3b 6f a2 02 bc
       -0.0038220065 -0.00024991043 0.0021030128 -0.0079732975
000250 3e ee 7c 3b b9 a0 ad bb f8 e7 0c b9 04 75 2f 3b
       0.0038594152 -0.0052987006 -0.00013437856 0.0026772628
000260 73 89 86 3b 74 16 0c 3c 56 ef 21 bb d7 da 7e 3b
       0.0041057407 0.008550275 -0.0024709306 0.0038887763
000270 6a c6 1b 3b 0c 42 82 3b d5 b9 16 bc 46 42 6f bb
       0.0023769387 0.0039751586 -0.009199579 -0.0036508008
000280 7b b5 ac 3b be f3 d9 3b 29 b3 26 3b 54 14 3d 3c
       0.0052706576 0.006651371 0.0025436378 0.011540491
000290 9b 4a 6d bc ff 0d 34 bb 69 69 8c 3b 36 1c 6d 3a
       -0.014483119 -0.0027474163 0.004285027 0.0009045036
0002a0 04 49 39 3b 16 13 cc bb 0e 69 22 bb 8f 7d 80 bb
       0.002827228 -0.006227861 -0.0024781856 -0.0039212178
0002b0 ad c8 0c bc 28 bc 94 bb 7c 0f c9 b9 ef 4c 79 b9
       -0.008592767 -0.0045390315 -0.00038349244 -0.0002377515
0002c0 58 3e 58 bb b5 12 7d bb 1b 4d ca 3a e4 77 66 bc
       -0.0032996144 -0.0038615887 0.0015434356 -0.01406667
0002d0 23 db a1 3b f4 44 5e ba 69 25 21 bb 23 23 99 ba
       0.004939453 -0.0008478903 -0.0024588949 -0.0011683445
0002e0 f5 0f 2e bc fa 20 31 bc 96 76 ff b8 42 8e ef 3a
       -0.010623922 -0.010811085 -0.00012181436 0.0018276649
0002f0 7a 48 8e 3b c6 58 fc 3a 03 03 ce 3b d5 4f 78 3b
       0.004342136 0.0019252531 0.00628698 0.003788938

transformer.encoder.layers.0.self_attn.out_proj.weight f4 [64, 64]
000000 5a b4 5b be bc 3e 4e 3e dc 20 c3 3c 8d 12 0f be
       -0.21455517 0.20141119 0.02381938 -0.1397192
000010 83 40 26 be b4 fb 49 3e cb e3 47 be ed 63 7b 3d
       -0.16235547 0.19724923 -0.1952049 0.061374594
000020 de d1 80 bd 80 97 3b 3e c1 f5 3c be 62 15 fe bc
       -0.06290029 0.18319511 -0.18453123 -0.031016055
000030 d3 ae 56 be 46 81 a7 bd e8 a4 04 3e d7 0c 96 3d
       -0.20965128 -0.08178954 0.12953532 0.07326668
000040 e3 5c 05 be 4a d7 87 3d ef a9 ff bd ff d9 3c 3d
       -0.13023715 0.0663286 -0.12483584 0.046106335
000050 da 92 d9 bd e4 b1 7a 3e b3 33 36 be 86 21 2d be
       -0.10623713 0.24481922 -0.17793159 -0.1690732
000060 90 ed 17 be f8 55 02 be 6b 23 f7 bc b8 cb bd 3d
       -0.14836717 -0.12728107 -0.030168256 0.09267372
000070 46 b6 82 3d 18 4f 81 bd b9 a5 91 3d 12 fd 87 bd
       0.06382422 -0.06313914 0.07111687 -0.06640066
000080 89 6b a0 bd 53 c1 6f bd 72 e1 04 3d d4 2e 8c bd
       -0.07833011 -0.058533978 0.032441564 -0.06844869
000090 2c d4 1b 3e 05 d4 c4 bd f5 7c 9b bd 04 2c 4c be
       0.15217656 -0.09610752 -0.07592193 -0.19938666
0000a0 92 32 0a 3e 0a f4 12 3e f2 29 da 3d f3 41 3b 3e
       0.13495854 0.14350906 0.10652532 0.18286876
0000b0 11 2a 0c 3e 58 8d 1d be 1c f8 13 3e fc fe ea 3d
       0.13687922 -0.1538595 0.14450115 0.11474416
0000c0 eb 0d 44 be 5c a6 2c 3e 83 db 34 3e 3c 6c 19 bd
       -0.19145934 0.16860336 0.17661862 -0.037456736
0000d0 40 ab 2e 3e ea 7a 4b bd 36 74 03 be 30 96 53 be
       0.17057514 -0.049677767 -0.128373 -0.2066276
0000e0 ad 58 85 3b 32 0f a4 bc 99 cc a8 3d 88 3d 27 3c
       0.004069409 -0.020026777 0.08242149 0.010207541
0000f0 30 51 08 3e 81 b6 17 be bd b6 f5 bd 32 66 10 be
       0.1331222 -0.14815713 -0.11997745 -0.14101484
000100 08 76 c0 3d 68 4c 4c 3e 2f 9e a0 bd 93 c6 bb 3c
       0.09397513 0.19951022 -0.07842671 0.022921836
000110 d8 0f b6 3d 99 0e 20 3d 8c b8 23 3e 96 99 3c 3e
       0.08889741 0.03907642 0.15988368 0.18417963
000120 ff 53 5e 3e 12 ed 13 be cd 21 51 3c 1a ee 27 3c
       0.2171173 -0.14445904 0.012764406 0.010249639
000130 c1 6d 55 3e 85 e7 95 bc fa 5e 0a 3e e5 4b 3a be
       0.20842649 -0.018298874 0.13512793 -0.18193014
000140 cd de 8c 3d 6e 94 02 3e f3 48 86 bd 60 01 f6 3d
       0.068784334 0.12751934 -0.06556883 0.12011981
000150 00 d3 34 3e 7d d5 66 3e 93 04 5d be 50 62 06 bd
       0.17658615 0.22542377 -0.21583776 -0.0328086
000160 c4 b0 4a be 8f 94 34 3d 0a 43 26 3d 32 39 0f 3e
       -0.19793993 0.04408699 0.040591277 0.13986662
000170 7f 75 94 bc 3f c8 55 bd 1c 8d 2f 3e dd fc 5a 3e
       -0.018122433 -0.052192923 0.17143673 0.21385522
000180 21 d8 c0 bd 52 a5 16 3c f3 06 e0 3d 1c 3b 49 3e
       -0.09416223 0.009194689 0.109388255 0.19651455
000190 9a e1 76 3d 6a 5e 41 3e 3e f8 a4 3d a3 ba 77 bc
       0.060273744 0.18883672 0.08055161 -0.015120181
0001a0 14 23 c3 3d 22 cf 3a 3e c9 f4 94 3d 99 31 4a 3e
       0.09528175 0.18243077 0.072732516 0.19745483
0001b0 ac 95 d3 bd cc 0b 27 3e 60 53 e3 bd 3f da 0a 3e
       -0.10331282 0.16313094 -0.11099887 0.13559817
0001c0 e9 b9 b0 bd 8e 43 8e bc 56 38 3c bd 8b 98 98 bc
       -0.086292095 -0.017366197 -0.045952164 -0.018627426
0001d0 b0 83 32 3b 56 b8 bb 3d e1 54 49 be d8 89 66 bd
       0.0027239136 0.09166019 -0.19661285 -0.0562838
0001e0 6f f9 85 3d 9c 6e 57 3e e4 28 95 3c 50 99 2b be
       0.06541716 0.21038288 0.018207975 -0.16757703
0001f0 6f a0 a3 bd a9 0f 8a 3d 5b 02 00 3d 45 ce ae bc
       -0.07989585 0.06741268 0.031252246 -0.021338591
000200 f8 6d ab 3d bf e9 31 bd 74 c7 29 bd 5b c4 b9 3d
       0.08370584 -0.04343581 -0.04144998 0.09070655
000210 1e f2 45 3e 7a 7c d7 3d 92 48 0a be 66 f2 fa bd
       0.19330642 0.10521789 -0.13504246 -0.12253265
000220 c2 c3 26 3e 5b 9e 9a bd 15 a5 29 3d 7e 07 48 3e
       0.16285613 -0.07549735 0.0414172 0.19534108
000230 69 21 39 be 59 a0 cb bc a1 5a 40 3e 05 37 04 be
       -0.18079151 -0.024856733 0.18784572 -0.12911613
000240 ec 30 4c 3d de 57 d1 3d a4 aa 44 be 95 c0 c7 3d
       0.049851343 0.102218375 -0.19205719 0.09753529
000250 d4 95 99 3c 34 01 b3 bd 49 39 55 3e f6 da ad bd
       0.018748201 -0.08740464 0.20822634 -0.08489029
000260 45 c1 06 3d c5 79 08 bd 82 dd 66 be 3b c8 af bd
       0.03289916 -0.033319253 -0.22545436 -0.08583113
000270 a8 e0 00 be 2a 05 ba 3d 7c ab f5 bb 5f 9a 01 3e
       -0.125857 0.09083016 -0.007497249 0.12656544
000280 b4 63 e8 3d a7 d7 0d be c7 cf 4e be e2 02 0b 3e
       0.11347142 -0.13851796 -0.20196448 0.13575318
000290 49 a4 09 bd bf 89 4d 3c 46 aa 27 be d5 37 f5 bd
       -0.03360394 0.012545048 -0.16373548 -0.1197354
0002a0 79 b6 72 3d b2 d0 93 3a d4 2f 1a be e6 c1 13 be
       0.05925605 0.0011277406 -0.15057307 -0.14429435
0002b0 aa c0 4c be b9 17 59 be 70 ab fe 3d 00 ed 8f 3d
       -0.1999537 -0.21200456 0.12435043 0.07027626
0002c0 aa cb 96 3d 80 2d b5 3c 40 54 c8 3c 59 23 d8 3b
       0.073630646 0.022116423 0.024454236 0.0065960106
0002d0 f4 76 c8 bd e7 62 2c be 31 3f 1f be bb 2d 53 3d
       -0.097883135 -0.16834603 -0.1555145 0.051557284
0002e0 bc 4f 8d bd d2 8f 26 be c4 29 17 be f0 01 8c bd
       -0.06899974 -0.162658 -0.14762026 -0.06836307
0002f0 18 32 81 bd 5a e4 5b be 48 80 e0 bd 04 3d 54 3d
       -0.06308383 -0.21473828 -0.10961968 0.051816
000300 e0 26 e3 bd b9 2c 07 be 99 c6 d8 3d ef 44 0f 3e
       -0.11091399 -0.13200654 0.105847545 0.1399114
000310 a5 53 1c bd 53 33 56 be cf fc bc bd 25 2a 4d 3e
       -0.038165707 -0.20918016 -0.09227907 0.20035608
000320 b5 26 a7 bd 2f f3 98 3c 3e 45 62 3d af be 99 bd
       -0.0816168 0.018670646 0.055241816 -0.07507073
000330 d3 ad ae 3c 34 96 b4 bd 72 d1 0a be 99 fd 0f 3e
       0.02132312 -0.088177115 -0.1355646 0.14061584
000340 80 53 b6 bd 22 22 60 be a2 0a 3c be 0a b9 50 bc
       -0.08902645 -0.2188802 -0.18363431 -0.012739429
000350 3e f7 f9 3d 9b 64 15 3e b3 ad 67 3c 15 26 d0 bd
       0.12205361 0.14589159 0.014140534 -0.101635136
000360 cf 62 82 3d e2 14 05 3e 1e e5 93 3b ea 9c ea 3d
       0.063665025 0.12996247 0.004513397 0.1145571
000370 e8 82 15 be a1 7b f4 bd c3 bf db bd 81 98 85 bd
       -0.14600718 -0.11937643 -0.10729935 -0.065232284
000380 e8 49 ee bd c2 98 53 3e 44 4b 45 3e 26 4b 4a 3e
       -0.1163519 0.20663741 0.19266993 0.1975523
000390 dc a7 26 be 0c 63 d1 bd ad 90 35 3e de 22 1d be
       -0.16274971 -0.1022397 0.1773097 -0.15345332
0003a0 c2 d1 43 be 80 48 df bd 31 a6 59 3c a0 dc 3a 3e
       -0.19122985 -0.109025 0.013284252 0.18248224
0003b0 1a 85 0d 3d 9f 33 f4 3d 70 9f a2 bd 86 c7 8e bd
       0.034550764 0.119239084 -0.079405665 -0.0697165
0003c0 6c 23 bb bc 8e 78 eb 3d a3 ec 97 bd 3e cf 77 ba
       -0.022844039 0.11497603 -0.07418182 -0.0009453184
0003d0 78 2d 77 bd 2b eb 3d 3e 02 e3 ec bd 05 6f 89 3d
       -0.060346097 0.1854674 -0.11566736 0.067106284
0003e0 b5 04 04 3e dd 97 4e be 39 77 07 be f6 5b 97 3c
       0.1289242 -0.20175119 -0.13229074 0.018476468
0003f0 e3 2b 1a bd 15 6d 57 3e b1 d5 d3 3d 84 e3 e9 bc
       -0.03763951 0.21037705 0.10343493 -0.02855087

transformer.encoder.layers.0.self_attn.out_proj.bias f4 [64]
000000 ce dd 03 3c 0d ea 9d bb 69 b0 58 bb db 57 10 3c
       0.008048488 -0.004819161 -0.0033064133 0.008810009
000010 53 77 d8 3b a7 c8 d9 bb f7 9a 25 bb d5 4d 98 3b
       0.0066060214 -0.006646234 -0.0025269368 0.00464795
000020 44 93 2a bc 44 8b fa 3b 0f bc 05 3c 32 98 4f 3a
       -0.010411087 0.0076459963 0.008162512 0.0007919102
000030 6b 0c 19 b9 80 52 ca 3b 63 3b 4e 3b 92 34 da 3b
       -0.00014595843 0.0061743855 0.0031468503 0.006659099
000040 4c 1a 3b 3a a6 80 b4 3b df 90 c0 3b ae 15 57 3c
       0.00071374024 0.0055085 0.005876645 0.013127727
000050 ce de ac ba 59 c0 1f bc 2f 6a 82 3b e8 5b 77 3c
       -0.001318896 -0.009750449 0.003979943 0.015097596
000060 55 86 26 bb 0a 1e 9c 3b b3 1b 11 3b 2e fd f8 bb
       -0.0025409658 0.004764323 0.0022141754 -0.0075985407
000070 96 ce 4e 3c 3a 25 0b 3b a2 0a bd 3a d9 af fe bb
       0.012622496 0.0021231906 0.0014422724 -0.0077724275
000080 ba 1d 13 3b 7b 2f 31 39 93 92 06 bc e1 01 15 bc
       0.0022448138 0.00016897723 -0.008213657 -0.009094686
000090 a7 17 26 3c d5 04 02 3c c8 2a 86 3b 2b 79 91 bb
       0.010137475 0.007935722 0.0040944554 -0.004439493
0000a0 11 5a 9d 3b b0 12 94 bb df f9 71 bb 48 b1 89 bb
       0.0048019965 -0.0045188293 -0.0036922616 -0.004202042
0000b0 b1 09 6e bb b4 11 6e 3b 08 c0 97 bb d9 0f 82 bb
       -0.0036321694 0.003632647 -0.004631046 -0.0039691743
0000c0 42 93 56 ba e6 7b 92 bb 04 f1 91 b9 4a 62 c1 bb
       -0.0008185395 -0.0044703363 -0.00027836126 -0.0059016095
0000d0 ef 22 2e ba 87 19 d2 bb 59 a9 26 3c e8 54 9f 3b
       -0.0006642779 -0.0064117345 0.010172212 0.0048624165
0000e0 cf fe 10 bc 2a 9b 66 3c e6 11 00 39 1e 59 0b 3c
       -0.008849814 0.01407508 0.00012213699 0.008505134
0000f0 af 04 7b bc ff 93 75 3b e2 f0 be bb fd 78 d5 bb
       -0.015320941 0.0037472246 -0.0058270553 -0.006514667

transformer.encoder.layers.0.linear1.weight f4 [256, 64]
000000 e9 e5 35 bd a2 34 e7 bd f2 95 49 3c 53 42 82 bc
       -0.044408713 -0.11289336 0.012303816 -0.015900766
000010 c3 6a 99 3c 50 f9 88 3b 59 9f 76 3c cc 7d 53 3d
       0.018727666 0.004180111 0.01505264 0.05163364
000020 ec 49 cd bd c0 fb f0 bd c7 f9 a7 3d cb a6 60 3d
       -0.10023865 -0.117667675 0.08201938 0.054846566
000030 1f dd 2c 3e b8 28 15 be 13 82 17 3d 09 43 9c bd
       0.16881226 -0.14566314 0.036989283 -0.076299734
000040 41 2e 41 be fb 83 ea 3c 41 a2 de bd 12 86 e8 bb
       -0.188653 0.028627386 -0.10870791 -0.0070960606
000050 53 b3 94 bd 66 11 8d 3d 18 75 bd 3d 0e e1 b0 bd
       -0.07260766 0.06888084 0.092508495 -0.08636676
000060 96 c3 54 3d ea d6 68 bd c4 b7 90 bd 23 c4 14 3d
       0.051944338 -0.056845583 -0.070663005 0.036319863
000070 f5 36 e0 3d 78 ca a0 3c 90 9a e5 3d 1c c9 ca 3d
       0.10947982 0.019627795 0.11211121 0.0990164
000080 37 53 2b bd 7c d5 aa bd 9e cf 36 bc a4 29 b5 3d
       -0.041827407 -0.083415 -0.011157898 0.08845833
000090 74 ce c8 bd 31 a7 d7 3d 4f 32 04 3e eb e3 9f 3c
       -0.09805003 0.10529936 0.12909816 0.01951786
0000a0 53 25 82 3b a3 96 0b 3e 27 e6 df b8 c1 e2 21 bd
       0.0039717345 0.13631682 -0.00010676338 -0.03952289
0000b0 bb 0e 67 3d e3 bf 72 bd 75 1e cf 3d 39 3d e7 3b
       0.056410532 -0.05926503 0.10113231 0.007056859
0000c0 65 90 30 3d 8b a6 06 3e 40 67 03 be 7a 7d 42 3d
       0.043106455 0.13149469 -0.12832355 0.047482945
0000d0 9c 76 8e 3d 7c ee dd bd 32 4d c4 3d 4a 71 e6 bd
       0.06956217 -0.10836503 0.09585036 -0.11252077
0000e0 03 a4 ee bc 26 0c db bd f1 88 d3 3d 85 9e 10 3e
       -0.029130941 -0.106956765 0.10328854 0.1412297
0000f0 2e ac 4c 3d ae 4f 07 be c9 0f c7 bd 1f e9 33 bc
       0.04996889 -0.13213989 -0.09719808 -0.010980873
000100 6c cd 3d 3d cd 8b 5a 3d 73 90 94 bd 11 c7 0e 3e
       0.046338484 0.05335598 -0.07254114 0.13943125
000110 9b ad fb bb 59 00 93 bd 70 20 2f bc dc b2 b3 3d
       -0.0076806075 -0.07177801 -0.010688886 0.08774349
000120 aa 8c 8c bd e4 db 04 be 24 ce f8 bc 2c 9c 44 3d
       -0.06862767 -0.12974507 -0.030371733 0.0480005
000130 b4 22 e3 3d 1f 2b d0 3d 60 93 60 3c 7b 5f 05 be
       0.110906035 0.10164475 0.013707012 -0.13024704
000140 08 36 ca bd 77 12 8f 3d 6c 4b 45 3c 69 f7 8a 3c
       -0.09873587 0.06985944 0.012041908 0.016963677
000150 7c 16 c3 3d 7a 14 f2 bd 03 b7 87 3d 6d e9 13 be
       0.09525773 -0.11820312 0.066267036 -0.14444514
000160 2c 4d d1 3c a5 5b e1 3d 16 ff 3d 3d 1e f4 fc 3d
       0.025549494 0.11003808 0.046385847 0.12351249
000170 08 cc ad 3d aa a8 cf 3b cd 4e c9 3d 1f ce d4 bd
       0.084861815 0.006337245 0.09829483 -0.10390877
000180 cc 29 da 3d 97 13 ac 3d 2d 82 2f bd ec bd a2 bb
       0.10652503 0.08402174 -0.042848755 -0.004966488
000190 02 f2 11 be 0f c8 e4 bd 32 99 d2 3d 66 98 b4 3c
       -0.14252475 -0.11170971 0.10283126 0.022045325
0001a0 81 1f 0c 3e ea 8f 0d 3d 25 85 dd 3d 2c 73 71 bd
       0.13683893 0.034561075 0.10816411 -0.058947727
0001b0 83 07 8f 3d 2e f8 72 3d b6 1a 74 b9 ac 6f 91 bd
       0.069838546 0.059318714 -0.00023279604 -0.07101378
0001c0 21 09 a2 3d 3d 5e 98 bd 0d 5b 82 bd e2 1f f0 3c
       0.079118975 -0.074398495 -0.06365023 0.029312078
0001d0 36 a3 1c 3d 38 f2 82 bd 40 80 1c bd 69 9b 4b 3d
       0.038241588 -0.06393856 -0.038208246 0.049708758
0001e0 ed 19 00 bc 39 6b a9 bd 21 f2 ec 3d a3 cb 18 3e
       -0.007818681 -0.08272404 0.1156962 0.14921431
0001f0 40 29 d2 bc 98 38 11 be 60 bc 7a 3d 69 f5 6e 3d
       -0.025654435 -0.14181745 0.061214805 0.05833951
000200 84 39 a8 3d 1a 56 0c 3d eb 04 89 bd 6c e7 b6 bd
       0.08214095 0.0342618 -0.06690391 -0.08930859
000210 ec 48 a6 b9 49 77 0b bd ac f6 bb 3d 0d 01 12 bb
       -0.00031716318 -0.034049306 0.09177908 -0.0022278458
000220 a2 a0 aa 3d 40 db c6 3d ff aa 9a 3d 9a 65 9d 3a
       0.083314195 0.09709787 0.07552146 0.0012008429
000230 22 26 ef 3d a0 44 83 bd d6 81 e3 bd 42 31 1d 3d
       0.11677195 -0.064095736 -0.111087486 0.038377054
000240 87 5c ba bd 7c 84 ed 3d da 4c 78 3d 64 5d 6a 3d
       -0.090996794 0.11597535 0.060620166 0.05721797
000250 4f dd e1 3c 4a 2a a9 3d c7 fd 07 3d 68 f9 9d bc
       0.027571348 0.08260019 0.033201005 -0.019283965
000260 cb 71 4a 3d 89 0f c2 bd 59 35 2e bc be d0 c6 3d
       0.049424928 -0.09475619 -0.010632836 0.09707783
000270 90 86 fe bc d1 66 bc 3d 23 52 b0 3d c1 88 c5 3d
       -0.031070024 0.09199298 0.08609416 0.09645224
000280 3b 07 06 bd 3d 1e d6 3d 01 3d 6b bd 0b 8e 4f 3d
       -0.03272174 0.10454986 -0.057431225 0.050672572
000290 99 be 2d bd 1a aa b1 bd 52 d2 83 bd 1d ac d3 3b
       -0.042418096 -0.086750224 -0.064366 0.0064597265
0002a0 0f d6 29 3c d4 86 e2 bd 93 a9 ff 3d 25 b6 8d bd
       0.010365977 -0.11060873 0.124835156 -0.06919507
0002b0 86 1f e8 3d c2 50 36 3d 07 3c 06 be e7 6f 05 be
       0.113341376 0.04451061 -0.13108836 -0.13030969
0002c0 4d fe 45 3c 49 db c4 bd 2b b5 00 3e ab 7c 3d bd
       0.012084556 -0.09612138 0.1256911 -0.04626147
0002d0 8c 9b df 3d 27 f6 7c 3b 93 f2 af bd 5b 26 96 3c
       0.1091834 0.0038598867 -0.08591189 0.018328836
0002e0 e7 69 96 bd 1c 2a 10 be 6a c2 da bd 71 c6 b2 bd
       -0.07344418 -0.14078563 -0.10681613 -0.08729256
0002f0 43 d0 f6 3d 14 21 01 3e ab 80 2f 3d 80 6f a6 bd
       0.120514415 0.12610275 0.042847317 -0.08126736
000300 d0 5b df bd d1 79 53 bd 78 ba 26 be 61 de 24 bd
       -0.10906184 -0.051629845 -0.1628207 -0.04025114
000310 d1 18 e3 bc 84 09 13 bd 29 2f 5e bd a0 0e ff 3d
       -0.027721794 -0.035897747 -0.054244194 0.12453961
000320 f4 f8 d2 3a 14 92 33 bc c8 fb e4 3c 25 74 db 3d
       0.0016095922 -0.010960121 0.02795209 0.10715512
000330 34 45 0a be 51 5e 13 3b 72 2b ed bd c1 4f 2f 3e
       -0.13502961 0.0022486637 -0.11580552 0.17120267
000340 8c 48 4c 3d 88 9e 0a 3c 17 94 26 3e f6 ed 98 3d
       0.049873874 0.008460648 0.1626743 0.074672624
000350 26 16 27 bd 52 2a f8 3d 73 76 87 3d f0 fd e1 bd
       -0.040792607 0.12117447 0.06614389 -0.11034763
000360 af 33 e2 bd 20 23 9b 3d 82 17 9c 3c 26 05 54 bd
       -0.11045014 0.07575059 0.019054178 -0.051762722
000370 9a 49 70 bd 1c f5 93 bd 21 21 99 39 4d ac 74 3d
       -0.058663942 -0.07224485 0.00029207117 0.05973463
000380 dd 09 fa 3d 03 81 a5 bd 60 3a 55 3d ab 6b 15 3e
       0.122089125 -0.08081248 0.052057624 0.14591853
000390 10 97 12 bd 74 71 67 3a 13 9c 0d 3e a9 94 a3 bd
       -0.035788596 0.00088288565 0.13829069 -0.07987339
0003a0 b3 81 14 bd 8d 4a 92 3d 9d fa c1 bd 96 eb 03 be
       -0.036256503 0.07143126 -0.09471629 -0.12882838
0003b0 74 86 bb 3c d5 aa 2e 3c c8 91 2a bd 0e 76 3f 3d
       0.02289126 0.010660847 -0.041642934 0.046743445
0003c0 14 63 c6 bd ef f0 0d be 20 67 d0 bd ac a5 96 bc
       -0.096868664 -0.1386144 -0.101759195 -0.018389545
0003d0 e1 cf ad bc c1 7b ff 3d ea 5b 1c 3b ac 81 ee 3c
       -0.021217288 0.12474776 0.0023858496 0.029114567
0003e0 b2 8e cb 3c 63 b1 f3 3d 05 32 5a 3d af 55 16 be
       0.024848316 0.11899068 0.05327036 -0.14681123
0003f0 5f 90 04 be e1 18 16 bd a6 e3 ca bc 19 b8 30 be
       -0.12945698 -0.03664482 -0.024766754 -0.17257728
