pythiatransformer/transformer_model_true.pt (torch, 980162 bytes, 68 tensors)

input_projection.weight f4 [64, 34]
000000 58 ec fd bd ba 9c c8 bc ab dc 2b be 84 ad 37 3e
       -0.123985946 -0.024488796 -0.16783397 0.17937285
000010 fd 23 34 3d c9 d6 16 be e6 3e 1b bd 95 d2 c7 bd
       0.043979634 -0.14730372 -0.03790178 -0.09756962
000020 26 20 4c bd 49 fd 1d 3e 56 a0 7d bd f6 ac 8c 3d
       -0.049835347 0.15428652 -0.061920486 0.06868927
000030 1d c4 5d bd ac 88 91 bd 4a 53 9f 3d d3 8e 47 3c
       -0.054142106 -0.07106146 0.07779558 0.012180048
000040 ee 9f 4c 3c fe 2c 74 3d 7d bf cd bd 37 6d 47 3e
       0.012489302 0.05961322 -0.10046289 0.19475256
000050 0f 93 c6 3d be 11 99 bd b6 ad 7b be a6 cf 71 be
       0.09696018 -0.07474087 -0.24577984 -0.23614368
000060 10 95 9c 3d 26 ee 0c 3d 0a e6 27 3c d4 86 a4 bd
       0.07645619 0.034406804 0.010247717 -0.08033529
000070 94 66 2c be 70 90 29 bb a8 f6 6d bc e1 83 12 ba
       -0.16836005 -0.0025873445 -0.014524139 -0.00055891095
000080 80 51 63 bb 9b 00 55 3b 97 f3 3a be ce 24 a7 b8
       -0.003468603 0.0032501582 -0.18256985 -7.970036e-05
000090 42 3e c0 3d d1 19 c9 3d a5 1c 8e 3d 2e 64 d3 3d
       0.09386875 0.09819377 0.06939057 0.10321842
0000a0 c8 73 5d 3e f6 59 02 3d 72 e5 02 bd 2a 64 cc 3d
       0.21626198 0.031824075 -0.031957097 0.09980042
0000b0 14 55 35 bb 11 00 a0 3d dd 48 fb bd a4 c1 e3 bd
       -0.0027669119 0.07812513 -0.12269757 -0.111209184
0000c0 bb 85 c6 3d e0 10 0f be ca 6b 90 bd f3 f5 88 bd
       0.09693476 -0.13971281 -0.07051809 -0.06687536
0000d0 af f5 c2 3d bf f7 06 bd 88 5a 16 3e 97 7c 54 bd
       0.09519517 -0.032951113 0.14682972 -0.05187663
0000e0 bd 5f 97 3e 0d ee 4c 3e d6 b3 1b be 79 1b 35 bd
       0.2956523 0.20012684 -0.1520532 -0.044215653
0000f0 09 36 54 3e 26 77 a2 bc bb c8 1d be be 0b 78 3d
       0.20723738 -0.019832205 -0.15408604 0.060558073
000100 97 0e 15 bd dd 35 e8 bc 24 11 0b 3d 66 8e 44 bb
       -0.036390867 -0.028345997 0.033951893 -0.0029992103
000110 34 5f 84 bd 84 9e ca 3c 72 2e 9e be ec 7c 83 be
       -0.06463471 0.02473379 -0.3089481 -0.25681245
000120 7f 17 61 be f0 dc df bd 03 cc 3a be bb 64 0f 3e
       -0.2198162 -0.10930812 -0.18241887 0.1400327
000130 fe ac 30 3e f0 ab 09 be 50 a8 8f 3d ea 72 93 3d
       0.17253491 -0.13444495 0.07014525 0.071996525
000140 55 7b 72 bd 63 26 18 be e9 bf 83 3d d6 55 00 be
       -0.05919965 -0.14858393 0.06433088 -0.12532744
000150 69 51 50 3d 77 66 56 bd 56 8b 16 be da 68 9c 3e
       0.05085889 -0.05234381 -0.1470159 0.30548745
000160 ed e9 98 3e 67 3e 90 3e 69 5d 9d 3d 6c 5a 9c bd
       0.2986597 0.2817261 0.07683832 -0.07634434
000170 e2 ab dc bd d6 43 8c be 5f 57 82 3c d1 f1 6d 3e
       -0.107749715 -0.27395505 0.015910802 0.23236777
000180 77 71 f4 3d bd c5 1f be a2 04 ef bd 21 2a 9b ba
       0.11935704 -0.15602775 -0.116708055 -0.0011838117
000190 b4 60 28 bb da e3 04 3c 8f fd 1b be cd df b2 3d
       -0.0025692405 0.008110965 -0.15233444 0.08734093
0001a0 15 74 02 3e a1 d1 43 be 79 72 87 3e 16 da cf 3e
       0.12739594 -0.19122936 0.26454523 0.40596074
0001b0 ca ff 6e 3e 3e 5e 9c 3e a9 eb 82 3e 31 0d ab 3d
       0.23339763 0.3054065 0.2557042 0.083521254
0001c0 36 36 1a bd f9 b6 21 3d fd d7 98 3d c0 ce 7b bc
       -0.037649356 0.039481137 0.074630715 -0.015369117
0001d0 d1 23 39 3d fc 7f aa 3c 16 43 f9 bc 63 74 47 bd
       0.045200173 0.02081298 -0.030427497 -0.04869498
0001e0 fe 95 f5 3d 6c 73 4e 3d a0 54 c0 3d 67 45 9d bc
       0.11991499 0.050403044 0.09391141 -0.019198133
0001f0 d8 3a fa 3e bb a1 aa 3e d6 0c 21 3e cd 72 f3 bd
       0.4887302 0.33326516 0.15727553 -0.11887131
000200 5c ba 9a 3d 9e 0c 77 bd bb 98 aa bd 4f 5b 55 3e
       0.075550765 -0.060314767 -0.08329912 0.20835613
000210 42 d2 3a be 31 73 d9 3c 27 50 d7 bc 2e e8 0d 3d
       -0.1824427 0.026544185 -0.026283337 0.034645252
000220 a4 ab 70 be c4 0f 9e 3d 41 80 ab be 15 de 90 bc
       -0.23502976 0.07717851 -0.33496287 -0.017684022
000230 36 09 96 bd 93 d2 d0 3b ac 0d 23 be ed 00 70 be
       -0.073259756 0.0063727587 -0.15923184 -0.23437853
000240 38 fd 10 be 76 db 2a be 5c b6 1f be 34 90 26 bd
       -0.14159095 -0.1668528 -0.15596908 -0.040664867
000250 b1 fe 03 bc 49 70 12 bd 8e 30 87 3d 4a 83 12 be
       -0.008056329 -0.035751615 0.06601058 -0.14307895
000260 22 78 f7 bc 03 0e bb 3d 99 0d 3c be 4e 73 37 bc
       -0.030208651 0.09133532 -0.18364562 -0.011196924
000270 3d 0f 07 3e ad 62 5b be 26 92 a6 3c 21 04 87 be
       0.13189407 -0.2142436 0.02033336 -0.26370338
000280 4a 98 11 bd 88 02 06 be a1 e5 49 be bb 70 dc 3d
       -0.035545625 -0.13086903 -0.19716503 0.10763689
000290 37 f6 80 be 6c b4 e3 3d 18 c4 d7 bd 83 7c c7 3a
       -0.25187847 0.11118397 -0.10535449 0.0015219603
0002a0 aa 4d 4d bb 2c 48 0e 3c 00 af e7 bd 48 69 88 3d
       -0.003132681 0.008684199 -0.113126755 0.06660706
0002b0 27 dd 2d 3e 62 12 b0 bd 82 eb f6 bd 4c b0 4b 3c
       0.16978894 -0.08597256 -0.12056638 0.012432169
0002c0 e7 68 f9 bc 93 d9 b7 bd 9d c4 d4 3c e9 8d b2 bd
       -0.03044553 -0.08977046 0.025972659 -0.087184735
0002d0 ff eb 6b bd 50 5d d8 bd f6 4c ec bd 84 66 ec 3c
       -0.05759811 -0.10564673 -0.11538117 0.028857477
0002e0 e4 04 3b 3d a5 f2 0b be 0c 44 ad bd 11 65 7d bd
       0.04565896 -0.1366678 -0.084602445 -0.061863963
0002f0 9f 6e d8 bd c4 21 c3 3b 44 da e8 bc 1e 86 26 3e
       -0.10567974 0.005954953 -0.02842439 0.16262099
000300 07 3b de 3d 5c 68 8c 3d 9a eb f5 bd fc 71 05 3b
       0.10851102 0.068558425 -0.12007828 0.002036213
000310 3b ac 01 be fd 14 65 bd 6c de 9b bd e2 93 f9 bd
       -0.12663357 -0.05592822 -0.07610783 -0.121864095
000320 12 1f 5b be d9 ca 2d bd 3c 11 23 bd af 4f 46 bd
       -0.21398571 -0.04242978 -0.039811358 -0.048415836
000330 08 0a ad bc 6f 02 33 3e f7 4b a4 bc ac 90 5f 3e
       -0.021122947 0.17481397 -0.020055754 0.21832532
000340 8d 58 a6 3e b7 0b 68 3d 75 20 bc 3e a1 ab 7c be
       0.32489434 0.056651797 0.36743513 -0.24674846
000350 20 e6 85 bd 54 4b e1 3d 64 d3 bc 3d c3 2d 03 be
       -0.065380335 0.11000696 0.09220007 -0.12810425
000360 96 6d bd bd d3 a2 cd 3c ac e6 c7 bc 28 ff 96 bd
       -0.092494175 0.025102055 -0.024401985 -0.07372886
000370 cc c2 88 bb 46 6b 98 3d 6a 06 83 bb dd 0b 8e bc
       -0.004173612 0.07442336 -0.0039985674 -0.017339641
000380 8a 4e 91 3d d7 74 3f be cc 15 96 bd ef f6 1d be
       0.07095058 -0.18696915 -0.07328376 -0.15426229
000390 84 76 a9 3d 09 58 83 bd e1 82 eb 3d 87 ca 2f 3e
       0.08274558 -0.06413276 0.114995725 0.17167102
0003a0 58 0b 46 be 6b 04 97 bd f3 c9 e6 3c 59 3f 38 ba
       -0.19340265 -0.073738895 0.028172469 -0.00070284825
0003b0 e1 fa 92 bb a8 ae 47 3c bc 67 c1 be d1 05 80 be
       -0.0044854735 0.012187637 -0.37774456 -0.25004438
0003c0 c1 df 56 3e 3b 33 b4 bd 2b 54 b8 3d 68 82 99 be
       0.20983793 -0.08798834 0.09000429 -0.29982305
0003d0 de 38 0a 3c e9 97 4f bd a0 07 09 3d c0 68 04 be
       0.00843641 -0.050681982 0.033454537 -0.12930584
0003e0 40 58 d5 bd c0 c1 ca bc 8d 96 76 3d f0 8a ad bc
       -0.10417223 -0.02475059 0.06020217 -0.021184415
0003f0 eb 64 ae bd 3e ab 95 3d 45 6c d6 bd 98 6e ce bd
       -0.08515342 0.073080525 -0.104698695 -0.10079688

input_projection.bias f4 [64]
000000 f9 06 08 be 92 e1 1f bc 11 c8 4a 3c 77 e9 1e 3e
       -0.1328391 -0.00975837 0.012376801 0.15518747
000010 45 e2 1d be 8e 8a cc bc f6 54 e0 3d 97 fc 02 be
       -0.15418346 -0.024968412 0.10953705 -0.12791668
000020 5f a0 3f 3d 09 30 98 3d 5f 1f 60 be 46 5e 00 be
       0.0467838 0.07431037 -0.21886967 -0.12535962
000030 40 32 db bc 6f 28 1d bd e1 4a eb bd ff 47 33 3e
       -0.02675736 -0.03836864 -0.114888914 0.17507933
000040 15 94 2a be ac 5d 4d be 62 54 2a 3e 5c 0d a2 bd
       -0.16658051 -0.20055264 0.16633752 -0.07912704
000050 99 16 1a 3d a2 d0 23 be b3 b7 17 3e 95 c5 45 be
       0.037619207 -0.15997556 0.1481617 -0.19313653
000060 40 03 63 bd 37 33 d3 3c 18 cd 7c 3d 1e 4c c4 3d
       -0.05542302 0.025781257 0.06171903 0.09584831
000070 f5 cb 20 bd e0 ee d9 3b e4 9d 31 3e e6 60 56 bd
       -0.03925701 0.0066507906 0.17345387 -0.052338503
000080 c1 5b fe bc 01 c6 08 3a 6c 47 e9 bd 16 3b 10 be
       -0.031049611 0.0005217493 -0.11390576 -0.1408504
000090 c2 06 e6 bc e5 9f a0 3d fa b3 14 3e 5c fe 22 3e
       -0.028079394 0.078429975 0.1452178 0.15917343
0000a0 62 fb be 3c 32 6d 7c 3d fb 7c bd b9 92 dd 3e 3d
       0.023313228 0.061627574 -0.00036142007 0.046598025
0000b0 fb 13 06 bd 39 0b 48 3c 64 79 58 3d ed b7 14 be
       -0.0327339 0.012209707 0.052850142 -0.14523287
0000c0 32 06 e5 3c d3 f0 8e bd 09 28 07 bd 68 c6 16 3e
       0.027957056 -0.06979527 -0.032997165 0.14724123
0000d0 ca 9e 13 bc 50 7e 39 bc d0 c0 10 3e e1 27 b5 3d
       -0.009010026 -0.011321619 0.14136052 0.08845497
0000e0 f5 96 15 bd 03 85 94 3d c1 b5 75 bd 82 ee 38 3d
       -0.036520917 0.072519325 -0.059987787 0.045149334
0000f0 4e 29 74 bd 85 d9 c1 3d 08 fe ea bd 08 92 fc bc
       -0.059609704 0.09465317 -0.11474234 -0.030831352

output_projection.weight f4 [34, 64]
000000 9c f0 a2 be ba df e5 bd e1 cc 90 bd 4b 84 93 be
       -0.31824195 -0.11224313 -0.070703276 -0.2881187
000010 38 bf 4b be b6 0f 33 be b9 d0 48 bc cf 25 0c bf
       -0.19897163 -0.17486462 -0.012256795 -0.5474519
000020 71 97 91 3e 5e 74 99 3e 5f 3b a9 3e b8 94 5c 3e
       0.28435853 0.29971594 0.3305311 0.21541107
000030 19 91 db 3e 6e ce 32 bd c4 0b 49 3e 52 da 43 be
       0.42884138 -0.043653898 0.19633394 -0.19126251
000040 ae ec 82 3e 2f b3 cc 3e 84 97 12 3e 2f d5 16 bd
       0.25571197 0.39980456 0.14315611 -0.0368244
000050 69 e4 c4 be ce 9f 81 be 2c 8d 0b 3f 96 6f 27 3e
       -0.38455513 -0.25317234 0.54512286 0.1635116
000060 cc 80 62 3e 4f 9f a8 3e 81 3e 3f bd 09 a3 6b 3e
       0.22119445 0.32934043 -0.046690468 0.23011412
000070 82 37 2f be 77 ed f9 3d a5 db 0a 3e 26 2a 5a 3e
       -0.17111018 0.12203496 0.1356035 0.21305141
000080 33 ea 32 3d 30 1c 61 3e 11 fb 8a 3e 32 7e 96 bd
       0.04368038 0.21983409 0.27144673 -0.073482886
000090 06 65 af 3d e4 f9 a2 3e e7 d6 64 be 27 aa 84 be
       0.085641906 0.31831276 -0.22347604 -0.25911066
0000a0 6e d5 17 3e 33 65 c2 3e 74 a4 8f 3c 96 c9 ac 3e
       0.1482751 0.37967834 0.017534472 0.33747548
0000b0 da 15 93 be ba cf 45 be 1f b0 e2 be 7a dc 1c 3e
       -0.2872761 -0.19317523 -0.44274995 0.1531848
0000c0 e2 53 8c be 34 57 1c 3d 68 bd 21 be 47 ec f2 3d
       -0.27407748 0.0381691 -0.15794909 0.118614726
0000d0 7c c1 bd bc f7 d4 d9 3b 78 91 35 be b0 4f b9 3e
       -0.02316355 0.006647702 -0.17731273 0.3619361
0000e0 4d 2f 90 be a0 87 b2 be ef 9f b4 3b eb db 84 3e
       -0.28161088 -0.348691 0.0055122296 0.25949034
0000f0 88 d1 cd bd 9a 6f c5 be a3 6b e5 be 91 26 b7 3e
       -0.100497305 -0.38561708 -0.44808683 0.3577161
000100 6f a5 bc 39 d8 f4 6f bd f1 f0 9f 3d 51 7e 90 3d
       0.00035981412 -0.05858311 0.07809628 0.07055343
000110 a9 11 51 3e a2 b8 84 3e 52 09 46 3e cf 79 c6 be
       0.20416893 0.25922114 0.19339493 -0.38764808
000120 3b 31 0b 3d 46 09 19 3e 6a 24 2b 3f 88 30 85 3e
       0.033982497 0.14944944 0.6685244 0.2601359
000130 d2 c5 19 bf 4d 2b a8 bd 23 49 7b be 93 a8 0a 3d
       -0.60067475 -0.08211384 -0.24539618 0.03385217
000140 50 25 b8 3d d4 26 42 be 2c ec f7 be bb e2 8b 3e
       0.08991492 -0.18960124 -0.48422372 0.2732142
000150 c2 05 cf be 84 4a 1e 3e 60 6f d5 3e e3 ea 98 3e
       -0.4043408 0.15458113 0.41686535 0.29866704
000160 3e 5c d3 be 94 28 31 3e 1f 19 90 bd 75 75 7b bd
       -0.41281313 0.17300636 -0.070360415 -0.061391313
000170 3f dc 51 3e 07 36 f0 be f9 19 3b 3e 1d 31 88 be
       0.20494173 -0.4691622 0.18271627 -0.2659997
000180 da c0 1a 3e 4e d2 48 bc de 71 3d be 11 b5 f2 be
       0.1511263 -0.012257172 -0.18500468 -0.47403768
000190 87 5a 9f 3e 40 bf da be 6c 06 e8 3d b9 b6 1b 3d
       0.31123754 -0.42724037 0.1132935 0.038016055
0001a0 46 90 e3 3e e5 98 78 be 78 18 da bd 01 94 c6 3e
       0.4444601 -0.24277075 -0.10649198 0.38784793
0001b0 fd c2 34 be a2 ac f2 bc 02 c0 a2 be ce 0e 1c 3b
       -0.17652507 -0.029623333 -0.31787115 0.0023812535
0001c0 89 fa 63 3e 87 82 87 bc aa bb 5e 3e cd 6e 3e be
       0.2226354 -0.016541732 0.21751276 -0.18596955
0001d0 1e 53 e1 be b0 51 03 3f a2 eb 88 be 24 98 26 3f
       -0.44008726 0.5129652 -0.26742274 0.650759
0001e0 06 fb 1b 3e 1d 95 76 be f3 30 8a be ae 61 ae be
       0.15232477 -0.2408032 -0.2699047 -0.340589
0001f0 df 03 97 3e 8c 22 80 be 53 36 4b 3d 49 20 86 3e
       0.2949514 -0.25026357 0.049612354 0.26196507
000200 83 7e 21 bf b9 7b b1 3d bd 7f 20 bf 6a ac b8 3e
       -0.63083667 0.08666176 -0.62694913 0.36069041
000210 a0 b4 b7 be c3 42 08 3e 7e 7f 94 be 3e d9 54 3f
       -0.35879993 0.13306718 -0.2900352 0.83143985
000220 f4 a6 cf 3d 5e b4 50 be d4 f0 df 3d 53 27 cf 3c
       0.10139266 -0.20381305 0.10934606 0.025287306
000230 ae e8 0b 3f 2d b7 8c be 78 bc 95 3e a6 1a c1 be
       0.54651916 -0.27483502 0.29245353 -0.37715644
000240 44 8a 88 3c ec a7 60 bd 8a 91 ab 3e 9e ad 2b bc
       0.016667493 -0.054847643 0.33509475 -0.010478405
000250 31 17 95 be 09 47 b6 3d 64 83 36 bd 83 18 af 3d
       -0.29119256 0.08900268 -0.044558898 0.08549597
000260 9c fd bf 3e 15 9b 1e be 54 48 df bd 9b 76 52 3d
       0.37498176 -0.15488847 -0.10902467 0.051382642
000270 d4 82 35 3e e1 74 21 3e db e2 43 3e 36 7c 04 3e
       0.17725688 0.15767242 0.19129507 0.12938008
000280 09 ed 8b be 2a 54 1d be 25 c8 94 3e ea 9d a9 3c
       -0.2732928 -0.15364137 0.29058948 0.020705182
000290 95 84 5a be 85 8f 4c be c2 53 85 be fc dd 49 be
       -0.21339639 -0.19976623 -0.26040465 -0.19713587
0002a0 f2 bb aa be 83 09 94 3c 53 d8 ae 3d 0a 6c 94 3e
       -0.33346516 0.018070942 0.08537354 0.28988677
0002b0 ca bd c4 3e cb 05 dc 3d 14 22 c4 be fc 6c 7e be
       0.38426048 0.107432924 -0.3830725 -0.24846262
0002c0 c2 9f 8f 3e cc 88 9a bc e1 c0 51 3e 19 f5 50 be
       0.28051573 -0.018864058 0.20483734 -0.20405997
0002d0 a4 92 be 3e 6d 1a 29 bd 2e 85 dc bd 43 73 17 3e
       0.37221253 -0.041284967 -0.107675895 0.14790063
0002e0 30 91 02 3f ab 3c 82 be ce 2b 94 bd 23 ac a5 3e
       0.5100279 -0.2543691 -0.072349176 0.32357892
0002f0 0b ca 74 be 53 f6 e5 3d 21 70 a5 3e 21 3c 4e 3e
       -0.23905198 0.11228623 0.3231211 0.20140125
000300 a9 6c 72 3e e2 0c 29 3e bd 7d a9 be 0c 35 3f be
       0.23674263 0.1650882 -0.33103743 -0.1867258
000310 0c e9 0e bd 90 9a 16 3c 7c 94 94 3e 91 50 ee bd
       -0.03489022 0.009192124 0.29019535 -0.116364606
000320 8c ed fa bd bb b3 c1 3d d8 d9 9d 3e de e0 20 bd
       -0.1225234 0.09458109 0.30830264 -0.03927695
000330 ef 1d e8 bc e8 df 5c 3e 5d 26 c4 3d ce c2 88 3e
       -0.028334586 0.21569788 0.0957763 0.26711124
000340 f6 46 d2 be db a2 85 be 5a dc ac 3d 75 dc aa 3d
       -0.41069764 -0.2610081 0.08440466 0.0834283
000350 ba f4 96 be 5a 78 28 bd 1e ce 7d be 60 44 b9 3d
       -0.29483587 -0.0411304 -0.24785659 0.090462446
000360 d6 c4 79 be 3b 0e 6a be 77 98 ac bb e6 3c d7 bd
       -0.24391493 -0.22856991 -0.0052671987 -0.10509662
000370 9e 1d f7 3d 68 6c 40 3e eb 62 3d 3e 79 f5 e3 3b
       0.12066196 0.18791354 0.18494765 0.006956753
000380 e4 52 5f be 06 c1 19 3e 2b 05 a2 3d a6 18 5b 3d
       -0.21808964 0.15015039 0.07911142 0.053490303
000390 f0 bc 18 be 3b 63 2b 3e a6 18 26 3e 06 3e d4 bd
       -0.14915824 0.16737072 0.1622034 -0.103633925
0003a0 aa d7 94 bd 87 d4 2a bd 43 fb d2 bd 82 b2 a2 be
       -0.07267697 -0.041706588 -0.103018306 -0.31776816
0003b0 aa 3e 86 be 65 06 f9 bb 7d f8 ae 3e 89 47 e7 bd
       -0.26219684 -0.0075996392 0.34173957 -0.11292941
0003c0 38 fc 2c be b4 f7 17 bd 55 fc bb bd 18 ab 17 3d
       -0.16893089 -0.037101462 -0.09178988 0.037028402
0003d0 a9 83 f3 bd 61 62 d1 be 13 5a 0f 3d 99 46 07 3e
       -0.118903466 -0.4089537 0.03499801 0.13210525
0003e0 d7 d3 38 be 09 19 3c be c0 ff 5d 3d 9f fd 08 3e
       -0.1804956 -0.18368925 0.05419898 0.13377999
0003f0 6c 1a 45 3e 0c 18 77 3e bc a3 6b 3d 38 09 64 3e
       0.1924836 0.24130267 0.057529196 0.22269142

output_projection.bias f4 [34]
000000 6e f7 ae bd f9 5c ce bd 04 0b b4 3d e8 1a 8a 3d
       -0.08543287 -0.10076327 0.087911636 0.06743413
000010 4f bd 12 3c 3a 34 da bd b2 2e cf bd b0 e5 83 bd
       0.0089562675 -0.10654493 -0.10116328 -0.06440294
000020 a0 14 40 be e3 2f 0d be 4e 46 86 bd 9d c8 e5 bd
       -0.18757868 -0.13787799 -0.06556378 -0.112199046
000030 48 f5 3b bd ea cd 39 bd e9 8c 15 be 79 26 b0 bd
       -0.045888215 -0.04536239 -0.14604534 -0.08601088
000040 f3 10 28 be 51 4b 18 be bb 62 0a bd 6d 3c f5 bc
       -0.16412716 -0.14872481 -0.033785563 -0.02993604
000050 00 78 e9 bc f2 e6 21 3d 1a 90 0b be 81 58 61 bd
       -0.028499603 0.039526887 -0.13629189 -0.055016045
000060 0f 4e f4 bd eb 4c 36 3e ef 3f 38 bd d9 95 2b 3e
       -0.11928951 0.1780278 -0.044982847 0.16756381
000070 09 f5 d1 3d 2d 93 34 3e f2 46 ba 3d 2e 82 eb bd
       0.10251815 0.17634268 0.09095563 -0.11499439
000080 89 cb 7e 3b 23 ab 07 bd
       0.003887864 -0.033122193

transformer.encoder.layers.0.self_attn.in_proj_weight f4 [192, 64]
000000 4d a9 87 3d 7f 3e cf 3b c2 0e 3b bd 5c 97 12 3d
       0.066240884 0.006324589 -0.04566837 0.03578888
000010 c6 5d 2b 3e 21 d7 e8 3d cf 2b 99 3d bc 9f c5 bd
       0.1673499 0.113691576 0.07479059 -0.096496075
000020 98 3f 10 3e bf 86 b2 bd a2 58 a4 3d 87 09 d8 bd
       0.14086759 -0.08717107 0.08024718 -0.10548692
000030 2c c2 b7 bd b4 58 de 3d 7b c7 68 bd 18 54 d6 3d
       -0.08972582 0.108567625 -0.056830864 0.10465258
000040 41 ef 57 3d 96 a5 a7 bd 5d a6 f7 bd 29 f0 03 bd
       0.052718405 -0.0818588 -0.12092278 -0.032211456
000050 7b ae 7c bc e1 8a a2 bd 9e ec f7 3d 9b 5c ba bc
       -0.015422459 -0.07936645 0.12105678 -0.022749236
000060 9a 15 02 3c 5e 8c f1 bd a7 30 05 3b 70 cb a6 bd
       0.0079397205 -0.11794351 0.0020323189 -0.081442714
000070 85 dc a3 3c 36 5c 74 3d e5 1e f4 3c cb 30 8e 3d
       0.020002613 0.05965825 0.029799888 0.069429
000080 33 cd 0b 3e e1 0e 71 bc 22 ad 09 be 2a 7a aa 3d
       0.13652496 -0.01471302 -0.13444951 0.08324082
000090 98 f7 07 bd 8b a3 fc bd 89 09 de 3d cf b4 9f 3d
       -0.03319511 -0.12335881 0.108416624 0.077981584
0000a0 6f 90 e1 3d 41 15 29 3e 38 74 3d 3d cd 97 aa 3d
       0.11013877 0.16512014 0.046253413 0.08329735
0000b0 41 c3 89 3c 15 67 54 bd 17 cb 32 3d cb 30 23 be
       0.016816737 -0.05185612 0.043650713 -0.15936582
0000c0 b0 12 7d bd e2 d7 d1 3d 7d 03 d4 bd 46 43 a2 bd
       -0.0617854 0.102462545 -0.10352228 -0.07922988
0000d0 c0 e2 16 3e d6 de dc bb a6 0d 91 3b 63 bc 5b 3d
       0.14734936 -0.0067404313 0.004426676 0.053646456
0000e0 a5 56 5d bd 1d e8 8a bd 6d f1 10 3e 55 dc a4 bb
       -0.05403771 -0.06782553 0.14154597 -0.0050311484
0000f0 e8 06 fc bd 04 07 10 3b 3e db 18 3e dd 5b c2 3d
       -0.12306005 0.0021976838 0.14927384 0.09490178
000100 5b 67 bd bd 95 a8 07 bd fa 8b 0f 3e 13 c7 0e 3e
       -0.09248229 -0.033119757 0.1401824 0.13943128
000110 cb 3d 1b 3e 1e d2 ac 3d 06 60 5b bd d9 d2 9c bb
       0.15160291 0.08438514 -0.053558372 -0.004785877
000120 6f 4e 29 3c 66 1f 13 bc 4c 7b 04 bd 5e 9d 14 be
       0.010333641 -0.008979654 -0.032344148 -0.14513156
000130 ee 24 16 be ce 55 fb 3d 98 2d ac bd bf 2c 87 3c
       -0.14662525 0.12272225 -0.08407134 0.016500829
000140 82 74 32 3d ca b0 96 3d 2e 46 c0 bd f5 39 c4 bd
       0.04356814 0.073579386 -0.09388386 -0.09581367
000150 00 69 eb 3d e5 ce 06 bd 4b af d7 bd 10 ac 35 3d
       0.114946365 -0.032912154 -0.10531481 0.044353545
000160 c0 8f c4 bc e2 60 23 bd 9d 3f 08 3e ff 12 00 be
       -0.023994327 -0.039887317 0.13305517 -0.12507246
000170 72 5f 11 3e 97 f2 b7 bd 00 86 0b 3e ce dc d8 3d
       0.14196566 -0.08981817 0.13625336 0.1058899
000180 e6 06 09 3d cc 00 6e 3d ec 32 1f 3e d8 1c e8 bd
       0.033453844 0.05810623 0.15546769 -0.113336265
000190 7e a5 18 3e 99 0b dc 3c 27 14 ac 3d 6d e3 f5 3d
       0.1490688 0.026860999 0.08402281 0.12006269
0001a0 24 e0 80 3d 8a c4 cf 3d 09 80 69 bb 03 ec 1a bc
       0.062927514 0.10144909 -0.0035629293 -0.009455684
0001b0 e8 31 f3 bd 53 62 13 3e 38 65 ca bd 1e ca 2a be
       -0.11874753 0.14392976 -0.09882587 -0.16678664
0001c0 73 89 ae 3c 89 98 b6 3b ef 3f 5e 3d 37 1f 48 bd
       0.021305775 0.005572383 0.05426019 -0.048857894
0001d0 5c 82 13 3d 45 93 36 bd 0a cf d9 bd 36 ee 75 3d
       0.036012992 -0.04457404 -0.10635193 0.06004163
0001e0 57 4b de 3d 4e ea bf 3c d4 de df bd b4 8b ed bc
       0.10854214 0.023427155 -0.10931173 -0.02899728
0001f0 48 dd c1 3d 7d 49 9a bd 9d a8 b6 3d 98 f6 a9 bc
       0.09466034 -0.07533548 0.08918879 -0.020747468
000200 50 e9 c3 3b 2d 36 e9 3d 8e 9a 7e bd 96 f8 98 bc
       0.0059787408 0.11387286 -0.062159114 -0.018673223
000210 3e 77 b9 3d 83 2c 47 bc 99 3d 86 3c bb c7 2b bd
       0.09055947 -0.0121566085 0.016386794 -0.041938525
000220 d1 d9 4a bb 84 4f ac bd 6b 8c 0b bd 0b ad af 3d
       -0.0030952583 -0.08413604 -0.03406946 0.08577927
000230 04 78 86 3d a5 c5 f8 bd a6 c8 08 be 39 cd 46 bd
       0.0656586 -0.12147073 -0.13357791 -0.04853556
000240 3e 43 82 bd ef e0 40 3d 7a eb 13 bd 78 b9 f9 bb
       -0.06360482 0.047089513 -0.03611324 -0.0076209866
000250 9e 3d 6a bc 1e 01 09 3d 39 f5 b9 3c e6 a8 3e 3d
       -0.014296917 0.03344833 0.02269994 0.046547793
000260 86 61 bd bc 69 72 a2 3d a3 a2 ef bc 68 dc 6e bc
       -0.023117792 0.07931978 -0.029252356 -0.014578916
000270 eb be 06 bd a6 ad 02 be a8 45 c1 bd e1 ed 2b 3d
       -0.032896917 -0.12761554 -0.09437114 0.041974906
000280 27 09 8b bc be f4 10 3e 09 3e f6 3d 65 d2 33 3d
       -0.016972138 0.14155862 0.12023551 0.04390182
000290 82 64 38 3c 9d 96 10 3e 8a 7d 85 3d b8 53 c8 3d
       0.011254432 0.14119954 0.06518085 0.09781593
0002a0 14 44 82 3d d6 80 95 bd 92 04 9e bd 7d 1d e6 3d
       0.06360641 -0.07299964 -0.077157155 0.11236093
0002b0 77 d7 7d 3b e0 91 6a bd 1f 50 f7 bd f8 2c bd bd
       0.0038733163 -0.057268023 -0.12075829 -0.09237093
0002c0 91 36 4d bd 72 a6 ef bc 0b 87 4b bc b2 79 9e 3d
       -0.050100867 -0.029254172 -0.0124223335 0.07738055
0002d0 94 c0 fb 3d 46 5f 02 be 6a 94 10 3e e0 99 7f bb
       0.12292591 -0.12731656 0.14119115 -0.0039001629
0002e0 8c 00 84 bc fa 29 bd bd 68 23 e3 bd 10 29 1a bd
       -0.016113542 -0.09236522 -0.110907376 -0.037636817
0002f0 e8 21 68 bd 8d 66 1f 3e 67 43 eb bd ec ae bf 3d
       -0.05667296 0.15566464 -0.11487465 0.093595356
000300 a8 40 74 bd 49 22 d8 bd 18 bd 84 3d d7 b4 14 be
       -0.059631974 -0.105534144 0.06481379 -0.1452211
000310 33 42 1b 3d 40 c9 55 bd f7 7f 94 bb f5 ed 2d 3d
       0.03790493 -0.05219388 -0.004531856 0.04246326
000320 2a 8f 41 bd 38 89 9b 3c 19 95 78 bc 1d 56 05 3e
       -0.047255673 0.01898633 -0.015172266 0.13021131
000330 8f b6 d6 3d a2 33 13 3e b3 0e 0a be 6f 70 e7 bd
       0.10484039 0.14375165 -0.1348217 -0.11300742
000340 6c d4 a6 3d 05 67 71 3d 50 00 ce 3d ac 50 8c 3d
       0.08145985 0.058936138 0.10058653 0.068513244
000350 12 64 e2 3d a5 bf 4a bd 5f 70 e4 bd ed 64 0e 3e
       0.11054243 -0.049499173 -0.111542456 0.13905688
000360 30 d9 b1 bd fc c2 e1 bd 70 fc 0b 3e b2 45 0f be
       -0.08684003 -0.110235184 0.13670516 -0.1399143
000370 7a e0 b1 3d 4f e4 f1 bd 9c 3f 84 3d 37 92 12 be
       0.08685394 -0.118111245 0.06457445 -0.14313589
000380 40 35 0f be 97 dc 25 3d aa 5d e8 3a 2f 7b 05 bc
       -0.13985157 0.040493574 0.0017728109 -0.008147045
000390 44 b4 00 3e 5d 80 9b bd 78 5d 14 be 46 ac f1 3d
       0.12568766 -0.07592843 -0.1448878 0.11800437
0003a0 56 1b c0 3d 70 20 a6 bd ff be 99 bd c5 33 69 bd
       0.09380214 -0.08111656 -0.07507133 -0.056934137
0003b0 a8 c6 ae bd 06 29 94 3d 1d d0 09 3c bf e9 f6 bd
       -0.085339844 0.07234387 0.0084114345 -0.12056302
0003c0 3d 69 c3 bd 2b d1 ac 3c 5e db 5c 3d 17 63 1a be
       -0.09541557 0.021095833 0.053920142 -0.15076862
0003d0 04 d7 fd bb 97 cc f7 3d 75 ae c7 3d a7 49 cf 3d
       -0.007746579 0.12099569 0.09750072 0.1012147
0003e0 4d 01 52 bd 39 18 3d 3d 78 d0 d0 3d dd 50 03 be
       -0.05127077 0.04616568 0.10196012 -0.12823816
0003f0 56 d6 5a bd a8 b4 91 bd a0 c1 cc bd f0 88 54 3d
       -0.053427063 -0.071145356 -0.099978685 0.051888406

transformer.encoder.layers.0.self_attn.in_proj_bias f4 [192]
000000 72 5f 3d bc d7 88 27 bc 95 3d a1 3a 27 af c7 bb
       -0.0115584005 -0.010225496 0.0012301678 -0.006093878
000010 f7 25 d2 bb bd cf 1b 3c f6 9d 49 3c 13 8c ab bb
       -0.006413217 0.009509978 0.012305727 -0.005235204
000020 93 c5 13 3c 76 2b 46 bc 90 43 04 bd 35 ba 97 3c
       0.009019273 -0.012095323 -0.032290995 0.018521408
000030 b1 64 3d bd 56 5b b7 3c d1 f4 e1 bc 21 c2 8a bc
       -0.046238605 0.02238242 -0.027582558 -0.016938271
000040 95 4e 94 bb 95 d2 17 bc bc d4 11 3c 66 79 56 3c
       -0.0045259693 -0.009266515 0.0089008175 0.013090467
000050 b7 6b 41 bb 31 05 2c bc 71 dd 3c 3c e6 71 42 bc
       -0.0029513666 -0.010499285 0.011527405 -0.011867976
000060 3a 53 a8 3b ee 3a df 3b 47 52 c0 bb 03 9a b3 bb
       0.0051368745 0.006812445 -0.005869183 -0.005481006
000070 c7 96 14 bc f0 6d ad 3b 25 61 a9 bb 44 cc d2 3a
       -0.009069151 0.0052926466 -0.0051690512 0.0016082604
000080 6d 18 a8 bb 04 74 94 3b cc 59 5b 3b ce 74 ab bb
       -0.005129865 0.0045304317 0.003347027 -0.00523243
000090 50 61 7a 3b c6 03 c5 3b 38 0d b3 bb ba 4a 06 3b
       0.0038204975 0.0060124127 -0.0054642223 0.0020491318
0000a0 f5 1c ca 3b ed 0f c3 bc 4f 54 99 bc 65 2f 84 3c
       0.0061680027 -0.023811305 -0.01871696 0.01613588
0000b0 31 50 4b 3c ae 7a db 3b 9b 22 69 bc 43 85 bc 3b
       0.012409256 0.006697974 -0.014229442 0.0057531907
0000c0 5c 78 01 3b ba a0 3b bc 0c aa e0 39 2c 5a b9 3b
       0.0019755578 -0.011451894 0.00042851304 0.0056565013
0000d0 c2 13 33 3b bd a9 58 3b cf b6 3c bb 5b e1 ac 3b
       0.002732501 0.0033060156 -0.0028795486 0.005275888
0000e0 11 6d 2b 3c a1 62 5e bc 54 66 0b bc 69 c4 b5 3c
       0.010463015 -0.01357332 -0.008508284 0.022188382
0000f0 6b 22 d2 bc c9 4d f2 bc eb bf 89 bc bf 23 3d bd
       -0.025651177 -0.029578106 -0.016815146 -0.04617667
000100 6e c3 06 36 aa 9c 31 b6 99 9e 44 b5 c9 82 71 36
       2.008131e-06 -2.6466246e-06 -7.324648e-07 3.5987925e-06
000110 50 1d 64 35 8f 34 0a b7 e1 ca 81 b4 a3 00 07 36
       8.4979274e-07 -8.237678e-06 -2.4175736e-07 2.0116938e-06
000120 1b db 4b b6 3f e1 f3 36 82 9f f1 35 1d b4 1e b6
       -3.0376893e-06 7.2681864e-06 1.8002322e-06 -2.3648674e-06
000130 0c cd 5e 35 60 55 84 b5 fd c8 46 35 46 57 1f b5
       8.2999827e-07 -9.859614e-07 7.4053224e-07 -5.9359115e-07
000140 74 89 c2 36 83 7b 6c b5 4c e3 81 b6 89 93 b3 b6
       5.797652e-06 -8.8096584e-07 -3.8709604e-06 -5.351791e-06
000150 86 11 07 36 4d 86 af 35 39 cb f9 36 25 91 90 b5
       2.0126768e-06 1.3077603e-06 7.4444365e-06 -1.0771079e-06
000160 13 03 c6 b6 1a 3d 9c 37 b3 6b 54 b7 fc 3d c9 36
       -5.9012177e-06 1.8625102e-05 -1.266126e-05 5.9974827e-06
000170 4a 60 51 b6 b8 f9 34 37 b4 c5 c9 37 81 cd 6f 37
       -3.1199475e-06 1.0786978e-05 2.405313e-05 1.4293358e-05
000180 2a e5 dc 36 5c b2 1f b7 be f1 15 b2 ad 8f 4a 37
       6.583189e-06 -9.518666e-06 -8.727907e-09 1.207359e-05
000190 52 e4 16 37 e5 5a 97 b6 b5 1c 08 37 c3 7d b4 b6
       8.993857e-06 -4.510732e-06 8.112916e-06 -5.3790586e-06
0001a0 19 5d 82 36 2f ec ce b6 04 27 99 b6 52 56 b5 35
       3.88514e-06 -6.166774e-06 -4.5642973e-06 1.3510673e-06
0001b0 8d ad c6 b6 53 0e 6e b5 3d 2d 11 37 99 1c 09 b6
       -5.921064e-06 -8.8682754e-07 8.653206e-06 -2.0431237e-06
0001c0 9e f4 6d b6 9e f4 f9 36 38 68 4c b6 62 4d f4 35
       -3.5458138e-06 7.4492555e-06 -3.0459032e-06 1.8201938e-06
0001d0 4e 34 c4 b4 61 e0 a7 b6 f9 17 1b b6 35 f9 08 36
       -3.6545902e-07 -5.003109e-06 -2.3110754e-06 2.0410637e-06
0001e0 49 30 0c b7 f7 2f bc b5 f2 f5 40 b4 9f c8 3d b6
       -8.3558925e-06 -1.4021051e-06 -1.7970868e-07 -2.8279972e-06
0001f0 42 ae 16 37 03 02 9d 34 08 0c 9d 36 ca 92 02 b6
       8.981269e-06 2.9244993e-07 4.6803652e-06 -1.9456952e-06
000200 00 65 52 3d 65 a0 32 3c ea ec 59 39 34 bf 2d bc
       0.051365852 0.010902499 0.0002078299 -0.010604668
000210 7a d7 1e bd 7a e6 07 bc d9 81 b2 3b e0 04 43 3c
       -0.038779713 -0.008294696 0.005447608 0.011903018
000220 74 02 fe 3b 50 37 3f 3c 07 2f 43 3c cf 9c 3c bc
       0.0077517573 0.011670902 0.011913068 -0.011511995
000230 66 50 7c bc 76 74 e1 bc ce d3 ea bc 58 e6 85 bc
       -0.015400028 -0.027521353 -0.02866545 -0.016345188
000240 74 ed e1 bb eb af 81 bb 95 b4 2c 3c 8f 90 ff bb
       -0.0068947617 -0.0039577386 0.010541101 -0.007799215
000250 9e 8e 8c 3c cd 71 80 3c 46 a0 9a 3b c0 5a 09 bc
       0.017157849 0.015679264 0.004718813 -0.008383453
000260 93 27 d7 3b f8 63 a2 bc dc a8 1b bb ff 95 90 bc
       0.006565997 -0.01982306 -0.002375177 -0.017649649
000270 a3 bf fa bb fc 9f 30 3a 3a e4 68 3b 97 25 ab bb
       -0.0076522394 0.0006737707 0.0035536424 -0.005222987
000280 c3 44 fb 3b d0 62 6c 3b 43 d6 9e 3c 2f bf 63 3c
       0.007668109 0.003606964 0.019389277 0.013900562
000290 a9 6f 0f 3d 1d 4e 03 39 86 91 25 3c 5e 65 ce bb
       0.035018597 0.00012522233 0.010105496 -0.006298705
0002a0 8a 31 d5 b9 a2 c7 75 3c 59 02 0c bc 9c 9a 85 ba
       -0.00040663435 0.015001209 -0.008545482 -0.0010193172
0002b0 47 6e d2 bc ab 5c 43 bc d3 54 a8 bb a9 5c 56 bc
       -0.02568735 -0.011923949 -0.005137065 -0.013083615
0002c0 21 d7 7c 3c 17 8a 1c bc 52 ab bf 3c b7 5e 6c bc
       0.01543215 -0.009554408 0.023397122 -0.014426879
0002d0 d1 bc e2 3b 24 3e b6 bc 0d 12 dc 3a 7b 88 ba 3b
       0.0069194813 -0.022246428 0.0016790048 0.0056925393
0002e0 87 82 9e bc 6e 89 aa bb 62 7c ce bb b7 f2 5f bc
       -0.01934935 -0.005204371 -0.0063014487 -0.013668708
0002f0 b6 f8 e1 bc 25 51 c6 3a 06 0b 1b bc d8 6d 18 3d
       -0.027584415 0.0015130384 -0.009463077 0.03721413

transformer.encoder.layers.0.self_attn.out_proj.weight f4 [64, 64]
000000 53 23 07 3e fc 8e 5c 3e b8 e8 bf 3d 5b 2e 9f bd
       0.13197069 0.21538919 0.093705595 -0.077725135
000010 f7 30 00 3d 69 f7 28 3d b9 2e 46 3e f4 a5 4d 3e
       0.031296697 0.041251574 0.19353761 0.20082837
000020 16 80 a4 3d ca df 2f 3e 4e 50 a9 bd fb 4e 74 bd
       0.08032243 0.17175213 -0.0826727 -0.059645634
000030 d9 65 24 be e2 21 c7 3c 63 d6 c9 3d b1 ab b8 bc
       -0.16054477 0.024308149 0.09855344 -0.022542806
000040 e6 a4 fd bd 87 cd 8e 3d db 7c 18 be d1 bf 7d bd
       -0.123849675 0.06972795 -0.14891379 -0.06195051
000050 ee 53 3d bd 5e c5 ed 3c ca cf 6e be aa 43 a9 bd
       -0.04622262 0.029024776 -0.23321453 -0.08264859
000060 28 32 47 3e c6 9e 88 bd 91 f2 f8 3c cb 0b 20 bd
       0.19452727 -0.06670909 0.030389102 -0.039073747
000070 49 ba 09 3e 03 f9 4b be e6 be e3 3c 7c be 03 3e
       0.13449968 -0.19919209 0.027800988 0.12865633
000080 be 80 4c be 31 26 d9 3d 6e d5 93 3d 05 71 3c 3e
       -0.19970986 0.106029876 0.07218443 0.18402489
000090 cd 6e 5a 3d 96 8f 1d 3d d4 b6 0a 3e 80 2a e4 3d
       0.053328324 0.038467012 0.13546306 0.11140919
0000a0 96 10 a4 3d 4f b1 e0 3c 88 ae 19 3e a3 55 19 3e
       0.08010976 0.027428297 0.15007985 0.14974074
0000b0 58 e9 15 3d 5c 2d cd 3d 23 60 fb 3d 94 8d e5 38
       0.036599487 0.10018417 0.12274196 0.00010945942
0000c0 d4 f5 72 3e 97 e7 62 bd 86 5c a6 3c 8a 3e 22 3e
       0.23726588 -0.055396643 0.02030779 0.1584417
0000d0 29 21 9c bc 68 83 63 bc d5 a9 19 bc a2 f9 ab 3d
       -0.01905878 -0.01388631 -0.00937887 0.08397223
0000e0 b5 35 28 3e 54 78 e7 3d a7 ff e4 3d 72 ff 0a 3c
       0.16426738 0.11302248 0.11181574 0.0084837545
0000f0 11 dc ad bc 5f a4 02 3e 93 c3 09 be e8 4d 1b 3d
       -0.0212231 0.12758015 -0.13453512 0.037916094
000100 12 7c 2a be a6 60 c8 bd d0 aa 9d bd f7 cc 04 bd
       -0.16648892 -0.09784059 -0.076985955 -0.032422032
000110 f6 cd 5f bd 26 c7 01 3e 00 b3 43 3e d8 12 26 3e
       -0.05463978 0.12673625 0.19111252 0.16218126
000120 90 bf fa bb 05 65 16 be cd b3 16 3e 09 f6 0e be
       -0.0076522306 -0.14686973 0.14717026 -0.13961042
000130 e1 e4 8f 3b 59 62 9f 3d 9d 6d 05 3e 50 01 2e 3e
       0.004391298 0.0778243 0.13030095 0.16992688
000140 07 9c 2e 3d a5 8f 58 3e 05 67 b7 bd 4b 00 35 3b
       0.042629268 0.21148546 -0.08955196 0.0027618583
000150 47 ad 1d 3e 9c 46 80 bd 96 82 ed bd 5a 40 62 bd
       0.15398131 -0.06263468 -0.11597173 -0.05523715
000160 dc 74 24 3e 45 a0 33 3e 2f d8 fb bd 81 87 59 be
       0.16060203 0.17541607 -0.12297093 -0.21243097
000170 a3 65 5b bd b5 48 4e 3e 43 80 1d be 83 e6 3f be
       -0.053563725 0.20144923 -0.15380959 -0.18740277
000180 12 8d e1 bd 50 a7 e7 bd c3 5c 16 3e 92 cc dd 3d
       -0.11013235 -0.11311209 0.14683823 0.10830034
000190 8a d3 dd 3d ae 84 3b bd dc 13 f2 bd e8 fd 20 3e
       0.108313635 -0.04578083 -0.11820194 0.15721858
0001a0 73 50 38 be 99 97 34 3e 84 f2 48 3e 92 7b be 3d
       -0.17999439 0.17635955 0.19623762 0.09300913
0001b0 d8 8d 30 3e 0b 37 2f 3d 42 ef e1 bd 4b 52 41 bd
       0.17241609 0.042777102 -0.11031963 -0.04719762
0001c0 a7 b2 58 3c 93 63 e1 3d 61 13 03 3d fc f6 eb bd
       0.013226188 0.110053204 0.032000903 -0.11521718
0001d0 7a e2 e4 bc 8d 00 47 be 09 46 15 3d 63 9c c3 bd
       -0.027940024 -0.19433804 0.036443744 -0.09551313
0001e0 34 b4 04 be e4 b2 bc 3d 6c 7e 27 be 85 e7 a7 3d
       -0.12959367 0.09213808 -0.1635682 0.08198456
0001f0 df 3c c3 3d 51 fb 95 3d f3 48 08 3e 44 cb 4b bc
       0.095330946 0.073233254 0.13309078 -0.012438599
000200 d8 af 45 3e 64 8a 40 bd 3e 43 59 bd eb c4 0e 3e
       0.1930536 -0.04700698 -0.053042643 0.13942306
000210 97 23 e2 bd 8c 4a 70 3d d9 fd ea 3c b6 75 49 3d
       -0.110419445 0.058664843 0.028685497 0.049184524
000220 da 05 1a be 6b 89 d6 bd b6 49 64 3d a0 fa b5 bd
       -0.15041295 -0.10475429 0.05573436 -0.088856936
000230 58 81 00 be e3 f7 94 3d af 4e 28 3e 16 5a 02 3e
       -0.1254934 0.07273843 0.16436265 0.12729678
000240 eb c1 14 3e 0f 0b a6 3c b5 40 33 be 7c a2 61 3e
       0.14527099 0.020268945 -0.17505153 0.22034639
000250 fe 9e b6 bd 16 35 b1 3d f3 e3 2c be 6e 51 34 3d
       -0.08917044 0.086527035 -0.1688383 0.04402297
000260 91 61 53 be b8 07 32 3e 7f 83 91 3d da 95 42 3d
       -0.20642687 0.17385757 0.07105159 0.04750619
000270 d4 b2 d0 bb 0a 68 08 3e fe 92 57 bd 55 f5 e4 bd
       -0.006368974 0.13320938 -0.052630417 -0.11179606
000280 fa dc b0 bc 30 43 c3 3d 7e 2e 33 be 92 f9 97 bd
       -0.021589745 0.095342994 -0.17498204 -0.07420649
000290 e9 98 8b bd cd 12 21 3d 03 95 5a 3d 02 6c 0b be
       -0.06816275 0.03932457 0.053364765 -0.1361542
0002a0 ec c3 33 3d 81 d8 06 be 8b 8e 3d 3e 9d 4f 97 bd
       0.043888018 -0.13168527 0.18511407 -0.07388232
0002b0 dd c3 ee 3d c4 d5 3e be a3 94 71 3d f7 ae bb bd
       0.11658452 -0.18636233 0.05897964 -0.09164231
0002c0 fc 36 62 be 69 85 94 3d 1c 7e 10 be 6b 2b 45 3e
       -0.22091287 0.072520085 -0.14110607 0.19254844
0002d0 ae a8 17 be 39 ea b0 bc ba 9b 31 be 04 c6 2c 3e
       -0.1481044 -0.021596061 -0.17344561 0.16872412
0002e0 83 a3 f8 bc df 51 68 be ea c5 1b be 5c b3 2d 3e
       -0.030351406 -0.22687481 -0.15212217 0.16962951
0002f0 e6 78 ad 3d 1c c3 b6 bd 09 47 6a 3e 64 fe 20 be
       0.08470325 -0.08923933 0.2287866 -0.15722042
000300 f4 04 05 3d 72 a1 bf 3d e3 7a 15 be 3f 23 08 3e
       0.032475427 0.09356965 -0.14597659 0.13294695
000310 8e 4a dc bd 7f 28 06 3d 21 13 c1 3d ca a6 27 3e
       -0.10756408 0.032753464 0.09427477 0.16372219
000320 44 94 ee 3c a9 80 da 3d 03 13 fe bc 39 e4 92 3d
       0.029123433 0.10669071 -0.031014925 0.07172436
000330 25 a2 41 be 2f 01 a1 bd bf 5f 51 be d8 97 a4 3c
       -0.1890951 -0.07861554 -0.2044668 0.020091936
000340 69 db c7 bb b1 10 44 bd 24 61 03 be 12 9a 1f 3d
       -0.006099154 -0.04786748 -0.12830025 0.038965292
000350 6a 1f 12 3e c1 7f 4b 3e c4 06 30 3d ee a4 06 be
       0.14269796 0.19872953 0.042975202 -0.13148853
000360 2a d3 10 be f4 6c 9e 3d 34 f0 b3 3d 0e da 26 be
       -0.14143053 0.07735625 0.087860495 -0.16294119
000370 b9 0b 37 3e e6 3d 72 3c 73 a8 e5 bd 39 c1 97 3d
       0.17875566 0.014785266 -0.1121377 0.07409901
000380 c8 10 c5 bc c9 42 0a 3e 6c 07 08 be c5 82 44 3e
       -0.024055853 0.13502039 -0.13284081 0.1919051
000390 f9 f9 32 be a6 95 df 3b f0 c1 61 3c 34 cf b9 3d
       -0.1747817 0.0068232594 0.013779148 0.09072724
0003a0 79 29 dc bc 8e 1f bc 3d a7 61 82 3d 75 52 5f 3d
       -0.026875244 0.09185706 0.06366282 0.054521997
0003b0 16 3e 27 bd 80 07 0b 3e c8 c9 b9 3b 6c 39 8b bd
       -0.040830694 0.1357708 0.005669806 -0.06798062
0003c0 7a 77 2f be 2a 19 54 3e f1 8e 71 3d f1 97 89 3d
       -0.1713542 0.20712724 0.05897421 0.06718434
0003d0 ef f6 d8 bb d5 1e 38 3e 57 34 f5 bd a8 15 d0 bd
       -0.0066212337 0.17980511 -0.11972874 -0.101603806
0003e0 25 c6 d1 bd 77 53 67 3d d3 b6 17 be a1 18 2c 3d
       -0.10242871 0.056476083 -0.14815836 0.042015675
0003f0 40 11 96 bc 2a 9f 5e 3e b0 22 16 bd 99 a8 17 be
       -0.018318772 0.21740404 -0.036654174 -0.14810409

transformer.encoder.layers.0.self_attn.out_proj.bias f4 [64]
000000 c6 17 a4 3c 52 ae 90 ba 0b f4 a6 bc 6b 88 b8 3b
       0.020030867 -0.001103828 -0.02038004 0.0056314967
000010 18 5b e9 bc 18 d4 e0 3b 9e 95 da 3b 46 38 a5 3b
       -0.02848582 0.006861221 0.006670668 0.0050421087
000020 77 35 56 ba e2 f8 22 bb a7 9c 5a bc fc e6 a1 ba
       -0.0008171419 -0.0024867584 -0.013343013 -0.0012352164
000030 8b 0d 8c 3c 0d e0 4d 3d c7 17 e1 3b 9a 45 aa bc
       0.017096302 0.0502625 0.0068692896 -0.020785142
000040 4a c2 50 bb d0 ed d5 3a 94 c2 87 bc d1 11 45 bc
       -0.0031854087 0.0016321484 -0.016572274 -0.012028174
000050 0e ef 22 3c 70 d2 f9 bb 35 a7 0f ba 5e a7 14 b9
       0.00994469 -0.007623963 -0.0005479933 -0.00014176729
000060 76 05 b9 bb 1f 8f b7 3b 90 8c 10 bc 50 64 a9 3b
       -0.005646403 0.005601778 -0.008822575 0.005169429
000070 c6 30 f3 bb 5d 51 2e 3c 71 73 54 bc 9e dc a0 bc
       -0.0074215857 0.010639516 -0.0129669765 -0.019636448
000080 5d 88 71 3b 82 13 2e bb 34 6b b4 bc 8e e4 c1 3b
       0.003685496 -0.002656192 -0.022023775 0.0059171384
000090 28 d5 95 3b 48 19 c0 3b 15 61 54 3c d3 97 ca bb
       0.0045725293 0.0058623888 0.012962599 -0.0061826496
0000a0 f6 e3 b4 bc dd fc d3 bb d7 ae 17 bb 86 07 e2 3b
       -0.022081356 -0.0064693526 -0.0023144984 0.0068978695
0000b0 cd e2 a9 bb d3 7c b3 3b 40 34 82 bc c8 6c 3b 3c
       -0.0051845075 0.0054775267 -0.015894055 0.01143951
0000c0 a6 5c 08 bc 5f c4 0e bd 4b c0 bf bc a1 70 3c 3a
       -0.00832287 -0.034855243 -0.023407122 0.0007188414
0000d0 06 33 be 3b 87 3e 29 bc 13 7b 2a 3a 76 b5 da bc
       0.0058044223 -0.010329849 0.0006503325 -0.026697855
0000e0 eb ee 98 3b 99 1e 26 bb f2 fc 27 3b 3d f0 29 3c
       0.004667153 -0.0025347827 0.0025632945 0.010372219
0000f0 fb b9 26 3d 08 a5 59 bc 2f 1c 7d bb 66 5b 68 3c
       0.04070471 -0.013283975 -0.0038621535 0.014181947

transformer.encoder.layers.0.linear1.weight f4 [256, 64]
000000 43 07 e6 3d b7 2f 03 3d 89 f1 c5 3d f9 ad 0f bd
       0.11231854 0.032027926 0.0966521 -0.035078023
000010 55 64 08 3e 62 e1 81 bd d0 56 0c bc dc 01 04 3b
       0.13319524 -0.063418165 -0.00856562 0.002014271
000020 0b b7 74 3d 86 ca f6 3d 22 7a 9e bd 78 52 e4 bd
       0.059744876 0.12050347 -0.07738139 -0.11148542
000030 2c ce 17 3d 7d 91 a5 bd 05 65 a2 3d ce a3 c2 3d
       0.037061855 -0.0808439 0.07929424 0.095038995
000040 3a de eb 3c 85 b0 0e 3e ad 58 ec bc 2e 99 f1 bd
       0.02879249 0.13934524 -0.028850878 -0.11796795
000050 2a 92 8a bd 61 94 e1 bd a5 48 45 bd 95 10 83 bd
       -0.0676616 -0.11014629 -0.048164982 -0.06399647
000060 73 be 8c bc b2 7a cb 3d 42 e7 ae 3d d3 34 ec 3d
       -0.017180657 0.09935512 0.08540203 0.11533513
000070 15 e2 99 3d 0c dd ad 3d c5 26 46 3d ae c6 07 3d
       0.07513825 0.08489427 0.048376817 0.03314846
000080 22 0c 13 bd 44 b1 5f 3d a0 82 59 3d 3d 14 ef 3d
       -0.035900243 0.054612413 0.05310309 0.11673782
000090 e1 ff e8 bd 25 dd 8d bc 11 ca 08 be 36 6c cb 3d
       -0.1137693 -0.017317364 -0.13358332 0.09932749
0000a0 78 fc 6f bd dc 5b a5 bd 4e 51 19 3c 33 c8 cc bc
       -0.058590382 -0.080741614 0.009357763 -0.024997806
0000b0 69 48 8a bd 0d ef ee 3d 56 d6 9b bd a3 c5 5c bd
       -0.067520924 0.11666689 -0.07609241 -0.05389942
0000c0 cf 47 cb bd 06 ec 08 3e 93 55 84 3d 9a e3 91 3c
       -0.09925806 0.13371286 0.064616345 0.017808724
0000d0 f9 b0 90 bd f8 f5 94 bc ed 09 2a 3b 12 be f9 3d
       -0.07065005 -0.018183693 0.0025945858 0.12194456
0000e0 8b 64 ee bd bf 13 e0 bd f7 f4 f0 bc e1 c7 d4 3d
       -0.11640271 -0.10941266 -0.029413683 0.103896864
0000f0 3d 06 6c 3c dc 59 a2 3d 4a e3 12 bd 66 d6 82 bd
       0.014405784 0.079272956 -0.03586129 -0.063885495
000100 d1 90 dd 3d a8 f3 92 bd 2a a8 0e 3e 97 1f de bd
       0.10818637 -0.0717538 0.13931337 -0.10845869
000110 ab b1 03 3e a5 87 df bd ea 2b 77 3d dc ae 03 be
       0.12860744 -0.10914544 0.060344614 -0.12859672
000120 7f 51 80 3d aa f7 88 3b 6a ea 0c 3d 00 4f 56 3d
       0.06265544 0.0041799145 0.034403242 0.052321434
000130 46 c3 cd 3d 22 87 d1 bd a6 b4 ec 3d 71 f8 d9 bd
       0.10047011 -0.10230853 0.115578935 -0.106430896
000140 3e db 2d bd 9f e4 5e bc 08 4c 7f 3b 0f 03 a4 bd
       -0.042445414 -0.013604312 0.003895523 -0.08008396
000150 a3 9b e7 bd 26 36 f4 bd fa 23 cd 3d 3e 67 a6 bd
       -0.11308982 -0.119243905 0.100166276 -0.08125161
000160 62 9e 89 bd 3f ff 01 3e 8c 4b aa 3c 97 b1 ea 3d
       -0.06719662 0.12695025 0.020787977 0.11459654
000170 96 05 5b bc b7 ea cf bb 76 3c a4 3d f5 ce 6a bd
       -0.013368031 -0.006345119 0.080193445 -0.057326276
000180 2b 08 ea bd 3d 83 7a bd f2 fd 12 b8 c4 28 2f bd
       -0.11427339 -0.061160315 -3.5045618e-05 -0.042763487
000190 17 ab e8 3c 20 14 19 bc 65 f6 bc bd 87 f9 ca bd
       0.028401894 -0.009343177 -0.092266835 -0.09910875
0001a0 64 cd bf bd 3c 03 e8 bd 52 bf 48 bd 9d 74 31 3d
       -0.09365347 -0.11328742 -0.049010582 0.0433241
0001b0 6e f5 c1 3d 82 9f f6 bd 4f f0 93 3c b5 be 83 3d
       0.0947064 -0.120421425 0.018058924 0.06432859
0001c0 17 59 73 3c 77 28 11 3d be 96 02 3d 4d 49 9a bc
       0.014852784 0.03543898 0.03188204 -0.01883378
0001d0 11 c2 f4 bd 92 3c d0 bd 21 ae 57 bd 39 cb c1 bd
       -0.11951078 -0.10167803 -0.052656297 -0.0946259
0001e0 14 4b fa 3c 69 36 9e bb 6c 86 84 bd 62 dd 78 bc
       0.030553378 -0.0048282635 -0.064709514 -0.0151895005
0001f0 98 06 7c bd 33 bf af bd 36 66 c9 3c a3 5c d2 3b
       -0.061529726 -0.0858139 0.02458487 0.0064197346
000200 10 91 20 3d de 2d ca 3c f4 05 54 bd 98 79 0a bc
       0.039200842 0.024680074 -0.05176349 -0.008451842
000210 0f ec 83 3c d0 76 f4 bd 91 37 35 bd 3f f9 c5 3d
       0.016103772 -0.11936724 -0.044242445 0.096666805
000220 cc fb b9 3d 1b 3c 31 bb f2 0e 94 3d 30 83 da 3b
       0.090812296 -0.0027043882 0.07229413 0.006668471
000230 75 d3 43 bc de 90 5c bd 95 4a af 3d 4f db 72 3d
       -0.011952271 -0.053849094 0.08559147 0.05929118
000240 4c f5 88 3d 89 5b 87 3d d0 ec f8 bd 1a c7 a3 3c
       0.06687412 0.06609256 -0.121545434 0.0199924
000250 28 7c eb bd 09 5b c6 bd 55 2a bc 3d ee 27 87 3d
       -0.1149829 -0.09685332 0.09187762 0.06599413
000260 9a 36 bf 3d 41 ed 01 3e 09 c9 08 3e a9 1a 14 bd
       0.09336586 0.12688161 0.13357939 -0.036158238
000270 0f fe 55 3d 3c f2 ce bd de 16 25 bd 5c db dc bc
       0.052244242 -0.10104796 -0.04030501 -0.026960067
000280 e2 43 81 bd d3 7c c1 3d 09 f4 fb 3d d0 06 a8 3d
       -0.06311776 0.094476365 0.123024054 0.082044244
000290 ed e5 d0 bc e8 8f 94 3d b3 6d 05 be e6 e6 14 3d
       -0.025500262 0.072540104 -0.13030128 0.036353014
0002a0 4a cf 11 bd 05 07 81 bd be b0 75 3d 23 58 bc bb
       -0.035598077 -0.06300167 0.059983008 -0.0057478114
0002b0 ab 61 98 bc 42 4d ac bd 00 fd 56 bd e9 f3 aa 3a
       -0.01860126 -0.08413173 -0.052487373 0.0013042662
0002c0 d2 27 f4 bd 4d 69 00 3d 07 5b e1 bd 72 2c dc bd
       -0.119216576 0.031350423 -0.1100369 -0.10750665
0002d0 81 12 1f 3d 20 b5 d7 bd 68 40 06 3d 09 ec f9 bd
       0.038836006 -0.10532594 0.032776266 -0.12203223
0002e0 cd bb 0b be 75 b9 34 bb ae d0 4a bd c7 a4 20 bc
       -0.13645859 -0.0027576361 -0.04951542 -0.009804911
0002f0 90 3f 8b 3c 74 be 88 3c 18 00 36 bc d8 08 f8 3d
       0.016998082 0.016692378 -0.011108421 0.12111062
000300 69 72 1d 3d e5 81 0d be bd f2 2c 3d 74 d8 b9 bd
       0.03843919 -0.13819082 0.04222368 -0.09074488
000310 64 20 c1 bd ed 9a c6 3b 87 6e a9 bd b7 20 14 be
       -0.09430006 0.006060949 -0.082730345 -0.14465605
000320 c1 35 22 3c 3f c4 0b bd 15 11 d3 ba 19 50 8d bd
       0.009900511 -0.0341227 -0.0016103113 -0.06900043
000330 3a ed bd bd a1 2e 6f bd 11 91 ef 3d 26 52 9c bd
       -0.09273763 -0.05839408 0.11697591 -0.07632856
000340 e7 ec df 3d 40 f4 ba bb 2c 47 a6 bd ca 7d 94 bd
       0.109338574 -0.0057053864 -0.08119044 -0.07250555
000350 53 2e 9f 3c 90 f9 03 be 36 84 a6 3d 4f dd 16 be
       0.019431269 -0.1288817 0.08130686 -0.1473286
000360 25 2d 21 be 2e 98 4a bd 20 85 f7 3d 2b d5 17 bc
       -0.15739878 -0.049461536 0.120859385 -0.009267132
000370 af ca 5a 3d 1d e0 a5 bd 87 77 f4 3d 26 4e fe bd
       0.05341595 -0.08099387 0.119368605 -0.124172494
000380 df 74 07 3c 6e 8e 7a 3d 37 68 25 3d 9c 8f 5f bd
       0.00826761 0.061170988 0.04038259 -0.054580316
000390 cc 64 d4 3c e4 c2 aa bc 90 da 08 3e 12 ee c5 bd
       0.02592697 -0.020844884 0.13364625 -0.09664549
0003a0 1f e3 92 3d 9b 19 c3 3d a9 3a bb bb 0e 2a bc 3d
       0.07172226 0.09526368 -0.00571378 0.09187709
0003b0 ab 76 25 b9 cb 35 0b 3e f9 ac 9a 3d 6e e9 c2 bd
       -0.00015779833 0.13594739 0.07552523 -0.095171794
0003c0 a5 71 79 3d 53 44 ec bc 9e 1d 9d bd 04 b4 65 bd
       0.060899395 -0.028841173 -0.07671665 -0.05607988
0003d0 67 aa a5 3d 21 16 db bd d7 bc 9f bb d4 3a 08 bd
       0.08089142 -0.1069758 -0.0048748064 -0.033259228
0003e0 af f5 b4 bd f8 d7 1e 3c 99 85 64 3d 2d e3 c3 bc
       -0.08835923 0.009695046 0.05579147 -0.023912037
0003f0 61 3f 8f bd a7 2d f4 bd c1 48 08 be b1 44 97 bd
       -0.069945104 -0.1192277 -0.13309003 -0.07386149
