pythiatransformer/transformer_model_eos.pt (torch, 980538 bytes, 68 tensors)

input_projection.weight f4 [64, 35]
00000000: 8bd6 b2bd afcb 0bbe de07 69bc 859f 3e3e
00000010: c768 27be c19a bfbd 86d7 e23d 77f4 343e
00000020: f2b3 bdbd 88c5 823c 5ec2 5b3e 729c 4b3e
00000030: 6545 8abd ec92 73bc 92fa a7bb ef90 e13d
00000040: 0142 f73c 11ea cabc d0d4 273e edc1 113e
00000050: 4c4f d33d 0b2e d03c 9cdd 52bc f3a6 16bd
00000060: 9717 1f3e 478e b9bc 51ca 12be 7706 43be
00000070: 9721 013e ae9b 56be 5bc4 213e cd0b 25be
00000080: 704a b9bb d9a0 f33a c29c 533a 5ae1 a4bd
00000090: 54ba 263e 126a 123e 87aa 35bd c8df cd3d
000000a0: 419e 9b3c 3db1 ba3e e04f 333e a99a 32be
000000b0: fffe 0fbd a2c6 07bd 8132 343d fd48 943d
000000c0: e086 d13c 7f04 0ebe fdf0 a7bb 086b 00bd
000000d0: 30ac 94bd 8a66 99bd 24b3 c13e 3e04 683e
000000e0: a57d 7a3e 1211 673e 5957 fe3e adc6 04be
000000f0: 5e9e c3bd 5e35 703d 6d04 673d 1e66 8f3d
00000100: b75b ed3d 81e5 293e ac2e 943d 02ba cc3a
00000110: 9f04 9c3a ac99 f4bb a604 52bc bcde 213d
00000120: 09a8 f43d deb5 cbbd f303 903e 80e1 3bbc
00000130: ff6b a63d ecf9 903e 2cec 17be 699e 8abd
00000140: e343 d3bd ca54 be3c c3ff 30bc 6b58 87bc
00000150: 99ee 8c3c 5f4d a9bd 9ee7 0b3d e796 c43d
00000160: 7d4e 073e da83 563e 7b32 82bd 138a 893e
00000170: c3c0 3d3e 90eb a83d fc77 cfbc 5d0f 343c
00000180: b123 99bd db3d b0bd cbed cbbd 1866 d83d
00000190: 837a 463e 0307 ec3d ac97 d73b 0591 313b
000001a0: 166c d83c ef8f da3c fac6 633e 8c31 b13c
000001b0: 994c 1cbc a7e5 b93d 34e2 2cbd 9c39 ef3c
000001c0: 470c 063e 8bad d33d e038 9fbd 39f4 623d
000001d0: e256 23bc 8bea 3b3d 96d1 fb3d ecbd 4ebd
000001e0: 7fcc 61bd 0830 9dbc cdd6 44bd e3a7 03bd
000001f0: 3210 cfbd 52ae 213e dd19 3abe 6c25 3fbe
00000200: ac6f af3c 1b03 1e3e eedf 15bd a778 323d
00000210: 1592 cfbc 5d1b 8c3d 833e 803e 652b 9d3d
00000220: 6f1f 8b3c 5323 73ba 2b3e bf3a cc2c 153b
00000230: ab20 bb3e 411f be3d f3d6 14be 37a9 4bbe
00000240: 4ee2 bbbd 9605 343d 0d28 e9bc 3794 af3d
00000250: 23e2 ff3e b7b4 603d 474d 89bd 95e5 77bd
00000260: 7854 dd3d 019a 1c3e ce7a a6bd 4c39 dc3d
00000270: f60c cc3d ab66 53bd d724 103e b121 e93d
00000280: 3f0a c13e ddbd d3bd 05ea 2ebc 0663 98bc
00000290: f781 aa3d 52a2 bb3b bcd5 193e e0dc 6e3d
000002a0: 2033 943e 330d 963e c4da 503d b61f e8bd
000002b0: 807f 9dba 6bcc 7d39 02db 59bb c27b dabd
000002c0: 8057 b5bc 3ce8 e2bd 3f2e b13d 85ef 83be
000002d0: d2ad 823c 811b 6ebe 9b1f 88be f8e2 e73d
000002e0: 828e 703c 52f0 033d 0627 133c 7717 a53d
000002f0: 2ff2 293d e119 f33d c817 c0bd b8f6 03bd
00000300: 3ffb f93c 2415 12be 0dc0 9abe 3559 4dbe
00000310: c24b 8cbd 00e4 50be 857e 87be 238c de3c
00000320: c8c5 0cbe f281 da3d cbdb ba3d 14f8 0c3e
00000330: fc20 783e d632 4c3d bc15 4f3c b984 ccba
00000340: 6a59 b03a 0365 0abb 2c47 a53c 4730 73be
00000350: 2584 f13d 845a 49be f569 78be 1192 2d3e
00000360: 4cf5 263e 6147 9c3d 299d 7b3e a7ba 8e3d
00000370: 8392 99ba 554f dd3d bcdd 4e3d d88b c43d
00000380: 917a c6bc 735c cfbd bc24 a8bc c609 443d
00000390: aa0b 1d3d 0431 19be f0b0 c7bd 4e92 053e
000003a0: 58a5 423c f09e c0bd dc9f a3bd 0de8 43be
000003b0: 830b 70be aabb 453e e2ad 99be e1c9 4fbe
000003c0: 7a6e 9ebe 3f7d 573b 28b1 90ba 5d4a 973a
000003d0: 7f88 efba 2886 fb3a a3a9 113e 714f 37be
000003e0: c9f7 2cbe 73b7 f4bd 2c8e 7fbe 6f80 47be
000003f0: 78ad 293d ffe2 a6be ded5 eb3d b770 b93c
-0.08732327 -0.13651918 -0.014223067 0.1861554 -0.16348563 -0.09355689 0.11076264 0.17671381
-0.092628375 0.01596333 0.21460864 0.19883898 -0.06751517 -0.014866572 -0.005126306 0.11013972
0.03018284 -0.024769815 0.16389775 0.14234133 0.10317859 0.02541258 -0.012870219 -0.03678031
0.15536343 -0.022650851 -0.1433499 -0.19045435 0.1261047 -0.20957825 0.1579756 -0.16117783
-0.0056546256 0.0018587365 0.000807237 -0.08050795 0.16282016 0.14298275 -0.04435208 0.100524485
0.01899636 0.36463347 0.17510939 -0.1744181 -0.035155293 -0.033148415 0.043993477 0.07240484
0.025577009 -0.13868903 -0.0051251636 -0.031352073 -0.07259405 -0.07490261 0.37831986 0.22657868
0.24461992 0.22565106 0.49676016 -0.12966414 -0.095516905 0.058644645 0.056400705 0.07001899
0.11589759 0.16591455 0.072354645 0.00156194 0.0011903233 -0.007464608 -0.012818491 0.039519057
0.11946113 -0.09946798 0.28128013 -0.011467338 0.08126067 0.28315675 -0.14836186 -0.067684956
-0.10315683 0.02323379 -0.010803166 -0.016521653 0.017203616 -0.082667105 0.034156434 0.09599095
0.13213535 0.20948735 -0.06357285 0.26863155 0.18530564 0.08248055 -0.025325768 0.010989991
-0.07477511 -0.08605548 -0.09957465 0.10566348 0.19382672 0.11524775 0.00657936 0.0027094495
0.026418727 0.026679961 0.22243872 0.021630071 -0.009539747 0.09077006 -0.04220791 0.029202275
0.13090621 0.10335835 -0.0777452 0.05540869 -0.009969445 0.045877974 0.12295835 -0.050474092
-0.055126663 -0.019187942 -0.048056412 -0.03214253 -0.10110511 0.15789154 -0.18173929 -0.18666619
0.021415554 0.15430872 -0.03659051 0.043572094 -0.025338212 0.06841157 0.25047693 0.076742925
0.016982762 -0.0009274978 0.0014590671 0.0022762297 0.3654836 0.09283305 -0.14535122 -0.19888769
-0.091740236 0.04395064 -0.02846148 0.085731916 0.49977216 0.054859843 -0.067041926 -0.06052168
0.10807127 0.15293123 -0.08128892 0.10753116 0.099634096 -0.051611584 0.14076553 0.11383379
0.3770313 -0.10338948 -0.010675912 -0.018601906 0.0832557 0.005726137 0.1502294 0.05831611
0.28945255 0.29306945 0.05098988 -0.113341734 -0.0012016147 0.00024204112 -0.003324211 -0.10668136
-0.02213645 -0.110794514 0.08651399 -0.25768676 0.015952025 -0.2325268 -0.26586613 0.11322588
0.014682414 0.03221161 0.008981472 0.08061116 0.04149073 0.118701704 -0.09379536 -0.03221771
0.030515311 -0.14265877 -0.30224648 -0.20053561 -0.06850387 -0.20399475 -0.26463714 0.027166432
-0.13747323 0.10669316 0.091239534 0.1376651 0.24231333 0.04985317 0.012639459 -0.0015603519
0.0013454382 -0.0021117337 0.020175539 -0.23748885 0.11792783 -0.19663435 -0.2425917 0.16950251
0.16304511 0.07630802 0.2457167 0.06969195 -0.0011716638 0.10806147 0.05050443 0.095969856
-0.024228366 -0.10125055 -0.020525329 0.047860883 0.0383412 -0.14960104 -0.09750545 0.13044092
0.011880241 -0.09405315 -0.07989475 -0.19131489 -0.23441891 0.1930987 -0.30015475 -0.20291854
-0.30943662 0.003288105 -0.0011039125 0.0011542548 -0.0018274932 0.0019189762 0.14224868 -0.17901398
-0.16891398 -0.11949053 -0.24956578 -0.19482587 0.0414252 -0.3259506 0.11515401 0.022636754

input_projection.bias f4 [64]
00000000: cedf 0fbe a45d d23d 3791 b53d b020 103e
00000010: db06 813d be0f 24be 08ef cbbd 82bc bdbd
00000020: e8bc 303c f764 9d3c cee0 adbd 3293 ef3d
00000030: e4e1 90bd 1010 93bd 654c debd 9f05 b0bd
00000040: 15a0 96bd 0398 14bd f0a4 17bd c475 213e
00000050: a658 453d b3c3 95bd 9ac4 94bd 27bd bdbd
00000060: d0d7 8e3d a54c cd3d 7b17 d9bb acfd 80bc
00000070: 1d19 eebd 06c1 46be fc46 18bd ff4d 96bb
00000080: 490d bfbd 4c3a b03d e3a4 13be 7707 1fbc
00000090: 8e10 413e 95b0 053e 2490 4bbd f037 cabd
000000a0: cd6d 34bd fb30 3e3c 0944 7bbd ecb7 f5bc
000000b0: 2960 653d ca1a e83d bdc5 4c3d 4bd2 e8bd
000000c0: cb0d 073e fb5e 1e3c 7a90 243e 8aa1 03be
000000d0: 12eb 893d 1b24 5a3d fad9 8ebd 2ecb 1ebd
000000e0: 5e09 b83d fe62 fdbd f35d 863d 0277 1bbe
000000f0: 612f 51be 60a9 0ebe a9f8 a03d ab10 b03d
-0.14050218 0.10271767 0.08865588 0.1407497 0.06300136 -0.1602163 -0.09957701 -0.09264471
0.010787226 0.019213183 -0.08490144 0.11697997 -0.07074335 -0.07180798 -0.10854415 -0.08594822
-0.07354752 -0.036277782 -0.03702253 0.1576758 0.048180245 -0.07312717 -0.07264061 -0.092645936
0.06974757 0.100243844 -0.0066251135 -0.01574596 -0.11625884 -0.1940957 -0.03717707 -0.0045869346
-0.09328706 0.08604869 -0.14418368 -0.00970637 0.18853971 0.13055642 -0.04969801 -0.098739505
-0.044050027 0.011608358 -0.06134418 -0.029994927 0.05599991 0.113332346 0.049993265 -0.11368235
0.13188855 0.0096662 0.16070738 -0.12854591 0.06734289 0.05325709 -0.069751695 -0.038767986
0.08986162 -0.12372397 0.06560888 -0.15182117 -0.2042823 -0.13931799 0.07859928 0.08596929

output_projection.weight f4 [35, 64]
00000000: d21e fabd ea76 94be 7153 37bd e014 a83d
00000010: 082e cb3e aad6 66be 8f82 b73d 88dd 793e
00000020: eb18 0b3e 9390 813d 5941 be3e 273b 06bf
00000030: 3895 453c 7afa 1f3e dd3e bdbe 4bca f33d
00000040: ef11 49bd 5612 883d 0b3c a9be 94c6 943e
00000050: 1a96 263e 69f3 423e 0466 c1be d144 f43e
00000060: 9169 b6be fc26 c6bb a845 55be 4e85 5cbe
00000070: 027a 83be 9352 2dbe bec2 4d3c e128 b43e
00000080: 2b8f 353e e286 d7be 1483 4f3e 7d80 6abe
00000090: f971 22be 251e 4c3e d515 963d 71cd 02be
000000a0: 2cd8 25bf 1a87 ca3e b24c 81be 7130 abbe
000000b0: 6f0c 73bd f44c e73e 812e 293e 3b8e c1bd
000000c0: 50bc a5bb b8a7 9e3c a220 203e 53dd a23e
000000d0: 2967 70be f377 063d f385 7e3e 240f b93c
000000e0: 08be 373e bf06 c1be 9e8a 3f3d 8ae1 34be
000000f0: 556c bf3e 0359 a93e bac4 1b3e b6ce 8c3e
00000100: e226 10be d6b2 253e 458f 1c3e 2933 1a3e
00000110: 1fda 5e3e 6df3 e9bd 299b 78be 50b3 053f
00000120: 1a63 593e 6959 c73e a28c 1f3e 97e9 bbbe
00000130: 1437 00be 9630 183e fc24 30bc 0820 54be
00000140: 3547 8e3e 8273 e13d eea8 be3d 0754 28bd
00000150: d039 ac3e 599a 293e 8d82 493e 9c8f a5be
00000160: ed40 6e3c ae9b 75be 8de4 94bd a716 9fbe
00000170: b182 89be fa70 c5bd 3647 593d c9bf d5be
00000180: 5cb7 80bd 4a02 953d 5e9c 67be 0879 1cbe
00000190: 5527 053e 3849 9f3e b246 c23e 98c6 cb3e
000001a0: 41ad d83e 53e3 963e aff8 81be d993 2abf
000001b0: 4226 dd3d 869c 57be bc31 f0bd e609 e1bd
000001c0: 962a 6b3e 0f26 48be 86bb 58bc 27fd b0be
000001d0: 1c32 bebd 6fee 0dbd c2cd dcbc c597 b03d
000001e0: f3b5 9ebe d203 52bd c374 b33d 2218 5b3c
000001f0: 643a b03d 6bb3 3ebe a866 e13d 6d99 453e
00000200: e325 9cbc 3faf 0d3e 069a 253e 87ea 423e
00000210: c34d eebe d392 8fbe 385f b23e bdc9 03be
00000220: 47af 24bd 2a3f 0cbd e39c e33d d332 d8be
00000230: 8587 95be f8d7 48be 943a d8be 92ed ecbd
00000240: 7a4a b8be 8ef9 3c3e 97f6 95be 76f9 c73d
00000250: 123a 1a3e 69c2 d6bc da8a 893e 1798 483d
00000260: 0eb0 bb3d b44d 523e cec0 a6bc eaf1 1dbf
00000270: d43c 693e afd5 26be 51de d0bd a16a 93be
00000280: dcc8 1abe e3bb bbbe 328d 1c3d 32db 2d3e
00000290: 99e5 cebd 3d1b ebbd 3d70 c2be 90a1 703e
000002a0: 607c 0e3f 7f23 2b3e 7af5 c03b f578 b73e
000002b0: 2c81 2ebc b2e2 9d3e 8b31 dbbd 9812 b33e
000002c0: 86dd 76be ec58 6c3e f4ae 50be 9dc1 a43e
000002d0: fa37 6fbe 9cf3 fbbd 8afe 83be 25f9 733d
000002e0: 4875 ca3e 75a6 febe 54b3 343e c9ba d2bd
000002f0: 8511 103e 4ffb 5bbd 7cf1 e63e 376b 843e
00000300: a1e3 813e 384f 2a3e 9695 00be 79b3 e7bc
00000310: 3fda 97be f13d ae3e f527 66be c245 f3bd
00000320: 8a62 a6bd c287 34be 9743 3d3e 2fe4 463e
00000330: 1d5b 313e 4b6b a9bc b33f 9ebc a959 983e
00000340: cba8 8dbe 36c4 e7bd 9418 5d3d 5816 593e
00000350: 7922 71be d43e fbbc ccc6 11be 1279 2c3e
00000360: c47f 3b3d c641 ddbd 3976 373e c769 7cbe
00000370: b384 8cbe 5409 9a3e 0a68 14be 7ca2 893e
00000380: 49a4 2a3e d5ce 6b3e 1bf4 b7bc c529 82be
00000390: a83a 9e3e 430a 533e ea77 dabe 1a0b fb3e
000003a0: 7063 07be 3f75 f83d d635 2abd c7c2 00be
000003b0: b5cc 05be 2e78 a33b e87a 493e d8c4 7c3d
000003c0: 1719 fe3d 031f fa3d 684c 1b3e d92f 98be
000003d0: f250 463e 1e72 82be 3dda 9ebd ffe8 a03d
000003e0: d5be 41be 1c23 17be fa2b 223e f744 a6bd
000003f0: bab5 65be 2cab 4ebe f747 dcbd 761a 733e
-0.1221291 -0.28996974 -0.04475731 0.082071066 0.39683557 -0.22542825 0.08960449 0.24400914
0.13583724 0.063264035 0.3715923 -0.5243401 0.012059502 0.15622893 -0.36962023 0.11903819
-0.04908937 0.06644122 -0.33053622 0.29057753 0.16268197 0.19038166 -0.37773144 0.47708753
-0.35627416 -0.006047128 -0.20827353 -0.21535227 -0.25679022 -0.16926031 0.012558637 0.35187438
0.17730395 -0.42095095 0.20264846 -0.22900577 -0.1586379 0.19933374 0.07328383 -0.12773682
-0.6478298 0.395562 -0.25253826 -0.33435395 -0.05933803 0.45175898 0.16521646 -0.094509564
-0.005057849 0.019367084 0.15637448 0.31809482 -0.23476852 0.032829236 0.24855785 0.022590227
0.17943585 -0.3770046 0.046763055 -0.17664161 0.37387338 0.33075723 0.15211764 0.27501458
-0.14077333 0.16181502 0.15289028 0.15058579 0.21762894 -0.11423383 -0.24277939 0.52226734
0.2122921 0.38935402 0.15580991 -0.36701652 -0.1252101 0.14862284 -0.010751005 -0.20715344
0.27788702 0.110083595 0.093095645 -0.04109576 0.33637857 0.16562785 0.19678707 -0.32336128
0.014541847 -0.23985168 -0.07270155 -0.3107197 -0.26857522 -0.09640689 0.053046428 -0.41747883
-0.06284973 0.07275827 -0.22618243 -0.15280545 0.13003285 0.3111055 0.3794456 0.39799953
0.42319682 0.2947031 -0.25385043 -0.6663185 0.10798313 -0.21055803 -0.11728236 -0.10988216
0.22965464 -0.19545768 -0.013228303 -0.3456814 -0.09286901 -0.034651216 -0.026953582 0.08622698
-0.3099819 -0.051273175 0.08762505 0.013372453 0.08604887 -0.1862313 0.11005908 0.19296809
-0.019061035 0.13836382 0.16172037 0.19034778 -0.46543702 -0.28041705 0.3483827 -0.12869926
-0.04020622 -0.034239925 0.11113908 -0.42226276 -0.29204956 -0.19613636 -0.42232192 -0.115687504
-0.3599432 0.18454573 -0.29289696 0.09764378 0.15061215 -0.026215749 0.26863748 0.04897317
0.09164439 0.20537454 -0.020355608 -0.61697257 0.2277711 -0.16292451 -0.101986535 -0.2879229
-0.15115684 -0.36666784 0.03822059 0.16978148 -0.10102386 -0.11479805 -0.37976256 0.23499131
0.5565853 0.1671276 0.005888638 0.3583447 -0.010650914 0.30837017 -0.10702809 0.34975123
-0.24107942 0.23080796 -0.2037924 0.32178965 -0.23361197 -0.12302324 -0.25780135 0.059563775
0.39542603 -0.49736372 0.17646533 -0.10289533 0.14069183 -0.053706463 0.45106113 0.25863048
0.2536898 0.16631782 -0.12557063 -0.028283821 -0.29658696 0.34031633 -0.2247618 -0.118785396
-0.081242636 -0.17629912 0.18482815 0.19422983 0.17319913 -0.020681044 -0.019317484 0.29755905
-0.2766784 -0.11316721 0.053978518 0.2119993 -0.23548307 -0.030669607 -0.14235991 0.1684306
0.045776144 -0.10803561 0.17916192 -0.24649726 -0.2744499 0.30085242 -0.14492813 0.26881778
0.16664232 0.23028119 -0.022455266 -0.25422493 0.30904126 0.20609383 -0.42669612 0.49031907
-0.13221526 0.12131738 -0.04155525 -0.12574302 -0.13066371 0.004988692 0.19675791 0.061711162
0.12407129 0.12212946 0.15165865 -0.29724005 0.19366816 -0.2547769 -0.077564694 0.078569405
-0.18920453 -0.14759487 0.15837088 -0.08118623 -0.22432604 -0.20182484 -0.10755914 0.23740563

output_projection.bias f4 [35]
00000000: 4786 3ebd 34e4 febd 8ce4 983d cf7c c03c
00000010: b1f4 db3b 250e 07be d318 5f3d 680b 343d
00000020: 24c6 4bbd f0ef b1bd d77c 9cbd ec22 c9bd
00000030: a82a 19be 2747 edbd 8b24 17bd 3fe9 89bc
00000040: 69eb 05be a2b9 9abb 2e1a 60bd 4370 02bd
00000050: 150a 04be b563 20be e07a 16bd 2220 ecbd
00000060: 8a87 efbd 2138 96bc 1126 033e 590d 003e
00000070: cf61 043e 4da3 863e d828 8a3e ae1c 9fbd
00000080: 35d6 81bc bcca 59bd 706b a8bd
-0.046514776 -0.1244587 0.07465467 0.023497013 0.006712519 -0.1318899 0.054467034 0.04395619
-0.04974951 -0.086883426 -0.07640999 -0.09821114 -0.14957678 -0.11585837 -0.036900084 -0.016834853
-0.13078083 -0.004721836 -0.054712467 -0.031845342 -0.12894471 -0.15663035 -0.036738276 -0.11529566
-0.11695774 -0.018337311 0.1280749 0.12505092 0.12927936 0.26296464 0.26984286 -0.07769142
-0.015849212 -0.05317186 -0.08223617

transformer.encoder.layers.0.self_attn.in_proj_weight f4 [192, 64]
00000000: 4f2f e83d 0fc9 b2bd 4b08 b9bd 7a4f 01bc
00000010: 60de 413c c7fc 0bbe 09c0 b5bd 1349 a9bb
00000020: aa61 f5bd c7ae 793d b26b dcbd 8a74 913d
00000030: ac32 723d edc1 8fbd 7bbb 17be 5baa d4bd
00000040: 0a50 8ebc a6d1 f33d 7f9a 023e f533 013e
00000050: abfa 17bd 2b1a e1bc 53cf 1abe 1a30 03be
00000060: 3d1c 093e ffb7 3cbd 289f b5bd 2651 283d
00000070: 771a 853d f695 dbbd 1528 e13d e118 84bd
00000080: d989 f13c e2cf 07be 79b7 093e 4308 523d
00000090: 4ed3 4f3d c74d 67bd 92d7 7f3d bb9d a13d
000000a0: eb5f e6bc dd2b a73d 746b d23c 930d 15bd
000000b0: dbef 173e d5f2 cfbd 9202 5b3c 7d60 6e3d
000000c0: 855e c6bd 5e81 be3d 4666 f33d 0b1e 12be
000000d0: 91da 98bd 314d 113e 41cc 0a3e 9bc0 46bd
000000e0: ec4f 0e3e c103 b5bd 9b10 08bd f012 05be
000000f0: 4b22 343a 4f82 023e bf39 0b3e 63ed d43d
00000100: ba56 c13d acec 533d b022 97bd b7f4 8bbd
00000110: e02b 06bd 0155 533c e087 9abd b720 193c
00000120: f92e bdbd 0cbf a43d c793 803c f4e3 393d
00000130: d39c b3bc aecc 13bd 621c 0bbe 9c96 a73d
00000140: 7441 02be 0a78 64bd e6ab 4abd 173c 9dbd
00000150: 9e65 ad3d 46af 21bd c85d 923d 95cb 883d
00000160: 0b55 aebd 6a6d 0fbe 66e1 9f3a 7d71 b1bd
00000170: 378c e73d 34dc 94bd 8ef5 383e 2c12 aabd
00000180: 6f91 a23c e0e7 f23d ef92 183e d063 9abd
00000190: ec75 47bd 8b1a 9ebd 7fcb 83bd 9549 f3bc
000001a0: ebb4 823d af2b 44bd 8468 b53d f43b 81bd
000001b0: 9ed3 e1bd ac4a 26bd 34e9 383d 7fe4 033e
000001c0: 9b7c 77bd d8b4 fdbd 3bcd b03d f1bc df3d
000001d0: fc8d b83d 897b 22bc 66e7 453d 8740 0e3e
000001e0: 98fe f03d e07e cd3d d63f 5cbd 0bdd 273e
000001f0: a92d 8cbc f267 133e d06b a43c 5bea 4fbd
00000200: a861 d43c 3f5c 1fbe 324c adbd 1a54 eabd
00000210: 0706 c93d 3d86 8fbd 1423 183e bc49 913d
00000220: a33b f7bd 0f18 063e de62 c7bd da56 e1bc
00000230: 4605 a8bc b87f 3d3d 5bee 483d 215e cfbc
00000240: ccc6 ac3d a3cf 43bc 275a 08be c76e b33d
00000250: 48e7 28bd cf0f 4bbd f6d5 213c 1a37 86bc
00000260: f761 febd 20c4 dabd e48c 02be 54f7 2fbc
00000270: f726 bd3d 94d8 c3bb 8e17 acbd 4bbe d6bd
00000280: c57d b13d 7f12 833d 3f21 e3bd 1fc5 133e
00000290: 9664 b53d 046e f53d 6000 90bd b45a 07be
000002a0: 16a6 1ebc 130c 19bb 3fbc 313d 08ce dd3d
000002b0: eb0d a83d f99a 043e 3604 d6bd a167 03bd
000002c0: 46a6 103e 27e7 743d a3da 6c3d efa2 05be
000002d0: d2ee 7cba d380 efbd 1769 15be 3ee6 483d
000002e0: e6bf dabd 1ee8 563c 1108 9b3c 6982 00be
000002f0: 0b65 753d e266 11be bcfc ad3c 9dd5 cb3c
00000300: 7a80 08be 2342 08be 170f ab3d e493 8d3c
00000310: d5ae 3f3c 5c0a 5b3c 75a4 953d 0b1c 643d
00000320: 408e 943d 460f 413b 15d8 edbd cb19 16be
00000330: bc52 e6bb 4f3a 613b 06ef fbbb 5796 0bbe
00000340: 8fa9 08be 6423 d4bd 43ba 903d a019 193c
00000350: e75d 813d 8aa6 223e 50d4 c93d df9e 093e
00000360: 77c8 3cbd ef9a 073e 5382 5b3d 554d 883d
00000370: ba8c 983d 3dd1 11bd 1403 38bb 950a dbbd
00000380: 0620 293d c65d 573d 95d7 e13d 83ac 6fbc
00000390: a950 91bd 3d9b 103e b921 ea3d 5d57 40bc
000003a0: e013 fabd a489 ce3d dca5 10be ca1a c2bd
000003b0: 6a00 0e3e 59da 1b3d d918 09be 7b2e ebbd
000003c0: 3e93 93bd d316 c5bd f556 5dbd 9fc0 0c3e
000003d0: 56e8 8e3d 977b 9ebd 1582 0abe 86bd 823d
000003e0: ac5a 163e 5bed 80bd d2a8 743d 54b0 00be
000003f0: 5bd3 813d 3b71 87bd 6d91 28bd 6439 f13d
0.113371484 -0.08729755 -0.09034785 -0.007892484 0.0118328035 -0.13670646 -0.088745184 -0.005166182
-0.119815186 0.060957696 -0.10762729 0.07102306 0.059130356 -0.0701941 -0.14817612 -0.10384055
-0.01737215 0.11905222 0.12754248 0.12617476 -0.03710429 -0.027478298 -0.1511815 -0.12811318
0.13389678 -0.04607391 -0.08868247 0.041093014 0.064991884 -0.10721962 0.10993973 -0.06450058
0.029484676 -0.13262895 0.13448896 0.05127741 0.050738625 -0.05647066 0.062461443 0.07891413
-0.02812191 0.08162663 0.025686003 -0.0363899 0.14837591 -0.101537384 0.013367312 0.058197487
-0.09685997 0.093020186 0.118847415 -0.14269273 -0.07463563 0.14189602 0.13554479 -0.048523527
0.13897675 -0.088386066 -0.03321896 -0.12995505 0.0006871565 0.12745021 0.13596247 0.103968404
0.0944037 0.05173938 -0.07379663 -0.06833785 -0.032756686 0.0128986845 -0.07545447 0.009346179
-0.09237475 0.08044252 0.015695466 0.04538341 -0.021925366 -0.03608387 -0.13585046 0.08183023
-0.12720281 -0.05577854 -0.04948034 -0.07677477 0.084666476 -0.039473794 0.071467936 0.06679455
-0.085123144 -0.14006582 0.0012197911 -0.08664224 0.11306041 -0.07268563 0.18062422 -0.08304247
0.019844739 0.11860633 0.148998 -0.07538569 -0.048696443 -0.077199064 -0.06435298 -0.029698173
0.063821636 -0.047893222 0.088578254 -0.06310263 -0.11026691 -0.040598556 0.045144275 0.12880133
-0.060421567 -0.12388009 0.086328946 0.109247096 0.09011456 -0.009917148 0.048316382 0.13891803
0.1176731 0.10033965 -0.053771816 0.16392915 -0.017111616 0.1439512 0.02007094 -0.05076061
0.025925472 -0.15562533 -0.08461799 -0.11441822 0.09815603 -0.07008026 0.14857131 0.07094142
-0.12071922 0.13095115 -0.09735654 -0.027507234 -0.020510327 0.04626438 0.04905544 -0.025313439
0.08436355 -0.01195136 -0.1331564 0.087613635 -0.041236192 -0.049575623 0.009877672 -0.016383696
-0.12421029 -0.10681939 -0.12749058 -0.01074012 0.092359476 -0.005976746 -0.0840293 -0.10485514
0.08666567 0.06400012 -0.110903256 0.14430664 0.08857076 0.119838744 -0.070313215 -0.13218194
-0.009683153 -0.0023353144 0.043392416 0.10830313 0.0820578 0.12949742 -0.10450022 -0.03208125
0.14125928 0.059790757 0.057825696 -0.13050435 -0.0009648624 -0.11694493 -0.1459087 0.0490477
-0.10681133 0.0131168645 0.018924745 -0.12549748 0.059910815 -0.14199403 0.021238677 0.024882132
-0.1333026 -0.13306479 0.083524875 0.017282434 0.011699398 0.013369169 0.07306758 0.055690806
0.072536945 0.0029458567 -0.1161348 -0.14658277 -0.0070289057 0.003436703 -0.007688406 -0.13631569
-0.13345931 -0.10358313 0.070667766 0.009344488 0.063167386 0.15883842 0.098549485 0.13439511
-0.046089616 0.13242696 0.053591084 0.06655375 0.074487165 -0.035599936 -0.0028078007 -0.10695378
0.041290306 0.052579664 0.11027447 -0.014628532 -0.07095463 0.14121719 0.11432213 -0.011739579
-0.12210822 0.100848466 -0.1412577 -0.09477766 0.13867345 0.03805003 -0.13388385 -0.11483475
-0.072058186 -0.09623494 -0.054038007 0.13745354 0.06977908 -0.07738417 -0.13526185 0.06383805
0.14683026 -0.06295272 0.059731312 -0.12567264 0.06339141 -0.06613394 -0.041154314 0.117785245

transformer.encoder.layers.0.self_attn.in_proj_bias f4 [192]
00000000: 47e6 5fba 28fc 5ebc dc0b 98bb da6d bbbb
00000010: 9bc7 313c 3b4f 363c a58b 43b9 2c54 0ebb
00000020: 14d7 ffbb b755 1f3c 21de b8bb b294 4abc
00000030: 9418 483c c03f 15bb 51ca 76bb 2a86 223b
00000040: 569a 613b 9f4c 103b 3249 19bb efde 13bc
00000050: a879 393b 41d9 76bc 87ed efbb 9ab2 153d
00000060: 4264 86bc eec2 8c3c 1f82 8f3c 1287 6ebc
00000070: b9df 5e3c 6e9f b73b 34a5 aebc 5d50 9fbc
00000080: ad92 343a b1a8 0e3d ca12 5e3b e31e e53c
00000090: abea 13bc 1589 3dbc 28a0 17bc 87a9 a2bc
000000a0: eba5 cc3a 9d00 cbbb 7e01 45bc 81fe 02bc
000000b0: 71d8 193c 9fe2 d1bb eea0 c93c ff53 90ba
000000c0: 81fb 02bc b4ad 1ebc 9bcb 3ebc a6a3 5b3c
000000d0: 5d33 3fbc 0715 083c f3a1 083b ebee 103c
000000e0: c8f3 a0bc 3b61 943c e09c bc3c e453 dd3b
000000f0: cec1 963c 53be 463c 5c3d 773b 9d84 5abc
00000100: ed68 3736 6730 cb33 033d 4e35 ae0b 4137
00000110: 2652 a434 cc0a ebb6 ec06 82b6 32a9 0eb7
00000120: 5330 8336 a0a3 11b6 a485 15b5 51e2 64b4
00000130: 89a9 1cb7 9943 4ab7 b0fd 7a35 48d0 6d35
00000140: 79e8 fa36 1582 78b6 1f63 5636 0119 d9b6
00000150: 0a4d 4436 d20b 3db6 e7da cab4 eba9 2f36
00000160: 4cc8 6937 794d 22b7 9985 1135 9921 5335
00000170: 9e8e 8035 b8fd e6b6 004b 38b6 98f9 47b6
00000180: e40e 54b6 3e52 dcb6 8646 acb4 2950 63b6
00000190: e3a5 3c36 d7b6 abb5 9fc3 7d35 14a6 9636
000001a0: 845b adb5 29ec b135 7b03 c736 11f5 5bb6
000001b0: 57da 8836 cdca b8b6 0c56 96b5 8910 0f37
000001c0: 8c6b a136 4617 89b6 9adc cd36 7d82 b9b6
000001d0: 6a42 e9b6 dd9f b8b4 e8dc 0536 6d04 47b6
000001e0: 557d 1836 6d4d 55b6 d7b2 8436 97af e3b5
000001f0: 2a51 32b5 dd0b b1b6 fb72 0eb7 962a 3436
00000200: 1347 11bb 1053 00bc 39c7 9c3c 45b3 3cbb
00000210: 6438 8dbc 5c02 983b 21e9 393a b4e3 a53b
00000220: 06f5 573c 3413 dcbc 9d90 8e3b 6e7a 40bb
00000230: d01b 09bb efc7 d9bb 7c1e 2c3c 80be 93bb
00000240: 479b ffba 117b 4a3b 1da8 3a3c 4cbd 8c3c
00000250: ad8d a3bc c392 38bc a6f4 97bc 398c 22bc
00000260: d58b 7cbc 6eb2 40bc e0ce 7f3c 22b4 a63c
00000270: be24 953c 24af d6bc c521 643b 0dab fcbb
00000280: 057f 5e3b cf8e cfbb dbf3 2ebd d2cb 013d
00000290: 2702 113c 6486 0dbd f86d 43bc a833 33bc
000002a0: 2b23 4d3c a8ab a33b a6ff 023c d97a a4bc
000002b0: 9274 ee3b 06c7 eebc a743 1d3c 2acb d53b
000002c0: 5e63 82bc 5965 ae3b 4c04 1dbc 9d05 55bc
000002d0: 27d7 4e39 bfc2 bc3b 4fd9 83bc c3ca f6bb
000002e0: 4848 203c 2050 b53c 8ed0 dabc ba35 863b
000002f0: ef5d fa3c 0222 893c cd33 a1bc 9c18 443c
-0.0008541089 -0.013609923 -0.0046400856 -0.0057198824 0.010850812 0.011127288 -0.00018648671 -0.002171765
-0.0078076217 0.009725026 -0.005641714 -0.012364553 0.012212891 -0.0022773594 -0.003765721 0.0024799206
0.0034424267 0.0022018326 -0.0023389575 -0.0090253195 0.0028301273 -0.015066446 -0.0073220166 0.03654728
-0.016405229 0.017182793 0.017518101 -0.01455857 0.013603144 0.0056037223 -0.02131901 -0.0194475
0.00068883115 0.034828845 0.003388571 0.02796883 -0.009028117 -0.011568327 -0.009254493 -0.019856228
0.0015613412 -0.0061951415 -0.012024282 -0.007995249 0.009389983 -0.006405189 0.02461287 -0.0011011361
-0.0079945335 -0.009684969 -0.011645223 0.013405716 -0.011669961 0.008305795 0.0020848482 0.008846025
-0.019647494 0.01811277 0.023024023 0.0067543853 0.01840296 0.012130338 0.0037725782 -0.0133372815
2.73302e-06 9.4617285e-08 7.6829764e-07 1.1506416e-05 3.060715e-07 -7.0048027e-06 -3.8751077e-06 -8.503253e-06
3.90973e-06 -2.1701926e-06 -5.57013e-07 -2.1316488e-07 -9.337798e-06 -1.2055877e-05 9.350142e-07 8.859247e-07
7.477644e-06 -3.7030597e-06 3.194618e-06 -6.470015e-06 2.9251119e-06 -2.8170075e-06 -3.7784704e-07 2.6175937e-06
1.39345175e-05 -9.6739905e-06 5.421112e-07 7.8652516e-07 9.57825e-07 -6.884071e-06 -2.7461792e-06 -2.9798593e-06
-3.159913e-06 -6.566085e-06 -3.208881e-07 -3.3872295e-06 2.8110742e-06 -1.2793706e-06 9.453451e-07 4.4896824e-06
-1.2916139e-06 1.3256259e-06 5.9310673e-06 -3.277619e-06 4.078534e-06 -5.5072364e-06 -1.1200914e-06 8.527314e-06
4.810694e-06 -4.0856276e-06 6.1351575e-06 -5.5286205e-06 -6.9516727e-06 -3.4388987e-07 1.9947129e-06 -2.9655887e-06
2.2722718e-06 -3.178454e-06 3.9547263e-06 -1.6963921e-06 -6.6428277e-07 -5.276392e-06 -8.4906305e-06 2.6846878e-06
-0.0022167608 -0.007832304 0.019137966 -0.0028793376 -0.017238803 0.004638953 0.0007091929 0.0050625447
0.013180977 -0.026864626 0.0043507353 -0.0029369849 -0.0020921119 -0.0066461484 0.010505315 -0.0045087934
-0.0019501232 0.0030896107 0.01139262 0.017180108 -0.019965017 -0.0112654595 -0.018549275 -0.009921127
-0.015414198 -0.011761291 0.015613288 0.020349566 0.018205997 -0.02620656 0.0034810167 -0.0077108205
0.0033950221 -0.006334163 -0.042713027 0.03168852 0.008850611 -0.034551993 -0.011928074 -0.010937609
0.012520592 0.0049948283 0.007995522 -0.02007811 0.00727708 -0.029147636 0.009598649 0.006524463
-0.015916523 0.00532214 -0.009583544 -0.013001827 0.00019725841 0.00576052 -0.016094832 -0.0075314953
0.009782858 0.022132933 -0.026710775 0.00409576 0.03056237 0.016739849 -0.01967802 0.011968758

transformer.encoder.layers.0.self_attn.out_proj.weight f4 [64, 64]
00000000: e5bf 523e 5deb 00be 8d3b 8d3a d360 903d
00000010: 063d 34be e3ad 22be 2c61 6ebd 2415 1e3c
00000020: 5b27 273e f96a 3ebe c1a2 233b 0d94 9439
00000030: 0265 c6bd 9af6 62bd 93a8 f13c 311f 3a3e
00000040: d384 d93d a1c3 8f3d b5bc c7bc 7498 94bd
00000050: 6e00 98bc f89a 443e a024 dcbd 4313 0d3e
00000060: c2a3 4fbe 1fbf 69bb 112a d0bb 44b0 bb3d
00000070: 7698 a5bd b945 a63b 9018 47be f50c 203e
00000080: 18d1 363e 464d f53d 0cce 8f3d 2225 1ebd
00000090: fc5b fa3d 1284 56be 26c2 fa3d 8903 1e3e
000000a0: bf20 de3b bc27 2a3d 8d18 c03d 863d 22be
000000b0: a0ca 623d 1f14 bfbd c020 163e e190 33bd
000000c0: 8124 393d 5fbd 35be 864e 3fbe 31e5 0f3e
000000d0: 8194 d5bd 4ed0 a43d 8c89 a5bc 17bd 15be
000000e0: 5b1b 333e 927d 043d f84d 48bd 4070 ecbc
000000f0: 7b98 7b3e 8cc3 fdbd bb2b 1abe 059d 253e
00000100: 6386 7fbd bc81 673e e838 87bc 1cd9 f73d
00000110: c24b 3c3e 0156 dbbd 8c27 c4bd 347d 21be
00000120: 74d1 543d 4ccf 12be c6f4 003e 5bc0 1a3e
00000130: a3d6 603d fc4a 39be 5c2c 813d 6850 1bbe
00000140: 0192 21be 5738 c9ba 76b8 78bd b765 a3bd
00000150: d38b 40be d59d 1fbb 25f7 5a3d 7533 babd
00000160: d812 a63c 537d 5cbd 02d3 063d e001 913d
00000170: 4432 7d3d 0475 88bd ac79 01be 0fb4 e93d
00000180: f43e f13d ff90 0c3e c938 813e bfb3 4dbe
00000190: c0d4 373e d7a8 1bbd 4689 5e3d b5af b33d
000001a0: a0ed 1d3e 7dd0 31bd 4482 adbc 918f a83c
000001b0: 73fb dd3d 90b2 2dbe 4d26 933a 8ffa ddbd
000001c0: 239d eebd 51c0 2abe 7bf0 34be 16e0 f93c
000001d0: e62f fa3c 5422 523d f6b2 e5bd 9086 4dbd
000001e0: 01b0 3cbe d840 3a3d 6a42 813e 398f e2bb
000001f0: 1e3e fa3d c4bf 62bd 55a0 04be d51e f93d
00000200: bb38 e63d 3cca 2abe 02a8 513e da4e dcbd
00000210: f51c 98bd 686a ab3d e418 fb3d b0eb 06be
00000220: 5d7e f33c 768d a33d 07c6 2dbd a87b 863c
00000230: 878b 393e 02b4 7b3d b9e0 35be 1fbd 53bd
00000240: 15d1 26bd 3e16 083e b1ba 48be 6358 57be
00000250: d6e1 163e e8eb 02be b761 223e eebd 9d3b
00000260: 73cb bd3d 5641 f73d f8f8 2f3d de9b 94bd
00000270: ea04 6fbd 167f e5bd f670 b63d ae1b 593e
00000280: 7a18 883c bb3a 7b3d fffb cfbd 1909 9f3c
00000290: d5a4 2bbd 3948 393e e517 243e 0f12 3abe
000002a0: ad56 31bc 4a31 43be e3d5 e63d a619 353e
000002b0: 40ff bd3d 91d0 8d3d 625b 413c 3edd 9c3c
000002c0: 2009 4f3e 1506 5f3d 4e9b e53d d664 14be
000002d0: 0268 d2bd 4a05 f9bd 85ca 5d3e cf80 583e
000002e0: c127 20be df99 12bd 8ae0 883d dc18 45be
000002f0: f22e 54be e3fc 8e3b 6500 1cbe f4ba 473e
00000300: 2b6b 37be 6bf6 20be 055b 403d 9861 463d
00000310: a6b7 1d3d 3b5a 38be c913 70bd 621e cdbd
00000320: 74b2 80bd 9d41 f2bd 79a5 f13d 3570 39bd
00000330: a560 1a3e f289 363e 268e 21be d5f2 2c3c
00000340: 5415 f0bc 0f8f 39be 8cd7 2bbe 3e92 073c
00000350: a8ca 513c 21ea 4d3e 1967 523e babb 02be
00000360: 9c20 623c fae8 a0bd afbf bebd bef5 333e
00000370: fce6 de3b 0fc0 aebc 82ad 003e 63f4 27be
00000380: ddd1 d23c 5725 d13d 8d77 053d c229 22bd
00000390: d695 33be 3d79 15be 76ec 4f3e 508a 15be
000003a0: 5d41 1dbe 892c c13d 4227 53be 247b 71bc
000003b0: 0bd8 383e 6fdd c13d 3a0c 983d 0c3e 3e3e
000003c0: 7178 973d ee53 81bc 0b6e e43d 5ca0 f2bd
000003d0: c61c 583d 126a 373e 11a0 c43d 03c5 24be
000003e0: 2cf5 4a3e 1e42 383e 6217 54bd dd91 3dbe
000003f0: f9d4 45be b6ed 74bd d4bf 2c3e 5e78 2a3c
0.20581014 -0.12589784 0.0010775194 0.07049718 -0.17601404 -0.15886645 -0.05819814 0.009648595
0.16323607 -0.18595494 0.0024968835 0.00028339066 -0.096872345 -0.05541096 0.029499328 0.18175961
0.10621037 0.07019735 -0.024381975 -0.072556406 -0.018554892 0.19199741 -0.10749173 0.13776879
-0.20277312 -0.0035666896 -0.006352671 0.091644794 -0.0808572 0.0050742296 -0.19442964 0.15629943
0.178532 0.11977629 0.07021722 -0.03860963 0.12224576 -0.20948818 0.12244062 0.15431036
0.006778806 0.0415418 0.09379683 -0.15843782 0.05536902 -0.0933001 0.1466093 -0.04383934
0.04520083 -0.1774802 -0.18682298 0.14052273 -0.104287155 0.080475435 -0.020207189 -0.14622913
0.17490904 0.032346316 -0.04890248 -0.028862119 0.24569885 -0.12390813 -0.15055744 0.1617318
-0.06238402 0.22608083 -0.016506627 0.12101957 0.18388274 -0.10709763 -0.095778555 -0.15770417
0.051957563 -0.1433689 0.12593374 0.1511244 0.054892194 -0.1809501 0.06307289 -0.15167391
-0.15778352 -0.0015351874 -0.06072279 -0.07978385 -0.18803339 -0.002435555 0.05345835 -0.09091846
0.020272657 -0.053830456 0.032916076 0.07080436 0.061815515 -0.06662944 -0.1264407 0.114112966
0.117795855 0.13727187 0.25238636 -0.20088099 0.17952251 -0.038002815 0.054330133 0.08773748
0.15422678 -0.04341172 -0.02118028 0.02057627 0.10838976 -0.16962647 0.0011226624 -0.10838806
-0.11651065 -0.16674925 -0.17669861 0.03050236 0.030540418 0.05130227 -0.11215775 -0.050177157
-0.18426515 0.045471996 0.25245982 -0.006914046 0.12218879 -0.055358663 -0.12951787 0.12164084
0.11241289 -0.16678709 0.20474246 -0.10757227 -0.07427398 0.08369905 0.12260607 -0.13175845
0.02972334 0.07985966 -0.04242518 0.016416386 0.18119632 0.061450966 -0.17761506 -0.05169403
-0.04072674 0.13289735 -0.19602467 -0.2102981 0.14734587 -0.12785304 0.15857588 0.004813901
0.092673205 0.12073009 0.042962044 -0.07256292 -0.058354296 -0.1120588 0.08908264 0.21201965
0.016613234 0.061335307 -0.10155486 0.019413518 -0.041905243 0.18093957 0.1602474 -0.18170951
-0.010823888 -0.19061771 0.112712644 0.17685565 0.09277201 0.069245465 0.0118015725 0.019148465
0.20218325 0.05444916 0.11211263 -0.14491591 -0.10273744 -0.12159212 0.21659286 0.21142887
-0.15640165 -0.035791274 0.066834524 -0.19247764 -0.20721033 0.0043636425 -0.15234526 0.1950491
-0.17911975 -0.15719001 0.046961803 0.048432916 0.03850522 -0.1800317 -0.05861262 -0.10015561
-0.06284037 -0.11828921 0.117991395 -0.045273025 0.1507593 0.1782606 -0.15776882 0.010555943
-0.029307045 -0.18120979 -0.16781443 0.008274613 0.012804665 0.20108844 0.20547141 -0.12766925
0.01380172 -0.07856937 -0.093139045 0.17574212 0.006802438 -0.021331815 0.12566188 -0.1640182
0.025734836 0.102122 0.032584716 -0.039590605 -0.17537627 -0.1459703 0.20305046 -0.14603543
-0.15356965 0.094323225 -0.20620444 -0.014738832 0.18051164 0.09466063 0.07424207 0.18578357
0.07396019 -0.015787091 0.111538015 -0.118469924 0.052761815 0.17911556 0.09600843 -0.16090779
0.19820088 0.17993972 -0.051780112 -0.18512674 -0.19319524 -0.05979701 0.16870052 0.010404674

transformer.encoder.layers.0.self_attn.out_proj.bias f4 [64]
00000000: b590 c23c c1ac b2bc f1a9 2ebc c218 5eba
00000010: 2116 a53a 8cd6 3bbc 3139 87bc b5c1 063c
00000020: 77a4 20bd 17b7 85bc b29c b33b a1a0 4e3b
00000030: f0ad 59bc 9df6 b63c 5d32 8bbc 9401 a2bb
00000040: 1709 5dbb 1a3e 23b9 a6ad 62ba e233 1bbc
00000050: 521e 14bc b35f bbbc 6650 5f3b 2eb0 073c
00000060: dadc c93b c699 dc3b 20c2 033c ef35 a03a
00000070: 70bb 0abb 46a7 cc39 b53c 773c 902e 72bc
00000080: 2a80 69bc 1e96 8ebb f5aa 4cbb 7ff7 4a3c
00000090: 4bb1 093c 32a7 ec3b 759b a23b 98ae 85bc
000000a0: 52c9 77bb ecc2 4f3c a5c8 5c3b 4637 a0bb
000000b0: afe9 153a 82cf 2a3c c005 b9bc 0015 45bc
000000c0: ce22 603c c32e 123c bfa2 b03c 266a 2ebb
000000d0: 5e51 c43c f343 1dbc 189f 15bc 8bac cc3b
000000e0: 6c95 79bb c3c6 383c 8bb0 d03b d09b 8cbc
000000f0: 6ea6 a0bc 57c4 97bb 3a68 653c 9391 213b
0.023750642 -0.021810891 -0.010660634 -0.0008472317 0.0012595096 -0.011464726 -0.016506763 0.008224894
-0.039219346 -0.016322656 0.005481326 0.0031528848 -0.013286099 0.022334391 -0.016991789 -0.004944036
-0.0033727342 -0.00015568026 -0.00086470915 -0.009472819 -0.009040432 -0.022872781 0.003407502 0.008281751
0.0061603608 0.0067321984 0.0080418885 0.0012223105 -0.002116885 0.0003903454 0.015090157 -0.014781609
-0.014251748 -0.0043513915 -0.0031229828 0.012388109 0.008404086 0.0072220797 0.0049623796 -0.016318604
-0.0037809205 0.01268075 0.003368893 -0.0048894016 0.00057187205 0.01042545 -0.02258575 -0.012028933
0.013680173 0.008922282 0.021561978 -0.0026613562 0.02396458 -0.00959872 -0.009132169 0.0062461547
-0.0038083447 0.011277857 0.006368702 -0.017164141 -0.01961061 -0.00463156 0.0140019 0.002465342

transformer.encoder.layers.0.linear1.weight f4 [256, 64]
00000000: a6c5 d6bc 88c6 3bbc 3651 113c 1204 b33d
00000010: 456f 8fbd 2ed0 29bd b2af 8c3d f9d3 793d
00000020: 8dac 8fbd 99d0 043e 0d59 f03d b0e9 cb3d
00000030: 20bd d5bd 7f61 d83d 79a0 063e fec7 dfbd
00000040: d8de 823d da3c 5b3d cd3c b13d 7a54 893d
00000050: a4c3 05be 47f7 86bb ae5f 4dbc 5e86 ba3b
00000060: 9e54 663d 248f 12be f5b2 c53d e153 753d
00000070: 46ac e33d 79b9 d0bd bf37 59bd fb3f 4b3c
00000080: 7433 b9bb c053 c0bd 8af1 c0bd 2490 1d37
00000090: a321 143d e943 f83c 1f52 903c afd0 633d
000000a0: 5c4e e73d 4ba0 0f3d a8e6 b4bd cd2a b4bd
000000b0: a7e8 c2bd 1592 463d 3c77 9ebd 025a e2bd
000000c0: 4a9b 0a3b d3fa 383c 3707 abbd d298 b2bd
000000d0: ea32 a9bd 9d6f fd3d 9507 fe3c 8a09 8cbd
000000e0: 5248 a5bd cd40 fc3c 67d8 bdbd 8ff5 61bd
000000f0: b257 eb3d 21bc fe3c 47f6 5fbc 7a2e 79bd
00000100: 38bd 993d 215f dbbd c345 ca3b a61f 8ebd
00000110: 559b b2bd 1d1d 92bd 2392 a4bb ce4e debb
00000120: 1846 4a3d c6fd 45bd 8771 02bd 6651 833d
00000130: d8de bdbc 38fa c93d 7a5b 093d 4a4f bfbd
00000140: 61ab 16bc 36c1 d33d 1fb9 07be d2cd 26bd
00000150: 0d02 4abd f6e9 3f3d 00e1 d1bd 9788 823d
00000160: fd81 333c d51b 5bbd a4a8 b8bd a5b2 863d
00000170: 936e 95bd 66b2 53bd 0466 a9bd cfee 063e
00000180: c373 35bd a67c 21bc 3f3e f1bd d7e4 e23d
00000190: cccc 38bc 5697 733d 7618 6e3d 9597 643c
000001a0: 7dc5 443d dc5a a53d 0eed 74bd 71c8 2fbd
000001b0: 477c c2bd df92 f93c 3d73 003e 5612 393c
000001c0: 0c79 93bb bd44 30bd db23 04bd 6523 363d
000001d0: 2471 623d edc7 cb3d 16ba 443d 5375 d5bd
000001e0: eb70 063e 9bc2 953c 0c84 0a3e ccd7 3fbd
000001f0: 49e4 ab3d 0ea5 b83c 51eb 383d 440b 88bc
00000200: 7874 92bd fcc9 e9bd b681 99bd 4216 d5bc
00000210: 57cc 5cbd 5d6a a6bd af0f bd3d e655 99bd
00000220: ca7e 91bb 21db e13d 7385 683d 5a59 af3d
00000230: 0625 b9bd bb77 993d b6a5 363d 02c2 56bd
00000240: 92e3 08bd 9dbb 903d 3250 d1bd 3b25 a1bc
00000250: d89a c33d 1d43 373d 7f07 8cbd a641 4aba
00000260: 09ee d73d 2304 fbbb d3d5 c6bd 02ee dc3d
00000270: ed1b 52bd 1e96 fb3d c3da b03d aa62 d43d
00000280: e564 af3d 2bb0 453d 6413 33bd ebdc 473d
00000290: 56db 39bc 2d0d 15bd e09e cd3c a2d4 4d3d
000002a0: 7c90 fbbd 26ea 14be 5dbb f9bd 354b f43c
000002b0: 0df7 7dbd ae86 873c 9de2 eebd c44e b93d
000002c0: c678 20bd e066 a83d 741d a6bd dcff 01bd
000002d0: d7f8 bebd 20ea 963d 2779 043e b831 f23c
000002e0: f164 bfbd e5a9 b2bd 77f8 26bd 5cff 96bd
000002f0: 49de 00bc 7efa fdbd 734e cc3d 8ef3 803d
00000300: c768 f2bd bfa7 d23d 7094 bb3d 76a5 aabc
00000310: 1e69 dfbd bab6 4a3c f00b e93d 41cc acbd
00000320: 7b9c 16be 63b0 0abe e71f f73d dba9 6ebd
00000330: 238c 5bbd 3bc3 8d3d 4766 633a be32 cf3d
00000340: b516 903d 3499 233d 3f1c a1bd 5ee8 74bd
00000350: cfcb 3b3d de29 e83d f44e 8b3d 5280 c4bd
00000360: ea98 0ebe 16a0 0ebe cb08 223e 5eb5 c3bc
00000370: c3dc bebd 8430 96bd a416 0dbe c541 9d3d
00000380: b3e5 6f3c 6f8e 883d 25ac 463d 12ce bbbd
00000390: 7f87 e8bd 10d0 47bd ac53 e3bc cdd3 b6bc
000003a0: 50bf 073e cfb2 a8bd 71f9 ae3c 9d92 f3bd
000003b0: f01a e6bd 58ed af3d 41ed ef3d c87b bd3d
000003c0: 2962 e8bc ee38 a5bc 23dd f13d c2e2 a6bc
000003d0: 4d75 073e f7a4 d6bc d26e 7a3d c0d1 4f3c
000003e0: 6f93 613b 2f6b be3d f1a9 e03d 1710 993d
000003f0: 932f 5fbd a97a 7fbd 5cce 03be efad db3d
-0.026217293 -0.011460908 0.00886946 0.08741011 -0.07003645 -0.0414583 0.06869449 0.06099317
-0.07015333 0.12970199 0.11735735 0.09956682 -0.10436463 0.10565471 0.13147153 -0.10926817
0.0639016 0.05352483 0.08654175 0.06705566 -0.13062912 -0.004118833 -0.012535019 0.0056922873
0.05623304 -0.14312416 0.09653274 0.059894446 0.11116843 -0.10191626 -0.05303168 0.012405391
-0.0056518856 -0.09390974 -0.0942107 9.39149e-06 0.03616489 0.03030582 0.017617283 0.055618938
0.11294243 0.035064977 -0.08833057 -0.08797226 -0.09517031 0.04847916 -0.07737586 -0.11052324
0.0021149688 0.01129027 -0.083509855 -0.087205544 -0.08261664 0.12374804 0.031009475 -0.06837757
-0.08070435 0.030792618 -0.09269791 -0.055165824 0.11491336 0.031095566 -0.013669557 -0.06083534
0.07506794 -0.10711504 0.006172867 -0.0693963 -0.087210335 -0.07134459 -0.0050223037 -0.0067842966
0.049383253 -0.04833772 -0.03184655 0.0641201 -0.02317755 0.098621786 0.033534504 -0.09341295
-0.009196133 0.103395864 -0.13254212 -0.04072363 -0.049318362 0.046853982 -0.102479935 0.06373709
0.010956285 -0.05349334 -0.09016541 0.065770425 -0.07296481 -0.051683806 -0.08271411 0.13177036
-0.044299852 -0.009856379 -0.117794506 0.11078804 -0.011279296 0.059470497 0.058128797 0.013952156
0.048039902 0.08073971 -0.059796385 -0.042915765 -0.0949636 0.030465541 0.1254396 0.011295876
-0.004500514 -0.043034304 -0.032260757 0.04446735 0.05528368 0.09950242 0.048029028 -0.104227684
0.13129012 0.018281272 0.13526934 -0.04683666 0.08393151 0.022539642 0.04514629 -0.016606934
-0.07151121 -0.114154786 -0.074954435 -0.02601159 -0.05390581 -0.08125756 0.09231507 -0.07487087
-0.0044401633 0.11028124 0.056767892 0.08561964 -0.09040265 0.0749354 0.044591628 -0.052431114
-0.033420153 0.070670344 -0.10220374 -0.019671073 0.095510185 0.04474174 -0.06837367 -0.0007715471
0.105434485 -0.0076604052 -0.097087525 0.10787584 -0.051296163 0.12284492 0.086354755 0.10370381
0.08564166 0.04826371 -0.043719664 0.04879467 -0.011343798 -0.03638952 0.025100172 0.05025161
-0.122834176 -0.14542446 -0.1219394 0.029821018 -0.062003184 0.016543712 -0.11664317 0.090482265
-0.03917768 0.08222747 -0.081110865 -0.031738147 -0.09324806 0.073688745 0.12936841 0.029564723
-0.09345425 -0.08723811 -0.0407643 -0.07372925 -0.007865497 -0.12401293 0.099759005 0.06296454
-0.11836391 0.10285901 0.091591716 -0.020830851 -0.109087214 0.012372667 0.1137923 -0.08437396
-0.1470813 -0.13543849 0.12066632 -0.058267456 -0.05360044 0.06922003 0.00086746033 0.101171
0.07035581 0.039941028 -0.07866716 -0.059791915 0.045848664 0.113361105 0.068021685 -0.09594788
-0.1392552 -0.13928255 0.15823667 -0.023890194 -0.09319451 -0.07333472 -0.13778168 0.0767856
0.014642167 0.06667792 0.048504014 -0.09170164 -0.11353969 -0.04878241 -0.027749859 -0.022317791
0.13256574 -0.0823723 0.021359177 -0.11893199 -0.11235607 0.085901916 0.117151745 0.09252125
-0.028367119 -0.020168748 0.118097566 -0.020371798 0.1322834 -0.026201708 0.061140843 0.012684286
0.0034420153 0.092977874 0.10969914 0.07473772 -0.05448873 -0.062372837 -0.12871689 0.107265346

transformer.encoder.layers.0.linear1.bias f4 [256]
00000000: c481 1c3d 7908 bbbc 09ab e73d 57f7 f13d
00000010: f976 97bd ec43 923d 2ea0 4bbd 8a39 983d
00000020: b0bd db3d 0f1f 85bd d8d3 6b3c f756 27bd
00000030: 945a cfbc 51ba 75bc f450 98bd 701f 88bd
00000040: 64e5 cbbc b9e7 dabd c190 0cbd b3b9 aebc
00000050: e7d0 8a3d 18c3 be3d 3928 4f3c 2c8a 51bd
00000060: 29bd 85bd 1cbc 1e3c a702 98bd 268a 90bd
00000070: 4cdd 00be d3fe 233d b4d0 16bd 1bea dbbd
00000080: 11c8 e83d 117b bcbd f7a2 6e3d d89c df3d
00000090: 69f7 8dbd f4c2 b83d 9b3f 8b3d cd74 b9bd
000000a0: e5fb ca3c 5a62 2abc ddab c8bd f6a8 873b
000000b0: 5977 2e3d 9068 b0bd eba7 04be ccfd acbd
000000c0: 19b2 aabd f65a f23d 6dea e3bc ef74 a9bc
000000d0: a4c0 45bd 7f93 50bd d235 a63d ea46 31bd
000000e0: 0ef5 973d c4ed d53b 0f87 fdbd ec75 de3d
000000f0: 7a97 a73d 6844 823d 08ce c63b 2d78 32bd
00000100: 7301 a4bc 85a9 d5bd 5d74 babd 06a1 f53d
00000110: 8d7c ba3d cf47 45bd 9ae3 5abd d800 d9bd
00000120: 2392 e8bc 7165 c63d fe44 e3bd e7dc 813b
00000130: c953 7bbd 0c02 d93a dda3 4fbd 1c85 e3bb
00000140: 747a 273d a84b 8ebb 461b e9bc ebae a4bd
00000150: 5948 563d 6869 873c dbd5 813d 1c2e e33d
00000160: c63f 9a3c 9f32 f9bd 91d0 b23d 1474 d6bc
00000170: 60c7 31bd a6ed b539 2998 8cbd 70d1 923d
00000180: 7943 823d 3c97 55bd c8e4 34bc 8b71 05bc
00000190: 563a 2e3e 6120 acbc 863f d43d 7a1e a3bc
000001a0: f882 65bc 0c8a debc c444 4b3d 51fb ef3c
000001b0: 6f0a cdbc fe87 dcbd 7df7 afbd 3611 ecba
000001c0: 472f 0f3d eb89 003d 4cf2 323d f1e6 cd3c
000001d0: 13f8 60bd 07d6 07bc 298a db3d 1cc0 c0bd
000001e0: fcc8 29bc 3ea3 c13d 2dd7 8f3d 2549 e9bd
000001f0: 4027 513d 6300 623d d97e 113e 888b bdbb
00000200: cd68 c23d 4739 64bd a45f 863c a6d8 bbbd
00000210: 2cfd 353d 2f1f 59bd e7ed 80bd 06a4 e3bb
00000220: e1aa db3d f38a 003d ba25 a3bd 97ad 4b3d
00000230: e88f f83d 7362 cbbd f97f 123b f1f8 cebd
00000240: d2b4 8e3d f957 f03d 5820 ddbd 5380 5a3d
00000250: 183c 88ba 9a4c a9bd 1504 61bd 8dce 56bd
00000260: 9788 9e3d 04c0 24bd 6ede 973c 07da bfbd
00000270: 517a f339 81a8 cabd 8770 b23d 051c 05bd
00000280: d828 c63d 3cd2 cd3d 373e a63d 8b5f b3bc
00000290: de8c 46bd d213 8b3c 2805 c43d c6dd 863d
000002a0: 797d f2bd c1b8 893c 0cfd 94bd 1efe 0d3c
000002b0: 762b 003e 32c8 083e b5b3 653d cac4 f4bd
000002c0: 0d7e 1abc f3f5 e5ba 6c72 d43c c89b abbd
000002d0: 3fac 063e 2342 503d 4d4c 2c3c 8e10 06be
000002e0: bc45 1cbd e113 c1bd 0a1d 983c d01c 1f3d
000002f0: d690 833d 73a1 a53b 554f 32bc 4a6f 143d
00000300: 4d27 5d3d b141 c33d 7862 fe3c b407 883d
00000310: df5c 3ebd 431f ba3d 696d 8c3b 0f39 a6bd
00000320: 60ce 893d b181 033d ef04 953d f82e cdbd
00000330: c104 b93d 3192 513d adb7 01be 9fe7 b63c
00000340: 2001 a5bd bfe8 9d3d 6eb9 85bc 4d3a 0fbd
00000350: 954b dcbd 1a95 dd3d 850e e13d 6b2f b93c
00000360: cded e73d 6d72 b43d 3b4e 6d3d 65be 7c3d
00000370: 01b3 eb3c 33fe be3c bcbb 34bd dcec 21bd
00000380: dfec babc 2672 eebd 8406 a6bd 6014 8bbd
00000390: b05e ed3c bbef 573d c738 95bc e135 5fbb
000003a0: b243 523c 2d9b bc3d 858a c23d 9115 b7bd
000003b0: 8d88 dcbd f8a3 8b3c 9b00 de3d e242 75bd
000003c0: 2380 083c f95f 233c 7824 ca3d 59cc e13d
000003d0: bb50 44bd e797 883d 78a3 cb3d b6f7 b23d
000003e0: 1cb1 8f3c 15ae 02bd 66eb d73c 0cd1 f93c
000003f0: c41c aebd a017 6e3c 75b3 85bd 9414 02bd
0.03820969 -0.022831189 0.11311919 0.118147545 -0.07395739 0.07141861 -0.049713306 0.0743285
0.107295394 -0.065000646 0.014393769 -0.04085442 -0.025311746 -0.014998035 -0.074373156 -0.06646621
-0.024889655 -0.10688729 -0.034317736 -0.021328783 0.06778126 0.09314555 0.012643867 -0.05115716
-0.0653022 0.009688403 -0.07422381 -0.070576 -0.12584418 0.04003794 -0.03682013 -0.107380114
0.11366285 -0.092031606 0.058260884 0.109185874 -0.06931955 0.09021559 0.06799241 -0.09055481
0.024778316 -0.010399425 -0.09798405 0.0041400148 0.042594288 -0.08613694 -0.1295468 -0.084468454
-0.08334751 0.11833756 -0.027821744 -0.020685641 -0.04827942 -0.050921913 0.08115734 -0.04328052
0.07419787 0.006528588 -0.12379276 0.108623356 0.08183189 0.06360704 0.0060670413 -0.04357164
-0.020020222 -0.10432724 -0.09104226 0.119936034 0.091057874 -0.048164185 -0.053439714 -0.10595864
-0.028389996 0.09687317 -0.110971436 0.003963101 -0.0613592 0.0016556396 -0.05069338 -0.006943358
0.040888265 -0.004342515 -0.028455388 -0.080411755 0.05231509 0.016529754 0.06339618 0.11092779
0.018829238 -0.12167858 0.08731187 -0.026178397 -0.04340303 0.00034700072 -0.0686496 0.07168853
0.06360526 -0.05214618 -0.011040874 -0.008144747 0.17014441 -0.021011533 0.10363679 -0.019911993
-0.014008276 -0.027165435 0.049626127 0.029294642 -0.02502939 -0.10768126 -0.085921265 -0.00180105
0.034957197 0.03138153 0.043688104 0.025134536 -0.054924082 -0.008290774 0.10719711 -0.09411642
-0.01036286 0.09454964 0.070234634 -0.11390904 0.051062822 0.05517615 0.14208545 -0.0057844557
0.094926454 -0.055718686 0.016403027 -0.09172182 0.044430897 -0.053008255 -0.06295376 -0.0069470434
0.10725952 0.031382512 -0.0796618 0.049726095 0.12136823 -0.09930887 0.002235411 -0.101060756
0.069680825 0.117355295 -0.10797185 0.053345036 -0.0010393886 -0.08266564 -0.054935534 -0.052443076
0.07740896 -0.040222183 0.01853868 -0.09367757 0.00046439705 -0.09895421 0.08712869 -0.032497425
0.09675759 0.10049865 0.08117335 -0.021896144 -0.048474185 0.016977224 0.09571296 0.06585269
-0.11840338 0.01681173 -0.07274827 0.008666543 0.12516579 0.13357618 0.056079585 -0.11951597
-0.009429467 -0.0017544612 0.025933467 -0.08379322 0.13151644 0.050844323 0.010516238 -0.13092253
-0.03815244 -0.0942762 0.018568534 0.038845837 0.0642411 0.0050546466 -0.010883172 0.036238946
0.05399256 0.09534014 0.031052813 0.06642094 -0.046475288 0.09087994 0.0042855036 -0.08116352
0.06728816 0.032106105 0.07276332 -0.10018724 0.0903411 0.05116481 -0.12667723 0.022327242
-0.08056855 0.077104084 -0.016323771 -0.03496771 -0.10756604 0.108194545 0.109890975 0.022605618
0.11324654 0.088108875 0.057935935 0.061705012 0.02877188 0.023314571 -0.04412435 -0.039532527
-0.022818027 -0.11642866 -0.081067115 -0.067909956 0.028975815 0.05271886 -0.01821555 -0.0034059214
0.012833523 0.09209285 0.09499077 -0.0893966 -0.107682325 0.01704596 0.10839959 -0.059878238
0.008331331 0.009971612 0.09870237 0.11025304 -0.047928553 0.06669598 0.099432886 0.08738653
0.017540507 -0.0319043 0.026357364 0.03049519 -0.0850158 0.014532 -0.06528369 -0.031757906
