pythiatransformer/transformer_model_eos.pt (torch, 980538 bytes, 68 tensors)

input_projection.weight f4 [64, 35]
0	0xbe7d8076	-0.24756035
1	0xbe9ee50e	-0.3103413
2	0xbe269564	-0.16267926
3	0xbd9d6571	-0.07685364
4	0xbe07ea0a	-0.13272873
5	0xbef97fcb	-0.4873031
6	0xbec673bf	-0.38760182
7	0xbe338bcc	-0.17533797
8	0xbe8b5e66	-0.27220458
9	0x3d820e25	0.06350354
10	0xbdd1b10b	-0.102388464
11	0x3d266da4	0.040631905
12	0xbe17c1be	-0.1482
13	0x3d572e6f	0.052534517
14	0xbe27e2f5	-0.16395171
15	0xbcb75c27	-0.022382809
16	0xbdc69e98	-0.09698218
17	0x3e0f485e	0.1399245
18	0x3e1a5a44	0.15073496
19	0xbe636279	-0.22205533
20	0xbeca684e	-0.39532703
21	0xbd89599d	-0.067065455
22	0xbe87fada	-0.26558572
23	0xbe91da14	-0.28486693
24	0xbdc47ea2	-0.09594466
25	0xbe6dcc93	-0.2322257
26	0xbe7a5546	-0.24446592
27	0xbdfcc387	-0.123419814
28	0xbe84d9f3	-0.25947532
29	0xbe97eb18	-0.2967155
30	0xbe70cb8c	-0.23515147
31	0x3dc73595	0.09727017
32	0xbdf85b39	-0.12126774
33	0x3b14626b	0.002264167
34	0x3de70e17	0.11281984
35	0xbeab1fd5	-0.33422723
36	0xbe561687	-0.20907031
37	0xbe86bfe5	-0.2631828
38	0xbe793d93	-0.24339895
39	0xbc5df82e	-0.01354794
40	0xbe6fd428	-0.23420775
41	0xbe202c87	-0.15641986
42	0xbc18b370	-0.009320125
43	0xbe66cb35	-0.22538455
44	0x3e1e7c7c	0.15477175
45	0x3e1e6372	0.15467623
46	0xbe1a5560	-0.1507163
47	0xbd25a678	-0.04044196
48	0xbe1ab503	-0.15108113
49	0xbd17b486	-0.037037395
50	0x3dfc87ac	0.12330565
51	0x3d886451	0.06659759
52	0x3d921def	0.07134616
53	0x3e1f7ca6	0.15574893
54	0xbeb12754	-0.34600317
55	0xbed0202e	-0.4064955
56	0xbdb90add	-0.09035275
57	0xbdf643d4	-0.12024656
58	0x3b8cada7	0.004293162
59	0xbdcb9744	-0.09940961
60	0xbe868041	-0.26269725
61	0xbe7cf144	-0.2470141
62	0xbe6f3dc3	-0.23363404
63	0xbe32cb5a	-0.17460385
64	0xbe538cbd	-0.20659156
65	0xbe91b06e	-0.28454918
66	0x3da6c57e	0.081431374
67	0xbd56ef1c	-0.052474126
68	0x3c59ff14	0.013305444
69	0xbc38465d	-0.011247245
70	0x3de7d542	0.113199726
71	0xbe6bc484	-0.23024184
72	0xbeb13ba4	-0.34615815
73	0xbdf20a3d	-0.11818359
74	0x3d805678	0.062664926
75	0xbf056932	-0.5211364
76	0x3e7e56e6	0.24837837
77	0x3e82658b	0.25468096
78	0xbeaf04e4	-0.3418342
79	0xbe012541	-0.12611867
80	0xbdd8ccd6	-0.10585944
81	0x3e1fdc80	0.15611458
82	0xbd931557	-0.071818046
83	0xbdb9f967	-0.09080773
84	0x3e219be4	0.15782124
85	0x3c638f13	0.013889092
86	0x3dc04f1a	0.093900874
87	0x3e02e0da	0.12781087
88	0x3d886510	0.06659901
89	0xbebdd27b	-0.37074646
90	0xbeb04151	-0.34424832
91	0xbf19e885	-0.6012042
92	0x3e1f1e95	0.1553901
93	0xbc4b52ab	-0.012409846
94	0x3e0efb9c	0.13963169
95	0xbea52c31	-0.32260278
96	0xbeb9e5d3	-0.36308154
97	0x3d807f1c	0.06274244
98	0x3dd8a2ba	0.10577913
99	0xbf00736b	-0.50176114
100	0xbea65338	-0.32485366
101	0x3dfa8874	0.122330576
102	0xbc80f260	-0.015740573
103	0x3db442f1	0.088018306
104	0xbdf7ee64	-0.12106016
105	0x3e0eb2a3	0.13935332
106	0x3e9fd8ea	0.3122018
107	0x3ef14a05	0.47126785
108	0x3e886aa4	0.2664386
109	0x3e10b31d	0.14130826
110	0x3eb26c59	0.34848288
111	0x3e703172	0.23456362
112	0x3e904d9b	0.28184208
113	0x3cb572cb	0.022149464
114	0x3d983549	0.07432038
115	0x3e05765b	0.1303343
116	0x3e1380ad	0.14404555
117	0x3cc4e1da	0.024033476
118	0xbdd8900e	-0.10574351
119	0x3d8d7ecd	0.06908951
120	0x3e17d7a4	0.14828354
121	0xbdc4516a	-0.09585841
122	0xbdf6bded	-0.12047944
123	0xbdef1cdf	-0.116754286
124	0x3ee166f3	0.44023857
125	0x3ec33900	0.38129425
126	0x3e3f67cc	0.18691939
127	0x3e7028cf	0.23453067
128	0x3e84adf0	0.25913954
129	0xbd8211c7	-0.06351047
130	0xbd0231f9	-0.03178594
131	0x3e6543e3	0.22389178
132	0xbd03ece0	-0.032208323
133	0x3d4ba842	0.04972101
134	0x3ef8671e	0.48516172
135	0x3ec8450f	0.39115188
136	0x3d9df9ec	0.077136844
137	0xbda1268c	-0.0786868
138	0x3da3d744	0.08000043
139	0x3e17d81d	0.14828534
140	0xbeeba4f2	-0.4602428
141	0xbe45aba1	-0.19303752
142	0xbeb53fc7	-0.3540022
143	0x3cc24e67	0.023719026
144	0x3dffff2b	0.12499841
145	0x3e276a0e	0.1634905
146	0xbe0e4808	-0.13894665
147	0x3ebf775a	0.37395746
148	0x3e8edce0	0.2790289
149	0x3e268699	0.16262282
150	0x3d91077a	0.07081504
151	0x3d1739f1	0.03692049
152	0x3d487701	0.048941616
153	0x3e140482	0.14454845
154	0x3d104eb9	0.035231326
155	0x3e4842a4	0.19556671
156	0xbe0c19f1	-0.13681771
157	0x3e1b5c35	0.15171893
158	0x3dc648d8	0.096818626
159	0x3d8f7298	0.07004279
160	0xbebb8f7f	-0.36632916
161	0xbe8ceffe	-0.2752685
162	0x3e7c7b7e	0.24656484
163	0x3eb69994	0.35664046
164	0xba9757c9	-0.0011546548
165	0xbe444acf	-0.19169162
166	0x3d99eab5	0.0751547
167	0xbeb81103	-0.3595048
168	0x3d273c17	0.04082879
169	0xbd492619	-0.0491086
170	0x3d37e24a	0.04489354
171	0x3dd1760a	0.10227592
172	0xbdf233ca	-0.11826284
173	0x3d6b49f2	0.057443567
174	0x3d2e7f6f	0.042602
175	0x3dcc08dd	0.09962628
176	0xbcb7f87d	-0.022457356
177	0x3dec4786	0.115370795
178	0x3d3b3ce8	0.04571238
179	0xbe872370	-0.26394224
180	0xbec8fe9c	-0.39256752
181	0xbe7b83ba	-0.24561968
182	0xbeae4434	-0.3403641
183	0xbe85508d	-0.26038018
184	0x3c577ee5	0.013152813
185	0xbe2990f6	-0.16559204
186	0xbdd4b151	-0.10385383
187	0xbcf44b43	-0.029821044
188	0xbda89880	-0.08232212
189	0xbd8463ef	-0.06464373
190	0x3e2396dc	0.15975517
191	0x3daae33c	0.08344123
192	0xbd97a116	-0.074037716
193	0x3e0da16f	0.13831113
194	0xbccfe46c	-0.025377475
195	0xbec1ab41	-0.3782597
196	0xbeaace0c	-0.33360326
197	0xbee53d9e	-0.44773573
198	0xbe949368	-0.29018712
199	0x3d51cd2d	0.05122106
200	0xbc6a9c51	-0.014319495
201	0xbed8c328	-0.42336392
202	0xbe1bcbec	-0.15214509
203	0xbe9e0100	-0.30860138
204	0xbe868840	-0.26275826
205	0xbea09b72	-0.31368595
206	0x3e5e6e8e	0.21721861
207	0xbb8b8a96	-0.004258464
208	0xbc91e60d	-0.017809892
209	0x3d9d5be7	0.076835446
210	0xbd4536e0	-0.048148036
211	0xbe904b56	-0.28182477
212	0xbc9a6d80	-0.018851042
213	0xbe1c3239	-0.15253533
214	0xbe625a0a	-0.2210466
215	0xbdb49b5e	-0.088186964
216	0xbc7ce69e	-0.015435843
217	0xbe47edaf	-0.19524263
218	0x3e2a9967	0.16660081
219	0xbcfb069e	-0.030642804
220	0x3dcf0bdd	0.101096846
221	0xbe255855	-0.16146977
222	0x3d3e4c26	0.04645934
223	0x3d7ccebb	0.06172059
224	0xbbc35c97	-0.0059619653
225	0xbe399a8b	-0.1812536
226	0x3dd10d98	0.10207671
227	0xbdc21527	-0.09476691
228	0xbe306548	-0.17226136
229	0x3ddfb9cd	0.109241106
230	0xbcfbd24d	-0.030739928
231	0xbd2abedd	-0.041685928
232	0xbe1a769b	-0.15084307
233	0xbe1c8be7	-0.15287744
234	0x3bb01a5c	0.005374236
235	0xbe27d865	-0.16391142
236	0xbe045a20	-0.12925005
237	0xbd9109b8	-0.07081932
238	0xbf0304e8	-0.5117936
239	0xbdcf0141	-0.10107661
240	0x3df442c1	0.11926795
241	0xbd4e9142	-0.050431497
242	0xbd8bf196	-0.06833188
243	0xbd7349bf	-0.0593965
244	0xbc91abb0	-0.017782062
245	0xbdd67948	-0.10472351
246	0xbe03b9dd	-0.1286387
247	0xbe145e6c	-0.14489144
248	0xbe377584	-0.17915922
249	0xbe44209d	-0.19153066
250	0xbdcb9596	-0.09940641
251	0xbea984a7	-0.33109018
252	0xbe7a84d9	-0.2446474
253	0x3e406622	0.1878896
254	0xbd805e62	-0.06268002
255	0x3db08455	0.0861899

input_projection.bias f4 [64]
0	0xbecaa1cb	-0.39576563
1	0xbe88838e	-0.26662868
2	0xbdc7415c	-0.09729263
3	0x3e224d9f	0.15849923
4	0xbd53c60b	-0.05170254
5	0xbe33b9c0	-0.17551327
6	0xbd061ac3	-0.032740366
7	0xbdca2736	-0.0987076
8	0x3e793969	0.24338306
9	0x3ed361ab	0.41285452
10	0x3f139756	0.57652795
11	0xbe187860	-0.1488967
12	0xbee9dfe5	-0.4567863
13	0x3ea5dddb	0.32395825
14	0xbec0ec65	-0.37680355
15	0xbdf3b123	-0.118990205
16	0xbe8c03df	-0.27346703
17	0x3e9e5762	0.30926043
18	0x3c8a2828	0.016864851
19	0x3d4b4ad8	0.049631923
20	0xbe07eac9	-0.13273157
21	0xbe64cc24	-0.22343498
22	0x3ecb8634	0.39750826
23	0x3e91a0b9	0.28442934
24	0x3e2684fd	0.16261669
25	0xbebe7376	-0.37197465
26	0x3d92d8b2	0.071702376
27	0x3daf09f4	0.0854682
28	0x3dccf21a	0.10007115
29	0x3e534058	0.20630014
30	0xbe64cc0c	-0.22343463
31	0xbe711bf5	-0.23545821
32	0x3e27ce46	0.16387281
33	0xbd96fc73	-0.073723696
34	0x3eaf0c1a	0.3418892
35	0x3ee05b48	0.43819642
36	0xbe21dc22	-0.1580663
37	0x3e80e3f7	0.25173923
38	0x3e9e6b48	0.30941224
39	0xbdd1d453	-0.10245576
40	0xbdc8ade3	-0.09798791
41	0xbdd3d3b8	-0.103431165
42	0xbea99d59	-0.3312786
43	0xbe6989fc	-0.22806543
44	0xbe36e581	-0.17860986
45	0xbefad745	-0.48992363
46	0x3e2b435c	0.16724914
47	0xbd9face3	-0.077966474
48	0x3e951b59	0.29122427
49	0x3d8cf5b4	0.06882802
50	0x3e7bc52d	0.24586935
51	0xbd61bd65	-0.05511226
52	0xbdfb0877	-0.12257474
53	0x3ec18d31	0.37803033
54	0xbe890405	-0.2676088
55	0x3d3ada2b	0.045618217
56	0x3e5a4cdc	0.21318382
57	0xbe5260e1	-0.20544769
58	0x3e125cd9	0.14293231
59	0x3ecb9427	0.3976147
60	0xbdb9a729	-0.090650864
61	0x3def289c	0.116776675
62	0xbe22ac8d	-0.15886135
63	0xbe1b4a5b	-0.15165083

output_projection.weight f4 [35, 64]
0	0xbe22bb27	-0.15891705
1	0xbf3b879e	-0.7325381
2	0x3fea3d5c	1.8299975
3	0xbe2ceec4	-0.16887957
4	0xbf8443ad	-1.0333153
5	0x3ec71a58	0.38887286
6	0x3f36da26	0.7142662
7	0xbdc8d534	-0.0980629
8	0x3eea8ef3	0.45812187
9	0xbe7805c8	-0.24220955
10	0x3e23f75f	0.16012333
11	0xbe27a309	-0.16370787
12	0x3da16d59	0.078821845
13	0x3e7f592e	0.24936363
14	0x3f2d5649	0.67709786
15	0xbf2cb1cb	-0.6745879
16	0x3ecfd309	0.40590695
17	0xbee8202e	-0.4533705
18	0x3ed925c6	0.4241163
19	0xbf227570	-0.63460445
20	0x3e782c1c	0.24235576
21	0xbf08584f	-0.5325975
22	0xbd94d3d2	-0.07266964
23	0xbede695e	-0.43439764
24	0xbf2e06fd	-0.67979413
25	0xbf948778	-1.1603842
26	0xbdc7429c	-0.097295016
27	0x3e1a2c58	0.15055978
28	0xbedc5589	-0.43034008
29	0x3edfec44	0.43734944
30	0x3e6a0bac	0.22856015
31	0x3f6e9f3e	0.93211734
32	0x3e5b88cc	0.21438903
33	0x3d672011	0.056427065
34	0x3f1602e5	0.58598167
35	0x3daa5e66	0.08318786
36	0xbf57f6f3	-0.8436119
37	0x3f24b281	0.64334875
38	0x3df252d1	0.11832202
39	0xbfbafa88	-1.4607706
40	0x3ef31334	0.47475588
41	0x3f2731fc	0.65310645
42	0x3f1c980d	0.6116951
43	0x3ddea580	0.1087141
44	0x3f77edd0	0.9684725
45	0xbf13f52f	-0.57795995
46	0x3f260b49	0.6486097
47	0xbf01719a	-0.5056397
48	0xbcc77ff9	-0.024353014
49	0xbdbf2bc2	-0.09334518
50	0xbef53c6e	-0.47897667
51	0x3f0dc0eb	0.55372494
52	0x3e933552	0.28751618
53	0xbd92eb88	-0.0717383
54	0xba9a7e7a	-0.001178696
55	0xbf238caa	-0.6388651
56	0x3c26fb8c	0.010191809
57	0xbf0a58b8	-0.54041624
58	0xbe43c0b7	-0.19116484
59	0xbe94c573	-0.29056892
60	0xbf4c6691	-0.79844004
61	0x3e22f267	0.15912782
62	0xbef0a72c	-0.47002542
63	0x3e63237f	0.2218151
64	0xbed004ef	-0.40628764
65	0x3eae7d18	0.34079814
66	0xbe49a1e4	-0.19690663
67	0x3efb0e3c	0.49034297
68	0xbd7e9c1b	-0.062160593
69	0x3df0cad9	0.1175744
70	0xbf282707	-0.6568455
71	0xbe6a3351	-0.22871138
72	0x3e82ed28	0.2557156
73	0xbcf8404b	-0.030304095
74	0x3dd0b4c5	0.10190729
75	0x3f2e926a	0.6819216
76	0x3ea1129e	0.31459516
77	0x3f11b440	0.56915665
78	0x3f390570	0.7227392
79	0xbf9d5b9d	-1.2293583
80	0xbe9469cb	-0.28986964
81	0xbe3eec3e	-0.18644807
82	0x3e49304e	0.19647333
83	0xbd6819d2	-0.05666525
84	0xbdb4aa35	-0.08821527
85	0xbf149dda	-0.5805336
86	0x3cd5e760	0.026111305
87	0x3f2af398	0.66777945
88	0x3eac6882	0.33673483
89	0xbe8e1e3f	-0.2775745
90	0x3e54fbb8	0.20799148
91	0xbf460b57	-0.77361053
92	0xbec35ffc	-0.38159168
93	0x3e04a2f8	0.12952793
94	0x3e9ab3ef	0.30215403
95	0x3f2b9c5c	0.6703546
96	0x3ef79004	0.48352063
97	0xbe57c7e2	-0.21072343
98	0xbddf293b	-0.10896536
99	0xbe54dc40	-0.20787144
100	0x3eb558db	0.35419354
101	0x3f050a44	0.5196879
102	0xbeea8d8c	-0.45811117
103	0xbf78df7e	-0.9721602
104	0xbee3d22e	-0.44496292
105	0x3ecb0af9	0.3965681
106	0xbeedbccd	-0.46433106
107	0x3f084fc4	0.5324671
108	0xbf229485	-0.6350787
109	0xbe094984	-0.1340695
110	0xbed48378	-0.41506553
111	0x3f6ab501	0.9168244
112	0xbe7f8c3b	-0.24955837
113	0xbee4b534	-0.44669497
114	0x3f0bc31d	0.54594594
115	0xbe698be5	-0.22807272
116	0x3efebe1c	0.49754417
117	0x3f0cbfbe	0.54980075
118	0x3db3ad6a	0.087733105
119	0xbf0ef8fe	-0.5584868
120	0xbea74476	-0.3266942
121	0xbf8db42a	-1.1070607
122	0xbf4f3c96	-0.8095182
123	0x3e346710	0.1761744
124	0x3f90cdb2	1.1312773
125	0x3e54238b	0.20716684
126	0x3e57c040	0.21069431
127	0xbdf20407	-0.118171744
128	0x3ef0b368	0.47011876
129	0x3ecb164d	0.39665452
130	0xbf99fc84	-1.2030187
131	0x3f92c3f7	1.1466054
132	0xbf471492	-0.7776576
133	0x3ee6470a	0.44976074
134	0x3eb635c9	0.3558791
135	0xbf0cd868	-0.5501771
136	0x3f2fc3cc	0.6865814
137	0x3e2b81f6	0.16748795
138	0x3d3dbbae	0.046321563
139	0xbf3d645a	-0.7398125
140	0x3e4c62dc	0.19959587
141	0x3ebb1307	0.36537954
142	0x3f5a47fa	0.8526608
143	0x3e00f21d	0.12592359
144	0x3e039625	0.12850244
145	0x3f0ed0fc	0.55787635
146	0xbec631da	-0.3870991
147	0x3ee91fc7	0.45532057
148	0x3dee4a23	0.11635234
149	0x3e91c04a	0.28467017
150	0xbe47750d	-0.19478245
151	0x3ec38de9	0.38194206
152	0xbf517756	-0.8182272
153	0xbec602fc	-0.38674152
154	0xbe5b2c0d	-0.21403523
155	0xbfa75fbd	-1.3076092
156	0xbf06ab28	-0.52604914
157	0x3d8d5b5f	0.06902193
158	0xbe37d77b	-0.17953293
159	0x3f454a0e	0.77066123
160	0xbcbd4061	-0.023101987
161	0x3e7ee564	0.24892193
162	0xbf2ddb77	-0.67913
163	0x3db95a6b	0.09050449
164	0xbe342715	-0.17593034
165	0x3ecbfe02	0.3984223
166	0xbf1aa39f	-0.60405916
167	0x3f4d70fc	0.80250525
168	0xbf2e2bdf	-0.6803569
169	0x3f5053cb	0.8137786
170	0xbe261c92	-0.16221836
171	0xbe5923ba	-0.21205035
172	0x3da86df6	0.082240984
173	0xbf044d42	-0.51680386
174	0xbefb0165	-0.490245
175	0x3efd8bd5	0.49520746
176	0x3ebe94b6	0.37222832
177	0x3dca9cf6	0.09893219
178	0xbeafebdb	-0.3435963
179	0x3ed330f5	0.4124829
180	0x3ee90952	0.45514923
181	0x3f1ef193	0.62087363
182	0xbf131b2d	-0.5746334
183	0xbf163bed	-0.5868519
184	0xbd3c6f01	-0.0460043
185	0x3f0ee077	0.55811256
186	0x3e247ba5	0.16062792
187	0xbeba4934	-0.36383975
188	0xbfb7f3fe	-1.4371336
189	0xbe8130ec	-0.25232637
190	0xbf09832c	-0.5371578
191	0x3e63875a	0.22219601
192	0x3ee302bf	0.44338033
193	0xbe8c2428	-0.27371335
194	0x3f0b1566	0.54329526
195	0x3f3674dc	0.71272063
196	0x3ed65b03	0.4186631
197	0x3dbeb2fa	0.09311481
198	0x3e2c1d21	0.16807987
199	0xbe57d4ad	-0.21077223
200	0x3ebe1895	0.3712813
201	0xbf0503f6	-0.5195917
202	0xbeae9ac9	-0.34102467
203	0x3f036481	0.5132523
204	0x3d3fc395	0.04681738
205	0x3e157156	0.14594015
206	0xbefa8bb6	-0.48934716
207	0xbee2f621	-0.44328406
208	0x3eb7c016	0.35888737
209	0x3e8bf42e	0.27334732
210	0xbe0285cc	-0.12746352
211	0xbeccbcce	-0.39987797
212	0xbf1d590b	-0.61463994
213	0xbe1bfa2f	-0.15232156
214	0xbe6c1377	-0.230543
215	0xbe19b35c	-0.15009826
216	0x3ef065d2	0.46952683
217	0x3f06e72e	0.526965
218	0x3ebf5442	0.3736897
219	0xbe121a15	-0.14267762
220	0x3de2735b	0.110571586
221	0x3d1f34c3	0.038868677
222	0xbeb4d51e	-0.35318846
223	0xbf2a6c41	-0.6657143
224	0xbe4742b7	-0.19459043
225	0x3ddf327f	0.10898303
226	0x3edbed37	0.42954418
227	0xbdd9a6d2	-0.106275216
228	0x3e931277	0.28725025
229	0x3f810548	1.0079737
230	0x3f055713	0.5208599
231	0xbe0b4079	-0.13598813
232	0xbea22358	-0.3166759
233	0x3d7537e4	0.059867755
234	0xbec004bc	-0.37503612
235	0x3ee6f7c8	0.45110917
236	0x3e262d09	0.16228117
237	0xbed8abe9	-0.42318657
238	0x3e88c8f0	0.26715803
239	0x3ee94a29	0.45564392
240	0x3e74064f	0.23830532
241	0xbe370a5f	-0.1787505
242	0xbe82acc4	-0.25522435
243	0xbf08926d	-0.5334843
244	0xbec37fb6	-0.38183373
245	0xbee698d3	-0.4503847
246	0xbd23c7b6	-0.03998538
247	0xbdca91cc	-0.0989109
248	0xbf26baab	-0.6512858
249	0x3f5ca335	0.86186534
250	0x3e2177f6	0.15768418
251	0xbeae5f8e	-0.34057277
252	0xbfa7a4df	-1.309719
253	0x3e1c4cb5	0.15263636
254	0x3d4c7a18	0.049921125
255	0x3da604d4	0.0810639

output_projection.bias f4 [35]
0	0xbe67299b	-0.22574465
1	0xbe334c04	-0.17509466
2	0xbc8ef73f	-0.01745188
3	0x3e403c04	0.18772894
4	0xbdfe6143	-0.12420895
5	0xbe376b9b	-0.17912142
6	0xbe7bd651	-0.24593474
7	0xbdca8157	-0.09887951
8	0xbea81c52	-0.32834107
9	0xbc9c6c85	-0.019094715
10	0xbe0d3c19	-0.13792457
11	0xbbaea955	-0.0053302445
12	0x3ceebb00	0.029141903
13	0xbe1479e0	-0.14499617
14	0xbe07ed99	-0.1327423
15	0xbd63bf5d	-0.05560242
16	0xbe348f6d	-0.17632838
17	0xbd0f1f01	-0.034941677
18	0xbdd0055f	-0.101572745
19	0xbe408c74	-0.18803579
20	0xbe72ddb4	-0.23717386
21	0xbd09703f	-0.03355431
22	0xbe3da171	-0.18518616
23	0xbdb3afcf	-0.08773767
24	0xbda92971	-0.082598574
25	0x3de77e3f	0.113033764
26	0xbded59e4	-0.11589411
27	0x3dd5c98c	0.10438833
28	0xbe6eb052	-0.23309448
29	0x3eb1ac38	0.34701705
30	0x3cce35d2	0.025172148
31	0x3d26e316	0.04074391
32	0xbfed6f44	-1.854958
33	0xbfed3806	-1.8532722
34	0xbfdda66d	-1.7316414

transformer.encoder.layers.0.self_attn.in_proj_weight f4 [192, 64]
0	0xbe1c63f7	-0.15272509
1	0xbdf8f108	-0.12155348
2	0xbdb0ee22	-0.0863917
3	0xbdc3df66	-0.09564094
4	0xbd73c82c	-0.05951707
5	0x3d2376fa	0.039908387
6	0xbd0baacf	-0.034098443
7	0x3c430d61	0.011905045
8	0xbd55f65a	-0.052236892
9	0x3d264bcd	0.040599633
10	0x3cdb9bcb	0.026807686
11	0x3dc75aec	0.09734139
12	0x3e189c13	0.14903288
13	0xbdd5c022	-0.10437037
14	0x3ceb0868	0.028690532
15	0x3e156ea1	0.14592983
16	0xbe006c25	-0.12541254
17	0x3d1907a8	0.037360817
18	0xbdae93f2	-0.08524312
19	0x3d798d5a	0.06092582
20	0xbcd5c926	-0.026096892
21	0xbd1b985e	-0.037987106
22	0x3dae4832	0.08509864
23	0x3d015799	0.03157768
24	0xbdd6534e	-0.10465108
25	0xbd9c64d9	-0.07636423
26	0x3d0a0bc1	0.033702616
27	0xbdb46489	-0.08808238
28	0xbde30930	-0.11085737
29	0xbcb58407	-0.022157682
30	0xbc689d58	-0.01419767
31	0x3e0aabe7	0.13542138
32	0x3d9904e9	0.0747164
33	0x3c95902f	0.018257229
34	0x3dd1b693	0.102399014
35	0x3d6f2707	0.05838683
36	0xbc6b18d9	-0.014349186
37	0x3dd0ecc4	0.102014095
38	0x3b994f39	0.0046786335
39	0xbd44fcf5	-0.0480928
40	0x3d92670c	0.07148561
41	0x3c9025a8	0.01759608
42	0x3d09d4a1	0.033650044
43	0xbe13b58d	-0.14424725
44	0x3da124c3	0.0786834
45	0xbd477217	-0.04869279
46	0x3d81ae53	0.06332078
47	0x3e193845	0.14962871
48	0xbe15c184	-0.14624602
49	0xbd9e3f66	-0.07726936
50	0xbbd58731	-0.00651636
51	0x3b84f37e	0.004057347
52	0xbdf4b79f	-0.119490854
53	0x3df1f52e	0.118143424
54	0xbdd63bb8	-0.10460609
55	0xbd06f7fd	-0.032951344
56	0xbd976aa2	-0.073933855
57	0x3e01857c	0.12648576
58	0x3c878924	0.016544886
59	0x3dfdfd90	0.12401879
60	0xbe072534	-0.13197786
61	0x3dafcebe	0.08584355
62	0xbaec6923	-0.0018036704
63	0xbd718d88	-0.058972865
64	0xbd9b35f3	-0.07578649
65	0xbd2306b7	-0.039801326
66	0x3dabf5d5	0.08396498
67	0x3d88bb97	0.06676405
68	0x3e116c0e	0.14201376
69	0x3e110336	0.14161381
70	0xbd92febb	-0.07177492
71	0x3d2b6b29	0.041850243
72	0xbd7c358e	-0.06157451
73	0xbda48aec	-0.0803431
74	0x3dfd06a8	0.12354785
75	0x3def0a0c	0.11671838
76	0x3d6281a1	0.055299405
77	0xbceda83d	-0.029010886
78	0xbd8c1f43	-0.068419
79	0xbcb91baa	-0.022596199
80	0xbb5e5af8	-0.0033928733
81	0x3d80e7cd	0.062942125
82	0xbdae40b9	-0.085084386
83	0x3e08a3e6	0.13343772
84	0xbddde3d2	-0.10834469
85	0x3dc24fa5	0.09487847
86	0x3cdd1fd4	0.026992716
87	0x3e18592a	0.14877763
88	0x3b2fcd9d	0.0026825436
89	0xbda62000	-0.08111572
90	0x3e06b9d5	0.13156827
91	0x3d54648f	0.051853713
92	0xbd49ca7a	-0.049265362
93	0xbe042e59	-0.12908305
94	0x3d8fddca	0.07024725
95	0x3e12a192	0.14319447
96	0xbe0a7cde	-0.13524196
97	0x3dc9c61c	0.098522395
98	0x3e17cae6	0.14823493
99	0xbdebe494	-0.11518207
100	0x3d3b1e4b	0.045683187
101	0x3cbccf1d	0.023047978
102	0x3c5d93df	0.013524025
103	0x3d97c33e	0.07410286
104	0x3cab683b	0.020923724
105	0x3c176f8d	0.009242904
106	0xbd8511c7	-0.064975314
107	0x3d60eb93	0.05491216
108	0x3d73d7c8	0.059531957
109	0x3dcf745b	0.10129615
110	0x3d85ec88	0.065392554
111	0xbdf563b6	-0.11981909
112	0x3e053473	0.13008289
113	0x3dafc3da	0.085822776
114	0xbe0b8071	-0.13623215
115	0x3deb4946	0.11488585
116	0xbe11f7fe	-0.14254758
117	0x3d6e9d36	0.058255397
118	0xbcc35fa8	-0.023849323
119	0x3db76f7f	0.08956813
120	0xbda5ddab	-0.080989204
121	0xbdfe9dd4	-0.12432447
122	0xbe01a8df	-0.12662075
123	0x3dbd4a7b	0.09242722
124	0x3d52bef7	0.05145165
125	0x3db8ec12	0.09029402
126	0xbdc0a14e	-0.094057664
127	0xbdd722de	-0.10504697
128	0xbcee571d	-0.029094273
129	0xbc4b9dd2	-0.012427764
130	0xbe0c86af	-0.13723253
131	0x3e07e41d	0.13270612
132	0xbb5ce0a0	-0.0033703223
133	0xbd6054cf	-0.05476838
134	0x3d6aead6	0.057352863
135	0x3e07cdfc	0.1326217
136	0xbdc2a5af	-0.09504258
137	0x3e0afa23	0.13571982
138	0xbe02487f	-0.12722968
139	0xbd231b56	-0.03982099
140	0xbdf6d2a6	-0.12051897
141	0x3dad2fd0	0.08456385
142	0xbe130d22	-0.14360479
143	0x3e0a7193	0.13519888
144	0xbdcd2378	-0.10016531
145	0x3d72f4b9	0.059315417
146	0xbd459ff9	-0.048248265
147	0x3df299bb	0.11845728
148	0x3da8854e	0.08228551
149	0x3cb7789a	0.022396374
150	0xbd1b2fce	-0.037887387
151	0xbde361b7	-0.11102622
152	0xbdc49935	-0.095995344
153	0x3e06ae94	0.13152534
154	0x3dd94287	0.10608392
155	0x3cab3b40	0.020902276
156	0xbd67dce8	-0.056607157
157	0x3a81242d	0.00098527
158	0xbd776626	-0.06040015
159	0xbdf90faf	-0.121611945
160	0xbdaa7bb0	-0.08324373
161	0xbe06cc0a	-0.13163772
162	0xbd3131db	-0.043260437
163	0xbbebc7cd	-0.007195449
164	0x3e158120	0.14600039
165	0xbd6e6eff	-0.058211323
166	0xbd5e3106	-0.05424597
167	0xbdc68d21	-0.09694887
168	0xbdca6094	-0.09881702
169	0x3df13118	0.11776942
170	0xbda1a324	-0.07892445
171	0x3d285407	0.04109576
172	0xbdbcbf89	-0.0921622
173	0xbe0626b9	-0.13100709
174	0xbdb9d826	-0.0907443
175	0xbcd5ceff	-0.02609968
176	0x3e09c183	0.13452725
177	0xbd33e567	-0.043919947
178	0x3d5e301f	0.05424511
179	0x3d8fcf66	0.0702198
180	0xbd5fe266	-0.05465927
181	0x3a5d22dc	0.00084356754
182	0xbdde85c0	-0.108653545
183	0xbd5dbb1a	-0.054133512
184	0xbe0150ff	-0.12628554
185	0x3dcda0a7	0.10040408
186	0x3d25e94f	0.040505704
187	0xbdc230c6	-0.09481959
188	0xbc4ac12b	-0.012375156
189	0xbdc6cb72	-0.09706773
190	0x3ba461b1	0.0050165285
191	0xbda888df	-0.08229231
192	0xbc2b8953	-0.010469752
193	0x3d837906	0.06419568
194	0xbdb9bfb8	-0.090697706
195	0x3e189566	0.14900741
196	0xba55ca9c	-0.00081554963
197	0xbd675576	-0.056477986
198	0xbd560221	-0.052248124
199	0x3d93ef44	0.07223371
200	0x3dab9377	0.08377736
201	0x3da46cd7	0.08028572
202	0xbdcbc8ca	-0.09950407
203	0x3dd30c77	0.10305112
204	0xbdc703e0	-0.09717536
205	0x3de3dca0	0.11126065
206	0xbe03a08e	-0.12854216
207	0x3db2ea7d	0.08736131
208	0xbdc625ae	-0.096751556
209	0xbd8e50f1	-0.06949032
210	0xbdb71afd	-0.089406945
211	0xbded7734	-0.11595002
212	0xbdd47f94	-0.10375896
213	0xbcc9a72b	-0.024615845
214	0xbd1a6ada	-0.037699558
215	0x3d610aa8	0.054941803
216	0xbdd73857	-0.10508793
217	0x3d8f9c02	0.07012178
218	0x3ded69d8	0.11592454
219	0x3decc6e9	0.115613766
220	0x3d996d24	0.0749152
221	0xbb9f7b3c	-0.0048669856
222	0x3d8f3044	0.06991628
223	0xbd1e17c7	-0.038596895
224	0xbc4469f7	-0.011988155
225	0x3e0600f4	0.13086301
226	0x3d5e0000	0.05419922
227	0xbd8139c8	-0.06309849
228	0x3a5d261b	0.0008436159
229	0x3dae520c	0.08511743
230	0x3ddf21e6	0.108951375
231	0x3e118962	0.14212564
232	0x3c8f2895	0.017475406
233	0x3d928489	0.07154185
234	0xbd76954a	-0.060200967
235	0x3d227079	0.039658044
236	0x3c70f834	0.014707614
237	0xbddc31bb	-0.10751673
238	0x3d681ae2	0.056666262
239	0xbd04f104	-0.032456413
240	0xbdfd44f5	-0.12366668
241	0xbb902f23	-0.0044001504
242	0xbd75b47c	-0.059986576
243	0x3e1e8ab8	0.15482605
244	0xbd4d6af4	-0.050150827
245	0x3db17b8a	0.08666141
246	0xbd357b1c	-0.04430686
247	0x3ccd5c6a	0.02506848
248	0xbd2c6947	-0.042092588
249	0xbe0e798d	-0.13913555
250	0x3def65c3	0.116893314
251	0x3d9449e1	0.07240654
252	0xbd951069	-0.072785206
253	0xbdf96d21	-0.12179018
254	0x3d3d54ac	0.046223328
255	0x3dcf1f1b	0.10113355

transformer.encoder.layers.0.self_attn.in_proj_bias f4 [192]
0	0x3cf18ade	0.029485162
1	0xbceb2551	-0.028704317
2	0xbcaee5ce	-0.021349814
3	0x3c83d624	0.016093321
4	0xbc93c54d	-0.018038416
5	0xbc8f36e2	-0.017482225
6	0x3d332191	0.043733183
7	0x3c9b30c2	0.018944148
8	0x3cc535cd	0.024073506
9	0x3bd0eb35	0.006375695
10	0xb8a36e01	-7.7929355e-05
11	0xbaee2330	-0.0018168446
12	0x3b89b44e	0.004202402
13	0xbba0aa95	-0.0049031475
14	0xbb53d19d	-0.0032320984
15	0x3bb0b756	0.005392949
16	0xbc803c99	-0.015653895
17	0x3c67298d	0.014109028
18	0x3b1b48d2	0.0023694527
19	0x3c6600a7	0.0140382415
20	0x3b2d694c	0.0026460467
21	0x3b57b117	0.003291195
22	0xbc38d93e	-0.011282263
23	0xbc946c4f	-0.018118052
24	0xbc001f50	-0.0078199655
25	0xbc06ba8f	-0.00822319
26	0x3c02211f	0.007942467
27	0x3bfe1c7b	0.00775486
28	0x3bf6c2f0	0.0075305626
29	0xbbdd02ca	-0.0067447172
30	0x3c0881ae	0.008331699
31	0x3bccf410	0.0062546805
32	0xbc83847f	-0.01605439
33	0x3c470224	0.012146506
34	0x3bfadd0f	0.007655747
35	0x3cd5cef6	0.026099663
36	0xbb987ccf	-0.00465355
37	0x3b11111e	0.0022135447
38	0x3c1b918a	0.009495148
39	0xbc3599c9	-0.0110840285
40	0xbb7c76a7	-0.003852287
41	0xbd0c5c85	-0.03426792
42	0x3b2cae39	0.0026348962
43	0xbb09ba3e	-0.002101555
44	0x3b8b11f3	0.004244083
45	0xbb0fe3f4	-0.002195594
46	0x3b033201	0.0020018818
47	0x3a44f717	0.0007513626
48	0x3b8eda76	0.0043595387
49	0x3ab8af55	0.0014090339
50	0xbbd3a71c	-0.00645913
51	0xba858466	-0.0010186553
52	0x3b8e02bb	0.0043338216
53	0x3c5a4866	0.013322925
54	0xbc045112	-0.008075969
55	0x3c0e9944	0.008703534
56	0x3c2b80c9	0.0104677165
57	0xbc32b1be	-0.010906635
58	0xbc23c86a	-0.009996513
59	0xbc37bef3	-0.011214959
60	0x3c7c0461	0.015381903
61	0x3cac4b49	0.021031993
62	0x3c3dc1c2	0.01158184
63	0xbb029f0a	-0.001993122
64	0xb80bc7fc	-3.3326432e-05
65	0xb5593afe	-8.0924644e-07
66	0x37ad820b	2.0683763e-05
67	0xb88775fb	-6.459277e-05
68	0xb91fd222	-0.00015241702
69	0x38977251	7.221534e-05
70	0xb8e14d40	-0.00010743225
71	0xb86a9f4c	-5.5938304e-05
72	0x3b237f48	0.0024947692
73	0x3b017d3d	0.0019758486
74	0xbad32cc1	-0.001611136
75	0x3b84bcaa	0.004050811
76	0xbb2d96ee	-0.0026487666
77	0xba10de0c	-0.00055262516
78	0x3ae42dca	0.0017408666
79	0x3b63efc9	0.0034780374
80	0x36b3c907	5.3580184e-06
81	0x38238eb1	3.899512e-05
82	0x3857e8be	5.1476753e-05
83	0xb78daedc	-1.6889935e-05
84	0xb8537e69	-5.042405e-05
85	0x39121a1c	0.00013933372
86	0xb8c3fa66	-9.344965e-05
87	0x38bcef18	9.009073e-05
88	0xba94aa53	-0.0011342264
89	0x3a858563	0.0010186847
90	0xba489fa3	-0.0007653182
91	0x3a814dd0	0.0009865109
92	0xba8a8773	-0.0010568931
93	0x3a924c6b	0.001116169
94	0x3a81ba35	0.0009897413
95	0x3a865682	0.001024917
96	0xbad57136	-0.001628435
97	0x3b86b2e5	0.0041106814
98	0x3b39828f	0.0028306579
99	0xbb2e2b20	-0.0026575997
100	0x3b800ec1	0.003908009
101	0x3b32c088	0.0027275402
102	0xbb3d4b85	-0.0028884124
103	0x3b61f56d	0.003447856
104	0xbb455d4c	-0.0030115424
105	0xba231b2b	-0.0006222005
106	0x3afb4a9a	0.0019172013
107	0xb85b2e49	-5.2256775e-05
108	0x38568ebd	5.115451e-05
109	0x3a87ab6b	0.0010350769
110	0x3aa574dd	0.0012623329
111	0x3a2e6213	0.00066521874
112	0x3aa35ea8	0.0012464123
113	0x39b262c7	0.000340244
114	0xba8951c5	-0.001047664
115	0xba756bc1	-0.0009362065
116	0x3a81f5a9	0.0009915131
117	0xba4ec531	-0.000788766
118	0x3a35bb1f	0.0006932485
119	0xb82e8902	-4.161243e-05
120	0x3bb0bf19	0.0053938744
121	0x3b8ef57f	0.0043627615
122	0xbbabfdcb	-0.0052487603
123	0x3be98eff	0.007127642
124	0xbb7c037e	-0.003845423
125	0xbacc978c	-0.0015609129
126	0xbb26a2c3	-0.0025426603
127	0x3b190b56	0.0023352704
128	0x3b9993fe	0.0046868315
129	0xbd211502	-0.039326675
130	0xbce34e98	-0.027747437
131	0x3a584538	0.00082500605
132	0x3cce7f7a	0.02520727
133	0x3cb256a4	0.02176983
134	0x3c7c8d30	0.015414521
135	0xbb8cb926	-0.0042945324
136	0xbbc8bf07	-0.006126288
137	0xbd1eab7c	-0.03873776
138	0xbc9baba8	-0.01900275
139	0xbca4ff94	-0.0201414
140	0x3d16d16a	0.036820807
141	0xbdaf1e90	-0.08550751
142	0x3c03e489	0.0080500925
143	0x3b538ebe	0.0032281126
144	0xbd057dd3	-0.0325907
145	0xba6232ff	-0.0008628815
146	0x3bc18d89	0.005906765
147	0x3d0cbf5d	0.034362186
148	0xbc92d931	-0.01792583
149	0xbb8fa2c6	-0.004383418
150	0x3dc5e799	0.09663314
151	0xbc178bd7	-0.009249649
152	0x3c64596a	0.013937334
153	0xbc83bc9f	-0.016081152
154	0xbc837259	-0.016045736
155	0x3cccd625	0.025004456
156	0xbca6a98c	-0.020344518
157	0x3cff3423	0.03115279
158	0xbc51b103	-0.012798551
159	0x3a83d79e	0.0010058766
160	0xbc4ac95e	-0.012377111
161	0xbcd0454d	-0.02542367
162	0x3d8c34f3	0.06846037
163	0x3c0bef68	0.008540966
164	0x3c66d1e8	0.0140881315
165	0x3bf4be4c	0.007468974
166	0x3bc24c0f	0.005929477
167	0xbcf51989	-0.029919403
168	0xbc390674	-0.011293042
169	0xbd7e7106	-0.062119506
170	0xbc824e23	-0.0159064
171	0xbd5e15a9	-0.054219875
172	0xbb76818f	-0.0037613844
173	0x3ccaf958	0.0247771
174	0xbc3d7081	-0.011562468
175	0xbcfa7cea	-0.030577142
176	0x3cba1374	0.022714354
177	0xbbd0b6c1	-0.006369442
178	0xbc156d57	-0.009120307
179	0xbcf50f28	-0.029914454
180	0xbc05059e	-0.008119015
181	0x3cf5afd8	0.029991075
182	0xbd116b17	-0.03550252
183	0xbbcd9109	-0.006273393
184	0x3cacda6a	0.021100242
185	0x3d120383	0.03564788
186	0x3ca2d17e	0.019875284
187	0xbd1e68ce	-0.03867417
188	0x3d469401	0.04848099
189	0x3c9257ab	0.017864069
190	0x3cc1c4ed	0.023653472
191	0x3d1a028d	0.03760009

transformer.encoder.layers.0.self_attn.out_proj.weight f4 [64, 64]
0	0xbd348d19	-0.044079874
1	0xbda9e729	-0.082960434
2	0x3e41ac2f	0.18913339
3	0xbcd4dca6	-0.02598412
4	0x3dae3f1b	0.0850813
5	0xbe409d2e	-0.1880996
6	0x3db94cb5	0.09047834
7	0xbd235a41	-0.039880995
8	0xbda7831e	-0.081793055
9	0x3dc3ae06	0.09554677
10	0x3dc926ee	0.098218784
11	0xbe052837	-0.13003622
12	0x3e015538	0.12630165
13	0x3e7c23b2	0.24622992
14	0x3de4d579	0.11173529
15	0xbc7b13dd	-0.01532456
16	0xbe061cb3	-0.13096885
17	0x3e01f8b1	0.12692524
18	0x3e3c6c23	0.18400626
19	0x3b1c4e24	0.0023850286
20	0xbe207276	-0.15668663
21	0x3cbf4ff9	0.023353564
22	0xbe13047f	-0.14357184
23	0x3e2563a3	0.1615129
24	0xbd8889cf	-0.0666691
25	0x3d815207	0.063144736
26	0xbd8bc672	-0.0682496
27	0x3d0480ce	0.0323494
28	0xbe3fb83d	-0.18722625
29	0xbe59b9b1	-0.21262242
30	0x3e44dd26	0.19224986
31	0xbdb1cccc	-0.0868164
32	0x3e20f194	0.15717155
33	0xbe1026ba	-0.14077273
34	0xbe55656b	-0.20839469
35	0xbe537e38	-0.20653617
36	0x3d08ebfd	0.03342818
37	0x3e0e0c0e	0.13871786
38	0x3b99713c	0.004682688
39	0xbe10e350	-0.14149213
40	0xbd65c369	-0.05609456
41	0x3d9f7fcd	0.07788048
42	0xbd4cc8c5	-0.049996156
43	0xbb72bd54	-0.0037039118
44	0x3e4c9c2e	0.19981453
45	0xbc209d24	-0.00980309
46	0x3e0b6748	0.13613617
47	0x3d68bd45	0.056821126
48	0xbd3b4818	-0.04572305
49	0x3c908082	0.017639402
50	0xbe082314	-0.13294631
51	0xbde33858	-0.11094731
52	0x3c185abf	0.009298979
53	0xbe2521c9	-0.1612617
54	0x3c782601	0.01514578
55	0x3c2b31b5	0.010448863
56	0x3d2d67c8	0.0423353
57	0xbd1d1c11	-0.038356844
58	0xbd471c1c	-0.04861079
59	0x3e94113a	0.28919393
60	0xbe673e66	-0.22582397
61	0x3e5fef9d	0.21868749
62	0xbe889354	-0.26674902
63	0x3de6a003	0.112609886
64	0xbdd0960c	-0.10184869
65	0x3dae55ec	0.08512482
66	0xbe3b6b84	-0.18302733
67	0xbdec3d08	-0.11535078
68	0x3e02529b	0.12726824
69	0x3c6fbef2	0.014632927
70	0xbd9176fc	-0.071027726
71	0x3e0c6bc7	0.13712989
72	0xbe33e70b	-0.17568605
73	0x3e26af3e	0.16277787
74	0xbe333762	-0.17501596
75	0x3e0f4560	0.13991308
76	0x3db3379b	0.0875084
77	0x3d7feb06	0.062479995
78	0xbd94aa22	-0.07259013
79	0x3e53881e	0.20657393
80	0xbded5a27	-0.11589461
81	0xbd6991fd	-0.05702399
82	0xbc461a47	-0.012091226
83	0xbdb2616b	-0.08709987
84	0xbe63d530	-0.22249293
85	0xbe1cd891	-0.15316989
86	0x3aedba97	0.0018137273
87	0x3cdafefd	0.026732916
88	0xba803f23	-0.0009784441
89	0xbc8453f1	-0.016153308
90	0x3e20999a	0.15683594
91	0x3e3d60aa	0.18493906
92	0x3de85663	0.11344602
93	0x3e484a76	0.19559655
94	0x3e28b73e	0.16476151
95	0xbe449199	-0.19196166
96	0x3d605ae5	0.054774184
97	0x3e4af0fe	0.19818494
98	0x3dc7b7c7	0.097518496
99	0x3d95db6f	0.07317244
100	0x3ab33bce	0.0013674439
101	0xbdb0c2c8	-0.086309016
102	0xbddb7e4e	-0.1071745
103	0x3d32ef7d	0.043685425
104	0xbe27870c	-0.1636011
105	0xbe08aa72	-0.1334627
106	0xbdab629f	-0.0836842
107	0xbcc30336	-0.023805242
108	0xbdb6a8f6	-0.089189455
109	0xbc917c5d	-0.017759496
110	0x3e0d3783	0.13790707
111	0x3e19f63f	0.15035342
112	0x3da2d5b5	0.07950918
113	0xbc334bf8	-0.010943405
114	0x3d5faa6e	0.054605894
115	0xbe53eb96	-0.20695338
116	0xbd75daf1	-0.060023252
117	0xbdbafa54	-0.091297776
118	0xbe3a9ddf	-0.18224286
119	0xbe4e4bb8	-0.20146072
120	0x3e589968	0.2115227
121	0x3dd23609	0.10264213
122	0x3ce63a19	0.028103875
123	0xbe5ab24f	-0.21357082
124	0x3cc569e7	0.02409835
125	0x3e031b69	0.12803425
126	0xbd92d4a9	-0.07169468
127	0x3e2bfe1a	0.16796151
128	0x3e32bfd2	0.17455986
129	0xbe601687	-0.21883593
130	0xbe72c68c	-0.23708552
131	0x3d8211fe	0.06351088
132	0xbde1e9e9	-0.11030943
133	0xbe3d06d4	-0.18459636
134	0xbd07ad72	-0.033124395
135	0xbe4552ee	-0.19269916
136	0xbe559501	-0.20857622
137	0x3d5450b2	0.05183477
138	0xbd15d6a6	-0.036581658
139	0x3dda5a48	0.10661751
140	0x3bc47552	0.005995431
141	0xbe62d1aa	-0.22150293
142	0xbd803d5c	-0.06261703
143	0x3dd53eb0	0.10412347
144	0x3e10f50b	0.14155976
145	0x3e21e034	0.15808183
146	0xba916cee	-0.0011095086
147	0xbbd664e4	-0.006542789
148	0xbd9a29a8	-0.075274765
149	0x3dde42eb	0.10852607
150	0xbddafce0	-0.10692763
151	0xbe4c4a2b	-0.19950168
152	0x3d83496b	0.06410488
153	0xbe30f21b	-0.17279856
154	0xbd48c780	-0.049018383
155	0xbc542a46	-0.012949532
156	0x3d33470f	0.04376894
157	0x3e3d09d7	0.18460785
158	0xbe0ff248	-0.14057267
159	0x3e00090a	0.12503448
160	0x3d175775	0.03694864
161	0xbe19c4db	-0.150165
162	0x3e8274de	0.25479788
163	0xbdd359d4	-0.10319868
164	0x3dde251e	0.10846923
165	0x3acace88	0.0015472928
166	0x3b8f05df	0.0043647136
167	0x3e0586d2	0.13039711
168	0xbda1c75e	-0.078993544
169	0xbe0bf694	-0.13668281
170	0xbe837c63	-0.25680837
171	0x3d5cde0e	0.053922705
172	0xbde293c0	-0.11063337
173	0x3e41ab1b	0.18912928
174	0xbe5745df	-0.21022747
175	0xbe1849b1	-0.14871861
176	0xbc862211	-0.016373666
177	0xbc15c53b	-0.009141262
178	0x3b7a269d	0.0038169988
179	0x3d2a763b	0.04161666
180	0x3d823455	0.06357638
181	0x3e2e10d2	0.16998604
182	0xbe37a9c0	-0.17935848
183	0x3e32f495	0.17476113
184	0x3df72cf2	0.120691195
185	0x3bb03b63	0.005378173
186	0x3d7c0a7e	0.061533444
187	0x3cd64326	0.026155066
188	0x3e32669b	0.17421953
189	0x3dd43b6f	0.103628986
190	0xbd319b10	-0.04336077
191	0x3c123561	0.008923859
192	0xbe24e9db	-0.16104834
193	0xbd2b7ace	-0.041865163
194	0x3e4b8d95	0.19878228
195	0xbdfff897	-0.124985866
196	0xbd12bd38	-0.035824984
197	0x3e1f8ec9	0.15581812
198	0xbcf6b535	-0.030115703
199	0x3d01aa59	0.031656597
200	0x3e087e5a	0.1332945
201	0xbe2d0ac6	-0.16898641
202	0x3d861ba3	0.0654824
203	0x3dbe7001	0.09298707
204	0xbe16a673	-0.14711933
205	0xbcd122f0	-0.025529355
206	0xbe60c23e	-0.21949098
207	0xbde6320d	-0.11240015
208	0xbd8bc348	-0.06824356
209	0x3dd5446d	0.10413442
210	0xbe502a0c	-0.2032854
211	0xbd86c3e7	-0.06580334
212	0xbd8d9c0b	-0.069145285
213	0xbdf011ae	-0.11722122
214	0x3d67fd38	0.056637973
215	0xbe280e53	-0.16411714
216	0x3e244b75	0.1604441
217	0xbdca04cd	-0.09864197
218	0x3cf6e621	0.03013903
219	0xbe4e0c99	-0.20121993
220	0x3ce9d028	0.02854164
221	0x3d08f30d	0.033434916
222	0xbe42ad56	-0.19011435
223	0x3d186734	0.037207797
224	0xbd2106f5	-0.039313275
225	0x3d3c2196	0.045930468
226	0xbcb6754e	-0.022272732
227	0x3e205629	0.15657867
228	0x3e5d73f6	0.21626267
229	0x3e2abc99	0.16673507
230	0x3e07d57c	0.13265032
231	0xbc1adf4d	-0.009452653
232	0xbded5a8f	-0.11589538
233	0xbddf83c0	-0.10913801
234	0x3c84f9e6	0.016232442
235	0x3e4542cd	0.19263764
236	0x3ceb8c6c	0.028753482
237	0xbd1ab6c5	-0.03777196
238	0x3d78a3b0	0.06070298
239	0x3d30cfdd	0.043166984
240	0xbe033914	-0.12814742
241	0xbdfa437f	-0.12219905
242	0x3df9c4d2	0.121957436
243	0xbe2d0bd1	-0.16899039
244	0xbdbd2bb9	-0.09236855
245	0xbd4cbe63	-0.049986254
246	0xbda8cf86	-0.08242707
247	0x3dadb5e9	0.08481962
248	0x3d8a80d3	0.067628525
249	0xbdf4a765	-0.119459905
250	0x3e3f597b	0.18686478
251	0xbcce6c2b	-0.025198063
252	0x3e252faa	0.16131464
253	0x3d88bcca	0.06676634
254	0xbd889d7d	-0.066706635
255	0x3ce930e5	0.028465698

transformer.encoder.layers.0.self_attn.out_proj.bias f4 [64]
0	0xbd227548	-0.03966263
1	0x3c43f1ae	0.011959476
2	0x3d7d76b2	0.061880775
3	0x3b3a1399	0.0028393029
4	0xbc0f90b9	-0.008762532
5	0xbb123dee	-0.0022314745
6	0x3c3805ce	0.011231853
7	0x3c8b84c1	0.017031075
8	0x3cb1c3cd	0.02169981
9	0x3c6f129c	0.014591839
10	0x3c04091f	0.008058815
11	0x3c7cfe6d	0.015441519
12	0xbc4d780f	-0.012540831
13	0x3c234f6d	0.009967667
14	0xbc6f3334	-0.01459961
15	0x3d15bd1a	0.036557294
16	0xbcc9722d	-0.024590576
17	0x3c28024f	0.010254457
18	0xbbd9827a	-0.0066378685
19	0x3ab23fe2	0.0013599361
20	0xbbeb0307	-0.0071719917
21	0xbba1d67d	-0.004938899
22	0x3d87f168	0.066378415
23	0xbc15c14c	-0.009140324
24	0x3c0270e5	0.0079614865
25	0xbae186df	-0.0017206332
26	0xbc7cfab4	-0.015440632
27	0xbc7082f2	-0.014679657
28	0xbe00d258	-0.1258024
29	0x3b10b057	0.0022077763
30	0xbcf28fa0	-0.029609501
31	0xbca22496	-0.019792836
32	0x3a95b919	0.0011422961
33	0x3c3dcec9	0.011584946
34	0xbc2be8b6	-0.010492494
35	0x3c9d74f5	0.019220809
36	0xbbd0ee5b	-0.0063760704
37	0x3d5a7e26	0.05334296
38	0x3a4b985b	0.0007766538
39	0x3c473e99	0.012160921
40	0x3d05c1d4	0.032655552
41	0xbc3bfac3	-0.0114733605
42	0x3d8adbef	0.0678023
43	0x3b93a4fd	0.004505752
44	0xbb6c2328	-0.0036031697
45	0x3bd02397	0.006351899
46	0xbcb8c81f	-0.022556363
47	0xbc43db1c	-0.011954095
48	0x3bbdc588	0.00579137
49	0xbc4b8d31	-0.012423799
50	0xbcb6db03	-0.02232123
51	0x3b33f822	0.002746113
52	0xbc6d5ed3	-0.01448794
53	0x3a8ecb26	0.0010894283
54	0xbc42c8d3	-0.011888701
55	0xbc00593d	-0.007833776
56	0x39a8e31c	0.00032212667
57	0xbbda7182	-0.006666363
58	0x3c2d4b17	0.010576985
59	0x3c063f59	0.008193814
60	0xbb8312b5	-0.004000033
61	0x3b2a8872	0.002602127
62	0xbad0f75f	-0.0015942863
63	0xbc12e9d9	-0.008966886

transformer.encoder.layers.0.linear1.weight f4 [256, 64]
0	0xbd257ce0	-0.040402293
1	0x3d8feadf	0.0702722
2	0xbd09e0d7	-0.03366169
3	0xbdbd95ec	-0.09257111
4	0xbdcc0ab0	-0.09962976
5	0x3bc13fc7	0.0058974954
6	0x3d92066a	0.0713013
7	0x3dd1e37e	0.10248469
8	0xbd548056	-0.051880203
9	0xbdd98567	-0.106211476
10	0x3de9c5ee	0.11414705
11	0x3dc682ff	0.09692954
12	0xbd69eb30	-0.057109058
13	0xbd804cdf	-0.06264662
14	0xbdd0f361	-0.10202671
15	0x3c9eafd2	0.019370947
16	0xbaa9c3e8	-0.0012952061
17	0xbde93d7e	-0.11388682
18	0x3dc58d2d	0.09646068
19	0x3d29d2a2	0.04146064
20	0x3e0b76a3	0.13619475
21	0x3d256e93	0.040388655
22	0xbd880fcd	-0.06643639
23	0xbdf65178	-0.12027258
24	0x3e08a453	0.13343935
25	0xbe13ac14	-0.14421111
26	0x3daafaf7	0.08348649
27	0x3a8c7760	0.0010716729
28	0x3d85d140	0.06534052
29	0xbcb2816a	-0.021790225
30	0x3c81df12	0.015853439
31	0xbd1171a6	-0.035508774
32	0x3d9f98ae	0.07792793
33	0xbda6872a	-0.08131249
34	0xbda994a5	-0.08280305
35	0xbd86ad51	-0.06576026
36	0x3df3e580	0.11909008
37	0x3d3081b2	0.043092437
38	0x3e06d75b	0.13168089
39	0xbdb8da69	-0.090260334
40	0xbca4ba3d	-0.020108337
41	0x3d91d86f	0.071213596
42	0xbe0d4edf	-0.13799618
43	0xbde89861	-0.11357189
44	0x3d992913	0.074785374
45	0xbc9c4196	-0.019074243
46	0x3e043582	0.12911037
47	0x3cf5de93	0.030013358
48	0xbd805482	-0.062661186
49	0xbdbe8059	-0.09301824
50	0xbda1ce60	-0.07900691
51	0xbdc98a25	-0.09840802
52	0x3dbcacda	0.09212656
53	0x3ae45bb5	0.001742235
54	0xbd9e45ac	-0.077281326
55	0x3d64f125	0.055894036
56	0x3de3f91f	0.111315005
57	0x3d808676	0.062756464
58	0x3da51c35	0.08062021
59	0xbdcbfe85	-0.09960655
60	0x3d37b5cf	0.04485112
61	0x3caa0814	0.020755805
62	0xbdf02145	-0.11725096
63	0xbe01e60e	-0.12685415
64	0x3dfab424	0.1224139
65	0xbdddace3	-0.10823991
66	0xbdab4b53	-0.08363976
67	0xbd814eea	-0.0631388
68	0xbda3614c	-0.07977542
69	0x3d11ddcd	0.035611916
70	0x3d41e961	0.047341708
71	0xbdef53cd	-0.116859056
72	0xbbef20df	-0.0072976197
73	0xbdb7dc96	-0.0897762
74	0xbb33c270	-0.0027429126
75	0xbd9faa33	-0.07796135
76	0xbcb734bb	-0.022364011
77	0xbdb40249	-0.08789498
78	0xbe0303f6	-0.1279448
79	0xbde8aff3	-0.11361685
80	0x3d12067e	0.035650723
81	0xbcc3a344	-0.023881562
82	0x3da286c8	0.07935864
83	0x3c30be71	0.010787592
84	0xbc1a572b	-0.0094201965
85	0xbd985131	-0.07437361
86	0xbdacf585	-0.08445267
87	0x3dd143c8	0.10218006
88	0xbe0d8e22	-0.1382375
89	0xbd448df9	-0.04798696
90	0x3e04e1bd	0.12976737
91	0xbde14284	-0.10999015
92	0x3dbda109	0.09259231
93	0x3d21d14b	0.039506238
94	0x3da3ee79	0.080044694
95	0xbda4835f	-0.080328695
96	0x3da8ccc9	0.08242185
97	0x3d8d3189	0.06894214
98	0xbd2e73de	-0.04259097
99	0xbdb34be1	-0.08754707
100	0x3dd25de2	0.10271813
101	0x3d013fc6	0.03155496
102	0xbe0f52d5	-0.13996442
103	0x3da54e02	0.080715194
104	0x3e08ce8d	0.13360043
105	0xbdfb6c83	-0.12276556
106	0xbd9b1644	-0.07572606
107	0x3d5c9977	0.053857293
108	0x3e0728c8	0.1319915
109	0xbd780707	-0.060553577
110	0x3ab95ad9	0.0014141455
111	0x3da34df4	0.07973853
112	0x3e0358e9	0.12826885
113	0x3cefd2a4	0.029275246
114	0xbde7d792	-0.11320414
115	0xbdd50984	-0.104022056
116	0xbda11a81	-0.07866383
117	0x3d86e37f	0.0658636
118	0x3dea5a1f	0.114429705
119	0xbdf8251d	-0.12116454
120	0x3d6a8f72	0.057265706
121	0xbdd21d0d	-0.10259447
122	0x3d3ece82	0.04658366
123	0x3c954084	0.01821924
124	0x3de17cde	0.11010145
125	0xbdd887d7	-0.105727844
126	0xbdd4bb58	-0.103872955
127	0xbd5b0cc1	-0.05347896
128	0x3c567016	0.013088247
129	0x3dc4b1b3	0.09604206
130	0x3c9803d7	0.018556518
131	0xbdd73de3	-0.10509851
132	0xbdf0de7f	-0.11761188
133	0xbd96e05c	-0.07367012
134	0xbda51d61	-0.08062244
135	0x3ce3bcb2	0.027799938
136	0xbcaad3f5	-0.020853022
137	0xbdb1de47	-0.08684974
138	0xbe1407f4	-0.14456159
139	0x3e037c47	0.12840377
140	0xbd48ec93	-0.04905374
141	0xbddf5cb4	-0.109063536
142	0xbdb2ff2a	-0.08740075
143	0xbdffa276	-0.12482159
144	0xbdd457fc	-0.10368344
145	0x3ba49c83	0.0050235405
146	0xbdfbb368	-0.122900784
147	0x3d38287b	0.04496048
148	0x3dad9599	0.08475799
149	0x3d6629f7	0.056192365
150	0x3c795bb7	0.01521962
151	0xbd4da3b8	-0.050204962
152	0xbdcb7078	-0.09933561
153	0xbab41dc7	-0.0013741784
154	0x3e04a2e4	0.12952763
155	0x3917f797	0.00014492717
156	0x3e178d25	0.14799936
157	0x3c3ec130	0.011642739
158	0xbd0d311a	-0.034470655
159	0xbd2d5f0d	-0.042326976
160	0xbdcc10e9	-0.09964163
161	0xbd400633	-0.046880912
162	0xbdc27c95	-0.094964184
163	0x3d779ec4	0.060454145
164	0x3cb23607	0.021754278
165	0xbdc61164	-0.09671286
166	0x3d997614	0.07493225
167	0xbdc60ace	-0.096700296
168	0x3d8ce0c0	0.06878805
169	0x3dc49dce	0.09600411
170	0xbded581e	-0.11589073
171	0xbde5a8a6	-0.11213808
172	0x3d79d3ef	0.06099313
173	0x3d50ad26	0.050946377
174	0xbb7aa3dc	-0.003824464
175	0x3dc9455d	0.09827683
176	0xbcd2a3a8	-0.025712803
177	0x3ac22c3c	0.0014814208
178	0x3e19d8f3	0.15024166
179	0x3d38fcca	0.045162953
180	0xbd58e3dd	-0.052951682
181	0x3de267a3	0.110549234
182	0xbc24ce3e	-0.010058938
183	0xbb22b26f	-0.0024825593
184	0x3dea99a6	0.11455087
185	0xbda20383	-0.07910826
186	0xbd94df08	-0.07269102
187	0x3e0a82df	0.13526486
188	0xbc6c8d7b	-0.014438028
189	0x3d1da4ec	0.03848736
190	0xbdaf0395	-0.08545605
191	0x3de7d961	0.113207586
192	0x3de29c82	0.11065008
193	0xbd5c5a4f	-0.053797062
194	0xbe1246e3	-0.14284854
195	0xbd1ac654	-0.037786797
196	0xbdc37f0c	-0.09545717
197	0xbdba0557	-0.0908305
198	0xbd3e6c2c	-0.04648988
199	0x3d4245ae	0.047429733
200	0x3d2a84ef	0.04163068
201	0xbd4f733e	-0.050647013
202	0x3dc2a012	0.09503187
203	0x3e009a11	0.12558772
204	0x3d766556	0.060155235
205	0x3dd78d0d	0.1052495
206	0x3de3d4c2	0.11124565
207	0x3c4d94a5	0.012547647
208	0xbda2d0c6	-0.079499766
209	0xbe02a019	-0.12756385
210	0x3dc7b34f	0.09750997
211	0xbdef71e1	-0.116916426
212	0xbda23471	-0.07920159
213	0x3d4cfc1f	0.05004513
214	0x3d0105ac	0.03149955
215	0xbcd36b4a	-0.025807995
216	0xbd5b576a	-0.05355016
217	0x3da3e70f	0.08003055
218	0x3e016ab2	0.12638357
219	0x3a7e514a	0.0009701444
220	0xbce2e450	-0.027696759
221	0xbd107452	-0.03526718
222	0xbd24b032	-0.040207095
223	0x3ca98ca4	0.020696945
224	0xbde5f475	-0.11228267
225	0xbe05c855	-0.13064702
226	0x3dffb920	0.12486482
227	0xbe0b0176	-0.13574776
228	0xbda89d85	-0.082331695
229	0xbd68b03b	-0.05680869
230	0xbde60156	-0.112307236
231	0xbe037208	-0.12836468
232	0xbe0900eb	-0.13379256
233	0xbcc04178	-0.023468718
234	0xbd0b7226	-0.034044407
235	0xbd5ebe17	-0.054380503
236	0xbde59028	-0.11209136
237	0x3b9c3453	0.0047669797
238	0xbd485c56	-0.048916183
239	0xbd825ba0	-0.06365132
240	0x3d0427d5	0.03226455
241	0x3d9bbeff	0.07604789
242	0x3d3f54ad	0.046711612
243	0x3c895d12	0.016768012
244	0x3d8d1b7a	0.06890006
245	0x3d49319b	0.049119573
246	0x3e08a879	0.13345517
247	0x3d9fec57	0.0780875
248	0x3dc9119f	0.09817814
249	0x3d9645dc	0.07337543
250	0x3d39b6a5	0.0453402
251	0xbdd30e43	-0.103054546
252	0x3c61ff21	0.013793738
253	0xbda0eb2e	-0.07857357
254	0xbdc8c23f	-0.098026745
255	0xbd86b786	-0.06577973

transformer.encoder.layers.0.linear1.bias f4 [256]
0	0xbe08257a	-0.13295546
1	0x3c6235fb	0.013806815
2	0x3d9f1b1e	0.07768844
3	0xbdc649d5	-0.09682051
4	0xbd970e67	-0.07375794
5	0x3e107caf	0.14110063
6	0xbd04eb21	-0.0324508
7	0x3caf43f2	0.021394704
8	0xbd49690e	-0.049172454
9	0x3cf8405f	0.030304132
10	0x3d9da394	0.07697216
11	0xbddf419b	-0.10901185
12	0xbdfd3d97	-0.12365263
13	0xbdf5d758	-0.12003964
14	0x3d9db68f	0.07700836
15	0xbd7e0dd5	-0.06202491
16	0x3ba22fee	0.0049495613
17	0xbcac09f1	-0.021000834
18	0xbdc435dd	-0.09580586
19	0xbd7d1cde	-0.061795108
20	0x3e4c1499	0.19929732
21	0xbd03faee	-0.032221727
22	0xbd8950da	-0.06704874
23	0xbd3ce42d	-0.046116043
24	0x3d83730f	0.0641843
25	0xbc2d4846	-0.010576313
26	0x3cde0b94	0.02710513
27	0x3cf7d67d	0.030253643
28	0xbca0ad74	-0.019613959
29	0x3d741070	0.05958599
30	0xbd83610b	-0.06414994
31	0x3b1828a4	0.0023217583
32	0x3d860692	0.06544222
33	0xbe040449	-0.1289226
34	0xbde707af	-0.112807624
35	0xbc3bf5c0	-0.011472166
36	0xbd572899	-0.05252895
37	0xbcb993a1	-0.022653403
38	0x3d7ea008	0.062164336
39	0x3dfa4f0f	0.122221105
40	0x3d394c22	0.04523862
41	0xbdd0ddea	-0.10198577
42	0x3d911e7c	0.070858926
43	0xbdfce62d	-0.1234859
44	0x3cb60c09	0.022222536
45	0xbcdd034a	-0.026979107
46	0xbccbafca	-0.024864096
47	0xbd56aecc	-0.052412793
48	0x3d8b6174	0.06805697
49	0xbdcf40a1	-0.10119749
50	0x3dcfbcdf	0.10143446
51	0xbd427bc9	-0.047481332
52	0xbb82c6b7	-0.003990974
53	0x3dc927a5	0.09822015
54	0x3d39c54b	0.04535417
55	0xbcb8aef2	-0.022544358
56	0x3d01116a	0.031510748
57	0xbd91ac2e	-0.07112919
58	0xbcb953c1	-0.022622945
59	0xbd95f470	-0.073220134
60	0xbb46f362	-0.003035747
61	0xba982bda	-0.0011609748
62	0x3d4daed4	0.050215557
63	0x3c95e2e1	0.01829666
64	0x3d0e7a36	0.03478452
65	0x3c94b909	0.018154638
66	0x3d0797de	0.033103816
67	0xbd5d3d48	-0.05401352
68	0xbcd7d180	-0.026345015
69	0x3d295c1c	0.041347608
70	0x3d6382e7	0.05554476
71	0xbcc4fe7b	-0.024047127
72	0xbda1ad73	-0.07894411
73	0xbdaabb82	-0.083365455
74	0xbb07b824	-0.0020709122
75	0x3dde6491	0.10859025
76	0xbd3fdad4	-0.04683955
77	0xbd3bb4fe	-0.045826904
78	0x3db1575f	0.08659243
79	0x3dbada08	0.091236174
80	0x3dd814f3	0.10550871
81	0x3c511a9b	0.012762691
82	0x3c954e78	0.018225893
83	0xbd658ea8	-0.05604425
84	0xbd9d3515	-0.0767614
85	0x3d1deaa6	0.038553856
86	0x3da89430	0.082313895
87	0x3da8ed6d	0.082484104
88	0xbd071a90	-0.032984316
89	0x3d4fc6e8	0.0507268
90	0xbe05f4b2	-0.13081625
91	0x3d58ee6d	0.052961756
92	0xbd414c86	-0.04719212
93	0x3ca6c642	0.020358209
94	0xbe05f8c8	-0.13083184
95	0x3c99912b	0.01874598
96	0x3ce9756c	0.028498374
97	0xbb5cda65	-0.003369951
98	0x3d8d706a	0.06906207
99	0xbd17fd39	-0.037106726
100	0x3d9263fa	0.07147975
101	0xbdad0791	-0.08448709
102	0x3dbb6412	0.09149946
103	0xbd8c4b44	-0.06850293
104	0xbd27bcb7	-0.040951457
105	0x3e9ccd7f	0.3062553
106	0xbd1d9023	-0.038467538
107	0x3d718e49	0.058973584
108	0xbbaa49a2	-0.005196766
109	0xbd805e2e	-0.06267963
110	0xbc2aea0b	-0.010431777
111	0x3dc2968a	0.09501369
112	0xbd1fbfe0	-0.039001346
113	0x3dc00dfd	0.09377668
114	0x3dbe390c	0.092882246
115	0x3d2a1458	0.041523308
116	0x3d1d81ff	0.038454052
117	0xbdd704c1	-0.104989536
118	0x3d12ab7f	0.035808083
119	0x3ce87e80	0.028380632
120	0xbd274b77	-0.040843453
121	0x3c9469d9	0.018116878
122	0x3d9a9ce3	0.07549455
123	0x3d3ac710	0.045599997
124	0xbd29ff7e	-0.041503422
125	0x3d3357ff	0.04378509
126	0x3dbd5f29	0.09246666
127	0x3dd16003	0.10223391
128	0xbd9149bb	-0.07094141
129	0xbdb0a027	-0.08624297
130	0x3dcaaf34	0.098966986
131	0xbd70f8f4	-0.05883117
132	0xbd279270	-0.040911138
133	0xbdd00e8c	-0.101590246
134	0xbd56fa2c	-0.052484676
135	0x3d1487fc	0.036262497
136	0x3d33dbaf	0.04391068
137	0x3d92bebf	0.07165288
138	0x3dab1078	0.083527505
139	0x3dc5338a	0.09628971
140	0x3de36231	0.11102713
141	0x3db2666a	0.0871094
142	0x3d4c8407	0.0499306
143	0x3cd6a8e1	0.026203575
144	0x3d878daa	0.06618817
145	0x3c694219	0.01423695
146	0xbc1b8913	-0.00949313
147	0xbc96498c	-0.018345617
148	0xbd92782a	-0.07151826
149	0xbdf80320	-0.12109971
150	0xbdc8c9d6	-0.09804122
151	0x3d157d90	0.0364967
152	0x3d219f84	0.039458767
153	0x3dc16aa7	0.094441704
154	0xbd923113	-0.071382664
155	0xbd10b814	-0.0353318
156	0xbd1b1ace	-0.03786736
157	0x3dcba716	0.099439785
158	0x3d14102d	0.03614824
159	0x3d92974c	0.07157764
160	0x3c8f0cf2	0.017462227
161	0xbddad0fc	-0.10684392
162	0x3d12bd35	0.035824973
163	0xbc334b60	-0.010943264
164	0xbdf2b3c8	-0.11850697
165	0xbd8a03ac	-0.067389816
166	0xbd5d6b14	-0.054057196
167	0xbd5f6bab	-0.05454604
168	0xbce12ca1	-0.027487101
169	0x3a620edd	0.00086234306
170	0xbd7cc179	-0.061707947
171	0x3d6b2d20	0.05741608
172	0xbca5d0fc	-0.020241253
173	0xbd0faf2c	-0.035079166
174	0x3db11c2f	0.08647954
175	0x3d247eea	0.040160097
176	0xbdadd4e8	-0.08487874
177	0xbdadc61c	-0.08485052
178	0xbdaf84fd	-0.085702874
179	0x3d49e945	0.04929473
180	0xbde4d770	-0.11173904
181	0xbd228523	-0.03967775
182	0xbcb27672	-0.021784995
183	0xbd98b8fc	-0.07457158
184	0x3d929884	0.07157996
185	0x3d570c4c	0.05250196
186	0xbbde402d	-0.0067825527
187	0x3e2788ba	0.16360751
188	0x3da9bb33	0.082876585
189	0xbc7815ee	-0.015141947
190	0x3d10d265	0.035356898
191	0xbda4d765	-0.08048896
192	0x3d49020b	0.049074214
193	0x3c4e0f63	0.012576911
194	0x3db14683	0.08656027
195	0x3da1e9f3	0.079059504
196	0xbd87a452	-0.066231385
197	0x3d4eea4e	0.05051642
198	0xbd13ab14	-0.036051825
199	0xbe11b70c	-0.14229983
200	0x3ccc0355	0.024903933
201	0xbd996032	-0.07489051
202	0x3c633e23	0.013869795
203	0xbccaafbf	-0.024742005
204	0x3dd35e51	0.10320724
205	0xbdd9f97d	-0.10643289
206	0x3e1a05ff	0.1504135
207	0xbd3e739c	-0.046496972
208	0xbd431e06	-0.047636054
209	0x3dc4e8bf	0.09614705
210	0x3d92642f	0.07148015
211	0x3e118c6d	0.14213724
212	0x3d04c2b3	0.032412242
213	0x3b89af70	0.004201822
214	0xbd049b36	-0.032374583
215	0xbdc742a4	-0.097295076
216	0x3c315dbe	0.010825573
217	0x3c4747fc	0.0121631585
218	0xbb6b0041	-0.0035858306
219	0xbdedc1f1	-0.11609257
220	0xbd8bd9f2	-0.06828679
221	0x3bbc7fb4	0.005752528
222	0x3cfc54fa	0.030802239
223	0x3d59913e	0.05311703
224	0xbd2394c3	-0.039936792
225	0xbdea36e5	-0.114362516
226	0xbd8ca8b0	-0.06868112
227	0x3d84edec	0.064906925
228	0x3c0a7e57	0.008452973
229	0xbce6db7d	-0.028180832
230	0x3d6cfcfb	0.05785845
231	0xbdf648d2	-0.12025608
232	0x3d3771c7	0.04478624
233	0xbe02f0e0	-0.12787199
234	0x3d4dcd87	0.050244834
235	0xbe092564	-0.1339317
236	0x3ceb3dab	0.028715929
237	0xbdc519b4	-0.09624043
238	0xbd92c0a7	-0.07165652
239	0x3d1b4105	0.037903804
240	0xbd3bdff0	-0.04586786
241	0xbd928b1b	-0.071554385
242	0xbe207010	-0.15667748
243	0x3dce840a	0.10083778
244	0x3da42750	0.08015311
245	0xbd24f851	-0.040275875
246	0xbd3d2f38	-0.04618761
247	0x3c052d78	0.008128516
248	0xbb0f2b59	-0.0021845906
249	0x3e63c32d	0.22242422
250	0x3d872688	0.06599146
251	0x3c303a8c	0.010756146
252	0xbd4b212d	-0.049592186
253	0x3db10613	0.08643737
254	0x3d61b0b8	0.055100173
255	0xbdb1eca8	-0.08687717
